Sentinel_model_weights/IKAE/best_model_0.pt (torch, 138638 bytes, 24 tensors)

invertible_encoder.bijectors.0.net.0.weight f4 [256, 10]
0.14472672 0.07040534 -0.1018462 -0.21064027 -0.14776257 0.041216187 -0.06593535 0.23399071
-0.080739 0.23228292 0.19461404 -0.06344766 0.012599583 -0.16303204 -0.106638305 -0.018734314
0.078393936 0.15938024 -0.1670808 0.14154924 0.15536903 0.3547889 -0.12376335 0.12925288
-0.21075802 -0.024536535 0.23239613 -0.37422046 -0.11491767 -0.058794625 -0.06642352 0.36031643
-0.28115436 -0.09742253 -0.23404291 -0.23050363 -0.12251146 0.3404314 0.09020989 0.09657677
0.11790331 -0.277735 0.111153446 -0.38819656 -0.17129618 -0.09715086 0.2654127 0.23538561
-0.09778443 0.11908112 0.36098862 0.354089 0.091591366 0.029156635 0.32482836 -0.06511621
0.13479094 -0.18918584 -0.20490097 -0.17532326 0.22292112 0.17066944 -0.16989543 0.022535965
0.32335252 -0.09532049 -0.02295869 0.0691076 0.1674698 0.24648264 -0.51181495 -0.34069723
0.19467603 0.06895413 0.41456178 0.29253274 0.016985724 -0.38034946 0.10012838 -0.16034447
-0.52526003 0.42074057 0.2556927 -0.1643369 -0.04358587 -0.123683825 -0.039293326 -0.089161836
0.14492789 -0.15245143 0.2200233 0.12739764 0.41842413 0.054879695 -0.0960759 -0.24571721
0.14079754 0.077360004 -0.259284 -0.045204032 0.4731677 0.50717926 -0.17695649 0.017516935
-0.3749277 -0.1147556 -0.25303096 -0.124849826 0.20776221 0.19006018 -0.26528692 0.23130369
-0.29328662 0.22234045 0.33142337 -0.3331701 -0.10994068 -0.0058477754 -0.021702997 0.0773738
0.052455544 -0.41001108 -0.13240886 0.21239285 -0.10498264 -0.24485898 -0.026558861 -0.057556838
0.052035842 -0.4941887 -0.32159603 0.026760481 -0.36840466 0.0009942567 0.19745584 -0.048208848
0.010972449 -0.059028193 0.0066077495 0.04354894 0.3769087 0.19652578 0.61239344 -0.08831012
-0.37021717 -0.20334768 0.21560399 0.005880033 -0.033131152 -0.21135047 -0.2602376 -0.40677908
0.080377094 0.14978124 0.279406 -0.28504595 0.2689508 -0.20810044 -0.0048237746 0.025783582
0.1003095 0.025463786 -0.11483298 -0.19833708 0.19448693 0.062677614 -0.062774606 0.19903056
-0.12139972 0.14207917 0.29209694 -0.12965223 0.28926256 0.050701402 -0.38544533 0.20177579
-0.07614621 -0.16277136 0.32933655 -0.43230727 -0.13061199 -0.21351413 0.41347316 0.08279474
0.25476038 0.11953026 -0.07576791 -0.04007001 -0.30452445 0.11585022 0.34655803 0.17012088
-0.12340363 0.013409218 -0.23393604 -0.09019598 -0.11672008 0.16525139 -0.10217238 0.16575803
-0.16905068 0.04839975 -0.39519405 -0.33755672 0.07670659 0.25140893 -0.10735337 0.289868
0.24496277 0.17791668 -0.14348505 -0.050713606 0.05597248 0.023538064 -0.009325697 0.104211554
-0.1621565 -0.09643017 0.20428814 -0.34562302 -0.16041055 0.32166463 0.05515758 0.044969533
-0.3367697 0.21672435 -0.18637465 -0.036573958 -0.01395577 0.025039956 0.124562174 0.40034944
0.04898243 0.24474896 0.089417264 -0.23762451 0.11083085 -0.24704379 -0.25321653 0.058467362
0.08920466 0.21878582 -0.12529258 0.057371013 0.26501608 -0.2997114 0.28203332 -0.23230109
-0.027490819 -0.039460372 -0.41259578 -0.11599005 0.2773841 -0.002734242 -0.35141283 -0.059053253
00000000: 3e33 143e ad30 903d be94 d0bd 15b2 57be
00000010: 124f 17be 4ed2 283d 1d09 87bd 439b 6f3e
00000020: 7d5a a5bd 93db 6d3e e748 473e d9f0 81bd
00000030: 7b6e 4e3c dff1 26be 2f65 dabd b478 99bc
00000040: 008d a03d 9334 233e 3b17 2bbe 49f2 103e
00000050: 0f19 1f3e e4a6 b53e a477 fdbd de5a 043e
00000060: f3d0 57be d800 c9bc 40f9 6d3e d399 bfbe
00000070: f559 ebbd a2d2 70bd 0e09 88bd 657b b83e
00000080: 77f3 8fbe 7785 c7bd f2a8 6fbe 2509 6cbe
00000090: 4ae7 fabd 064d ae3e f6bf b83d 0bca c53d
000000a0: 4a77 f13d 4833 8ebe 6ba4 e33d b3c1 c6be
000000b0: 4468 2fbe 08f7 c6bd 2ce4 873e ed08 713e
000000c0: 3443 c8bd cde0 f33d 80d3 b83e 274b b53e
000000d0: 4194 bb3d e5d9 ee3c e74f a63e a65b 85bd
000000e0: a306 0a3e efb9 41be 8fd1 51be f187 33be
000000f0: 6f45 643e f8c3 2e3e 11f9 2dbe 589d b83c
00000100: 768e a53e 6437 c3bd dd13 bcbc 4988 8d3d
00000110: 347d 2b3e f265 7c3e 4e06 03bf de6f aebe
00000120: 2759 473e d337 8d3d 7141 d43e dac6 953e
00000130: a525 8b3c 2abd c2be 1c10 cd3d 5731 24be
00000140: 7177 06bf 4f6b d73e 27ea 823e ef47 28be
00000150: 1987 32bd f24d fdbd 0af2 20bd 7b9a b6bd
00000160: fa67 143e 3a1c 1cbe ca4d 613e 8774 023e
00000170: b03b d63e 88c9 603d 71c3 c4bd 4b9d 7bbe
00000180: 3b2d 103e ec6e 9e3d dfc0 84be dd27 39bd
00000190: 0943 f23e 80d6 013f 1534 35be ad7f 8f3c
000001a0: 86f6 bfbe fc04 ebbd 468d 81be 44b1 ffbd
000001b0: 9ebf 543e 239f 423e b0d3 87be e0da 6c3e
000001c0: aa29 96be 37ad 633e 53b0 a93e 4595 aabe
000001d0: 9428 e1bd b29e bfbb 7cca b1bc 2876 9e3d
000001e0: a0db 563d f9ec d1be 3096 07be 837d 593e
000001f0: 2301 d7bd 50bc 7abe f891 d9bc b8c0 6bbd
00000200: 8923 553d 4d06 fdbe 3ca8 a4be cc38 db3c
00000210: 899f bcbe b851 823a dd31 4a3e a476 45bd
00000220: c9c5 333c 8cc7 71bd d285 d83b 6060 323d
00000230: 2dfa c03e 0e3e 493e d1c5 1c3f f0db b4bd
00000240: 1b8d bdbe 603a 50be 4bc7 5c3e 4bad c03b
00000250: 88b4 07bd 426c 58be dd3d 85be 5945 d0be
00000260: bf9c a43d 4160 193e 4e0e 8f3e 8bf1 91be
00000270: ebb3 893e 4818 55be c110 9ebb 1738 d33c
00000280: 116f cd3d 6e99 d03c 8e2d ebbd e018 4bbe
00000290: 9527 473e 1f5d 803d f98f 80bd abce 4b3e
000002a0: 6ba0 f8bd 347d 113e bb8d 953e 8ec3 04be
000002b0: 391a 943e 46ac 4f3d 1759 c5be 509e 4e3e
000002c0: 8bf2 9bbd 89ad 26be cd9e a83e 6157 ddbe
000002d0: 26bf 05be 73a3 5abe c1b2 d33e 4a90 a93d
000002e0: f46f 823e 48cc f43d 352c 9bbd 7320 24bd
000002f0: a1ea 9bbe e142 ed3d 0e70 b13e 2b34 2e3e
00000300: 0bbb fcbd 56b2 5b3c ee8c 6fbe acb8 b8bd
00000310: f00a efbd a937 293e c13f d1bd 79bc 293e
00000320: 9f1b 2dbe d13e 463d e056 cabe 3cd4 acbe
00000330: 5818 9d3d acb8 803e 15dc dbbd 9469 943e
00000340: 85d7 7a3e ca2f 363e bfed 12be 12b9 4fbd
00000350: 6643 653d e6d2 c03c cfca 18bc de6c d53d
00000360: 5b0c 26be 2e7d c5bd e930 513e 80f5 b0be
00000370: aa42 24be 3ab1 a43e eaec 613d f931 383d
00000380: 146d acbe fdec 5d3e ffd8 3ebe 93ce 15bd
00000390: bea6 64bc 9820 cd3c 741a ff3d 9afa cc3e
000003a0: cda1 483d 799f 7a3e 6620 b73d d753 73be
000003b0: 49fb e23d 0cf9 7cbe 99a5 81be 797b 6f3d
000003c0: efb0 b63d 6409 603e b34c 00be defd 6a3d
000003d0: 30b0 873e c673 99be ac66 903e 56e0 6dbe
000003e0: 6d34 e1bc 33a1 21bd c13f d3be 318c edbd
000003f0: 4a05 8e3e f830 33bb 62ec b3be d3e1 71bd

invertible_encoder.bijectors.0.net.0.bias f4 [256]
-0.06790948 -0.03084215 0.027252194 -0.0373534 -0.027280122 -0.0033100424 -0.14402758 0.0079250075
0.09245736 -0.03707983 -0.016344752 0.030325022 0.052179206 0.00896556 -0.005001069 0.0029824127
-0.048772182 0.021816812 -0.013822283 -0.012155538 -0.21242505 -0.028996602 -0.005074748 -0.007229723
-0.062480986 0.15053147 0.03161667 0.14866774 -0.05004978 0.0033732462 0.07834296 0.020729132
-0.16384023 -0.14482883 -0.20210816 0.06253821 0.043978613 0.02271153 -0.013512603 0.05231717
0.05031022 -0.16063362 -0.020754281 -0.050464418 0.021098414 0.036550596 -0.012328066 -0.116281494
-0.08115838 -0.26381472 -0.16570097 -0.004977669 -0.113522954 0.024884215 -0.06251399 -0.19250758
-0.053723186 -0.20908292 0.059922166 0.0022645206 -0.023452692 -0.029850258 0.0001786301 0.08878082
0.0093988795 -0.10999001 -0.02771507 -0.23326747 -0.01634198 -0.00712201 -0.034250434 -0.12753724
-0.096079715 0.017884608 -0.02214899 0.15151122 -0.06925392 0.038740896 0.061958067 -0.010258055
-0.10879211 -0.0650214 -0.012729324 -0.0010351565 -0.017272223 0.1294521 -0.012913938 0.021331476
0.04123026 0.040475287 -0.020803234 -0.008980512 0.027453352 -0.25512296 0.066050164 -0.004259283
-0.0037909227 -0.035979144 0.0761484 0.022572868 -0.019706937 0.018711524 0.03298338 0.056802116
0.010819977 0.019175602 0.025058916 -0.045644913 -0.03474096 0.03723903 0.03584718 0.030366313
0.054999918 0.0178044 -0.057295572 -0.0071263593 0.036603015 0.055834413 -0.023630952 0.006159773
-0.08125287 -0.021766625 -0.09143281 0.039696116 -0.18154408 -0.0804841 -0.275872 -0.065375626
0.034242343 -0.0036442054 0.13735501 -0.018829226 -0.03187933 0.018437143 0.020106843 -0.099429816
0.03825898 -0.0034603437 0.0138218235 -0.01945062 0.011755968 -0.033053808 0.10226699 0.0022195347
-0.058068786 -0.05500044 -0.025660474 0.041421276 0.005362086 0.011612541 -0.039071452 -0.029931324
-0.14542322 -0.008167018 -0.23081301 -0.13259117 -0.037477754 -0.11470358 -0.061569557 -0.115425475
-0.11411575 0.14130305 -0.03528835 0.030789824 -0.052279197 -0.02987651 -0.077857696 -0.10394108
-0.036993183 0.032934662 -0.00060944114 -0.23667173 0.14208855 -0.057000495 -0.015926419 -0.09406292
-0.18416063 -0.23489085 0.03967188 -0.0018517798 0.0018236503 -0.2369425 -0.022906773 -0.16414742
0.028679214 -0.12793264 -0.053412963 -0.043987095 0.08346753 0.045969184 0.047826115 -0.05968615
-0.020369697 -0.0063808905 -0.15393391 0.16204979 -0.058584176 -0.0071866745 -0.11092814 0.011621624
0.009365541 -0.17416734 0.008733684 -0.17319453 -0.018556869 -0.0034340138 0.0124880485 0.058977906
0.05269941 0.013640921 -0.16213271 0.0014844183 -0.08700961 0.07355415 -0.008778003 0.026260994
0.011046268 0.032348577 -0.03358485 0.036352865 -0.12865296 0.10443179 -0.0393613 -0.015331577
-0.023691239 -0.019856058 -0.07036486 -0.0057117287 -0.025457362 -0.05270259 0.07009068 -0.019777624
-0.18846786 -0.177267 -0.07664541 0.17513168 -0.06644763 -0.0004969455 0.020939473 0.0032900989
-0.0696264 -0.084827594 -0.012285962 -0.029971724 -0.011081958 0.014996982 -0.03600945 -0.018178258
0.040998764 0.020540666 0.01847644 -0.0075225974 -0.02335897 0.015955355 -0.005215058 -0.016745305
00000000: 2014 8bbd ada8 fcbc fe3f df3c e1ff 18bd
00000010: 907a dfbc 4ced 58bb f77b 13be e4d7 013c
00000020: 495a bd3d 05e1 17bd 6ee5 85bc 2e6c f83c
00000030: ddb9 553d 49e4 123c 02e0 a3bb 9574 433b
00000040: 57c5 47bd 2cb9 b23c db76 62bc 0628 47bc
00000050: f485 59be 488a edbc 124a a6bb 50e7 ecbb
00000060: 10ec 7fbd ec24 1a3e 7b80 013d 5b3c 183e
00000070: 0001 4dbd ae11 5d3b 4672 a03d 24d0 a93c
00000080: bcc5 27be 024e 14be 71f5 4ebe 0814 803d
00000090: eb22 343d 880d ba3c f763 5dbc 874a 563d
000000a0: 1712 4e3d 247d 24be e204 aabc c7b3 4ebd
000000b0: 95d6 ac3c 14b6 153d a8fb 49bc fe24 eebd
000000c0: 5d36 a6bd b912 87be 84ad 29be b71b a3bb
000000d0: b97e e8bd fbd9 cb3c 5607 80bd b520 45be
000000e0: d80c 5cbd d519 56be f270 753d 5a68 143b
000000f0: dc1f c0bc 8788 f4bc a74e 3b39 b8d2 b53d
00000100: c2fd 193c 7142 e1bd b70a e3bc abdd 6ebe
00000110: 9edf 85bc c05f e9bb 2f4a 0cbd 1f99 02be
00000120: 71c5 c4bd be82 923c cc71 b5bc c225 1b3e
00000130: 00d5 8dbd c6ae 1e3d bec7 7d3d 6711 28bc
00000140: 66ce debd f129 85bd a88e 50bc 17ae 87ba
00000150: 7a7e 8dbc 178f 043e fb94 53bc 59bf ae3c
00000160: 10e1 283d 6ac9 253d 8b6b aabc ff22 13bc
00000170: dae5 e03c 7a9f 82be 4f45 873d 7591 8bbb
00000180: 2171 78bb de5e 13bd b1f3 9b3d bcea b83c
00000190: 7170 a1bc e948 993c 9519 073d 56a9 683d
000001a0: 4646 313c 2716 9d3c 5b48 cd3c 29f6 3abd
000001b0: 894c 0ebd f487 183d 7ed4 123d c6c2 f83c
000001c0: 9847 613d 88da 913c c3ae 6abd 3c84 e9bb
000001d0: 0bed 153d a0b2 643d b395 c1bc ecd7 c93b
000001e0: e867 a6bd ec4f b2bc 2041 bbbd 6598 223d
000001f0: b1e6 39be d9d4 a4bd 183f 8dbe a8e3 85bd
00000200: b341 0c3d 9fd3 6ebb cba6 0c3e c03f 9abc
00000210: e693 02bd 7e09 973c 1bb7 a43c dca1 cbbd
00000220: 73b5 1c3d efc6 62bb ee74 623c e856 9fbc
00000230: 1b9c 403c 6e63 07bd 5b71 d13d 9d75 113b
00000240: 89d9 6dbd 2448 61bd ea35 d2bc 5ba9 293d
00000250: 70b4 af3b 8742 3e3c 6309 20bd 8932 f5bc
00000260: d3e9 14be f5ce 05bc 3f5a 6cbe fbc5 07be
00000270: 4682 19bd b6e9 eabd 5c30 7cbd 3164 ecbd
00000280: 85b5 e9bd bfb1 103e 848a 10bd f13a fc3c
00000290: b622 56bd 95bf f4bc db73 9fbd 10df d4bd
000002a0: 2a86 17bd 7fe6 063d e7c2 1fba 135a 72be
000002b0: a97f 113e 5a79 69bd 1f78 82bc 0fa4 c0bd
000002c0: 9b94 3cbe 3a87 70be fb7e 223d 6bb7 f2ba
000002d0: 8d07 ef3a 0ea1 72be fca6 bbbc 4316 28be
000002e0: acf0 ea3c c600 03be 8dc7 5abd d02b 34bd
000002f0: 06f1 aa3d 2f4a 3c3d 51e5 433d 7779 74bd
00000300: 5ade a6bc ca16 d1bb daa0 1dbe 61f0 253e
00000310: f6f5 6fbd 327e ebbb 4b2e e3bd a068 3e3c
00000320: ed71 193c ec58 32be ba17 0f3c e859 31be
00000330: 9304 98bc 310d 61bb ac9a 4c3c d192 713d
00000340: 56db 573d 2b7e 5f3c 1e06 26be d090 c23a
00000350: 1832 b2bd 8fa3 963d 9dd1 0fbc 4c21 d73c
00000360: 68fb 343c f17f 043d 4590 09bd bee6 143d
00000370: 9abd 03be 56e0 d53d 5139 21bd 4b31 7bbc
00000380: 2114 c2bc 2ca9 a2bc 741b 90bd 7429 bbbb
00000390: f58b d0bc acde 57bd b48b 8f3d af04 a2bc
000003a0: b8fd 40be 7b85 35be 45f8 9cbd b855 333e
000003b0: b215 88bd 7345 02ba 4289 ab3c b39e 573b
000003c0: 4998 8ebd 17ba adbd 0f4b 49bc 4387 f5bc
000003d0: 1a91 35bc e7b5 753c a57e 13bd 92ea 94bc
000003e0: 52ee 273d e644 a83c e75b 973c 1f80 f6bb
000003f0: 505b bfbc ceb4 823c 14e3 aabb 732d 89bc

invertible_encoder.bijectors.0.net.2.weight f4 [10, 256]
0.042465 0.01259304 -0.02315367 0.046975695 0.025043517 -0.015435454 0.040984467 -0.08241723
0.00074349286 -0.03250772 0.043279354 -0.009046166 0.019122817 0.049203064 -0.03682758 -0.025477674
0.011019578 -0.020777306 -0.031004865 0.024032459 0.038434252 0.010857094 -0.005636617 -0.023629352
-0.0355294 -0.017230209 -0.013857825 -0.018537078 0.019919131 0.008021904 0.024181304 0.03215207
0.024898844 0.048871156 -0.0012706066 -0.03765911 0.0013103992 0.09755384 -0.022274343 0.13376111
0.015235521 -0.0034449743 0.013670959 -0.0287615 0.010804304 -0.014753763 0.027134504 -0.0145353265
0.06554015 0.0033567373 0.0001625436 0.04526509 0.02465926 0.020776646 0.018335106 0.02159187
0.020722557 -0.027130077 0.07725059 0.063259125 -0.003199036 0.07170362 -0.055481806 -0.07818108
0.058448 0.028050613 0.027715143 0.022838209 0.005765468 -0.014842279 0.0004663656 0.1265095
0.02163294 0.079321705 0.0053584557 -0.056595843 -0.04459729 0.010291096 -0.10080024 -0.009767969
0.00819277 0.018739192 0.03316482 -0.034666397 0.0042021726 0.007403412 -0.07141383 -0.013431593
0.032827307 0.086973876 -0.020330401 0.01230211 -0.0058453693 -0.0009293699 -0.0042757117 -0.013050452
0.06716676 -0.03797726 0.078638606 0.018151892 0.02343185 -0.009273293 -0.010837898 0.011742256
-0.058823984 -0.010206085 0.009512814 -0.057541665 -0.052900456 0.006434637 0.01985867 -0.03865286
0.05257959 -0.0056707724 -0.0071719266 -0.008739311 0.005005639 0.08016973 0.08442127 -0.029575754
0.017698344 0.010484873 0.0063355593 0.013138349 -0.023175303 0.033243522 0.02547265 0.014975943
0.009411067 0.0043389793 -0.014552053 0.040624518 0.03964533 0.024803327 -0.028816435 0.014141243
0.014224041 -0.016320942 0.0020018658 0.005573966 0.0034991885 -0.02342289 0.051187623 -0.0010729493
0.04803617 -0.017634414 0.044548515 0.026041385 0.03564188 0.0050972467 0.02218035 0.036154017
-0.018286912 -0.037607558 -0.031627033 -0.03247322 0.036522347 0.040833004 0.01966359 -0.013452289
-0.025544604 -0.030383853 0.018744597 0.022431545 0.039097823 0.074115604 0.08050794 -0.03138896
-0.01768296 -0.007755383 0.004584543 0.004842812 -0.047203213 -0.01048871 -0.0035759027 -0.023453513
0.096189514 -0.011075844 -0.035627533 -0.0021497873 0.016032137 -0.0020377384 0.024769993 0.04039352
0.034773525 0.011092873 0.0029976654 -0.028652588 -0.055431966 -0.0038261882 0.010891433 0.031089006
0.04151301 -0.027959267 0.013096143 -0.043542963 -0.019537555 0.020624258 -0.0023019698 -0.027073752
-0.022696273 -0.050433327 0.04603394 0.03331905 -0.027536253 -0.022933625 -0.0056771175 -0.023868723
-0.04287283 -0.02273882 0.05746069 0.013105181 0.041972496 0.15314661 -0.021118494 -0.07305326
0.0020745362 0.008877729 0.060227014 0.019017726 -0.016299453 -0.027141238 0.01804568 0.08058264
0.0415661 0.0007700764 -0.02560389 0.008374181 -0.05297482 -0.019542374 0.031020157 -0.016030727
-0.0024538005 0.07477862 -0.008750868 0.08657835 0.03883996 0.05180558 0.005635129 -0.02497129
0.011329465 -0.009661073 -0.007313867 -0.03273013 -0.124436855 0.029477337 -0.016042575 -0.00927624
-0.00859379 -0.05601524 -0.07326771 -0.017787289 0.027893117 -0.012867874 0.009500706 -0.016941596
00000000: c8ef 2d3d 0a53 4e3c c4ac bdbc 9669 403d
00000010: 1028 cd3c fde4 7cbc 54df 273d 5dca a8bd
00000020: f6e6 423a d126 05bd b145 313d 5f36 14bc
00000030: 74a7 9c3c 2789 493d 84d8 16bd 8eb6 d0bc
00000040: 768b 343c 2b35 aabc eafd fdbc b8df c43c
00000050: 3c6d 1d3d f4e1 313c 5fb3 b8bb 5892 c1bc
00000060: 4787 11bd 5e26 8dbc ee0b 63bc 12db 97bc
00000070: 722d a33c 4e6e 033c df17 c63c e4b1 033d
00000080: a9f8 cb3c 1f2d 483d 7c8a a6ba 7040 1abd
00000090: b3c1 ab3a 4fca c73d af78 b6bc acf8 083e
000000a0: 689e 793c 14c5 61bb 28fc 5f3c 3d9d ebbc
000000b0: 8904 313c c4b9 71bc 2e49 de3c 9425 6ebc
000000c0: ea39 863d b5fc 5b3b 7770 2a39 e367 393d
000000d0: 3702 ca3c c933 aa3c 8133 963c 6fe1 b03c
000000e0: 5ac2 a93c e53f debc 8f35 9e3d 008e 813d
000000f0: eba6 51bb 59d9 923d e440 63bd 671d a0bd
00000100: 2c67 6f3d 66ca e53c de0a e33c 3217 bb3c
00000110: 40ec bc3b 082d 73bc 8882 f439 b58b 013e
00000120: 9037 b13c 6b73 a23d fc95 af3b 0bd1 67bd
00000130: a6ab 36bd fc9b 283c 5b70 cebd d509 20bc
00000140: f83a 063c ef82 993c d6d7 073d 5afe 0dbd
00000150: 61b2 893b 5298 f23b 6a41 92bd 2f10 5cbc
00000160: ed75 063d 5c1f b23d f18b a6bc ca8e 493c
00000170: 838a bfbb f5a0 73ba 451b 8cbb 90d1 55bc
00000180: ba8e 893d 0b8e 1bbd 470d a13d 47b3 943c
00000190: 27f4 bf3c 03ef 17bc 7091 31bc 9762 403c
000001a0: 6bf1 70bd 6c37 27bc a2db 1b3c cfb0 6bbd
000001b0: 26ae 58bd a6d9 d23b a6ae a23c 7652 1ebd
000001c0: b25d 573d e3d1 b9bb 7b02 ebbb 542f 0fbc
000001d0: 5806 a43b 0730 a43d 0fe5 ac3d da48 f2bc
000001e0: 1efc 903c bfc8 2b3c 869a cf3b 3b42 573c
000001f0: 22da bdbc 5c2a 083d 05ac d03c a85d 753c
00000200: e030 1a3c ff2d 8e3b bc6b 6ebc e565 263d
00000210: 2463 223d 5930 cb3c 7210 ecbc acb0 673c
00000220: f40b 693c 7fb3 85bc bc31 033b d1a5 b63b
00000230: a452 653b 5ce1 bfbc 1daa 513d 34a2 8cba
00000240: 93c1 443d 0c76 90bc 8178 363d be54 d53c
00000250: 38fd 113d ce06 a73b 91b3 b53c 3c16 143d
00000260: 6fce 95bc 620a 1abd 598b 01bd a402 05bd
00000270: 7598 153d 8240 273d 8915 a13c fd66 5cbc
00000280: eb42 d1bc 8fe7 f8bc 458e 993c 5cc2 b73c
00000290: 0a25 203d ecc9 973d 59e1 a43d b691 00bd
000002a0: dbdb 90bc de20 febb ef39 963b 74b0 9e3b
000002b0: 2858 41bd d7d8 2bbc b159 6abb 9521 c0bc
000002c0: 02ff c43d 7577 35bc 2dee 11bd 72e3 0cbb
000002d0: d455 833c 948b 05bb 71ea ca3c ad73 253d
000002e0: af6e 0e3d e2be 353c 7b74 443b d5b8 eabc
000002f0: a10c 63bd c9c0 7abb fb71 323c 5fae fe3c
00000300: 8c09 2a3d d50a e5bc 3491 563c 1b5a 32bd
00000310: 390d a0bc 34f4 a83c a5dc 16bb c6c9 ddbc
00000320: 89ed b9bc 2d93 4ebd 168e 3c3d 8e79 083d
00000330: b593 e1bc 4cdf bbbc 1d07 babb 5788 c3bc
00000340: 6c9b 2fbd c346 babc e75b 6b3d 1db7 563c
00000350: 5aeb 2b3d 77d2 1c3e b100 adbc f39c 95bd
00000360: f1f4 073b e573 113c 9ab0 763d 10cb 9b3c
00000370: 6e86 85bc 4d57 debc 89d4 933c 8308 a53d
00000380: 3741 2a3d f4de 493a 40bf d1bc dc33 093c
00000390: 20fc 58bd 5417 a0bc fc1d fe3c df52 83bc
000003a0: f1cf 20bb 8825 993d cd5f 0fbc fd4f b13d
000003b0: a616 1f3d 1632 543d e3a6 b83b 9790 ccbc
000003c0: 389f 393c 7a49 1ebc 2aa9 efbb 0710 06bd
000003d0: c0d8 febd 757a f13c b86b 83bc 5ffb 17bc
000003e0: f8cc 0cbc 3c70 65bd 620d 96bd a6b6 91bc
000003f0: 1b80 e43c c6d3 52bc d9a8 1b3c 1ac9 8abc

invertible_encoder.bijectors.0.net.2.bias f4 [10]
0.04535214 -0.0054862257 0.0063489503 0.016072176 -0.02034513 0.012413565 -0.009817646 -0.012210786
-0.0033168215 0.016729413
00000000: 2ac3 393d ccc5 b3bb db0a d03b cca9 833c
00000010: d4aa a6bc 4462 4b3c 31da 20bc c00f 48bc
00000020: 085f 59bb 1f0c 893c

invertible_encoder.bijectors.1.net.0.weight f4 [256, 10]
0.14791721 0.27305624 -0.12947464 0.015064429 -0.32694566 -0.16964449 0.28423473 -0.04328428
0.55309826 -0.13311133 -0.11669854 0.37487358 0.23779029 -0.2502701 0.12713118 -0.30822185
-0.1993726 0.7226046 -0.26458815 -0.16365126 0.53221494 -0.40964043 -0.0504185 -0.22172707
0.24230278 0.5630596 -0.24425684 0.38804668 0.32522023 0.039216712 -0.32354134 -0.14781962
-0.20459625 0.3793705 0.26011813 0.16854845 -0.08644467 0.09967509 -0.5326189 0.1836072
0.23968673 0.05519959 -0.45610926 0.38410664 0.50383985 -0.5158325 0.7117494 -0.9284156
0.056451634 0.36723328 0.17988712 -0.5444139 0.15271367 -0.048626553 -0.8563182 -0.27372834
0.6128099 -0.6861578 0.43677944 0.12730646 0.1003986 0.38148302 -0.36016545 -0.20363793
0.49822447 -0.3488704 -0.28872094 -0.047345493 0.59587824 -0.21432233 -0.15397742 -0.14129926
-0.6711132 0.0552894 0.09538161 -0.0021293608 0.075824864 -0.34088966 0.3239477 -0.20859213
-0.31142542 0.0499609 -0.19221857 -0.11548101 0.6953682 0.16772921 -0.2793176 0.56039923
0.12605226 -0.32070088 0.042830184 -0.3035503 0.03963193 0.10900973 0.02713976 0.30957216
-0.38233843 -0.82566535 -1.2090164 -0.6084697 -0.0661362 0.64458436 -0.09172064 -0.35322827
-0.14038563 -0.4040012 0.32457352 0.52464944 0.28001004 -0.28183153 0.2985091 -0.28992137
-0.31306168 0.12208295 -0.36055213 0.66146904 0.26915747 -0.46591976 -0.08154853 0.6473789
-0.43347737 0.28778145 -0.42248222 -0.10702927 -0.23406921 0.4667599 0.06075397 0.042641338
0.3681563 -0.45792472 0.1701869 -0.22094297 -0.7857089 0.30387408 0.056064386 1.1056485
-0.7714394 -0.45958623 0.43882725 0.57802206 0.060088646 -0.19653633 -0.06078942 0.03454647
-0.31034496 -0.13589594 -0.16516621 0.13567302 0.06081746 -0.21498485 0.21786553 0.15981725
0.4263765 0.27371874 -0.3096378 -0.25235137 -0.14155051 -0.19324955 0.20551407 -0.044462264
0.1271662 0.34588033 -0.10419628 -0.29573208 0.26770872 0.18343115 0.12884323 -0.24067725
-0.34915915 -0.12926054 0.10276185 0.14807534 -0.2364718 -0.027430777 -0.29610142 -0.046017356
0.21632572 -0.22519273 0.72248447 -0.25075197 -0.34944463 0.39024085 0.26752633 0.16929027
0.31550238 -0.19755428 -0.14480399 0.22551744 -0.46229836 0.20338534 -0.21660744 -0.2171706
0.02375316 -0.28825206 0.1933396 0.08867649 0.14756815 0.15854181 2.3759677 0.94126505
0.15451181 -0.18975762 -0.29617462 0.06021386 -0.22138365 -0.7022256 0.16341507 0.053319775
0.40420052 -0.7604142 -0.0025547908 0.33400056 -0.3725582 0.42478642 -0.082357466 -0.38117522
-0.19641009 -0.41067964 -0.03024214 -0.13267247 0.21903567 -0.18842795 0.16153865 -0.18954164
-0.7880745 -0.54492766 -0.4309152 -0.2541975 0.5110128 -0.12761039 -0.83197105 0.17739467
-0.26846758 -0.18784124 -0.15675783 -0.39630848 0.5300437 -0.06995734 -0.037208922 -0.2109614
0.15626292 0.82121265 -0.062237203 -0.19802801 0.34484237 0.27931216 0.378577 0.39370134
0.121181615 -0.05262609 -0.59722686 0.029072449 0.2324822 -0.10767639 -0.037892427 -0.38016114
00000000: 9c77 173e 07ce 8b3e 0095 04be cbd0 763c
00000010: 6c65 a7be 49b7 2dbe 3787 913e db4a 31bd
00000020: d997 0d3f 564e 08be a5ff eebd 6eef bf3e
00000030: 4c7f 733e 6723 80be ad2e 023e 41cf 9dbe
00000040: 5528 4cbe 9dfc 383f 1978 87be 3294 27be
00000050: 3d3f 083f 64bc d1be a183 4ebd 6c0c 63be
00000060: 381e 783e ad24 103f 771e 7abe 0eae c63e
00000070: 4483 a63e b4a1 203d 36a7 a5be 075e 17be
00000080: ae81 51be da3c c23e 342e 853e f797 2c3e
00000090: e709 b1bd 7422 cc3d b659 08bf 8703 3c3e
000000a0: 7070 753e f718 623d 2787 e9be a0a9 c43e
000000b0: a6fb 003f 990d 04bf 3535 363f a5ac 6dbf
000000c0: d439 673d 0006 bc3e 5434 383e b65e 0bbf
000000d0: f960 1c3e a32c 47bd ab37 5bbf 1f26 8cbe
000000e0: 1ce1 1c3f 0aa8 2fbf 8ea1 df3e a05c 023e
000000f0: c89d cd3d be51 c33e 9b67 b8be 7686 50be
00000100: 4717 ff3e 249f b2be 3bd3 93be 59ed 41bd
00000110: 7a8b 183f 5077 5bbe 42ac 1dbe c1b0 10be
00000120: 13ce 2bbf 2377 623d 6f57 c33d bf8c 0bbb
00000130: 114a 9b3d 1789 aebe 79dc a53e 2d99 55be
00000140: 2773 9fbe cda3 4c3d f2d4 44be 4f81 ecbd
00000150: a603 323f 35c1 2b3e b702 8fbe 5376 0f3f
00000160: d813 013e e832 a4be b46e 2f3d f26a 9bbe
00000170: 1755 223d 7e40 df3d 3454 de3c 3e80 9e3e
00000180: ddc1 c3be ce5e 53bf 0dc1 9abf acc4 1bbf
00000190: 6b72 87bd 7b03 253f 08d8 bbbd 56da b4be
000001a0: 40c1 0fbe 3fd9 cebe 802e a63e 6d4f 063f
000001b0: 7a5d 8f3e 394c 90be 2fd6 983e 9370 94be
000001c0: 9f49 a0be a006 fa3d 4a9a b8be 0956 293f
000001d0: 02cf 893e 098d eebe ea02 a7bd a0ba 253f
000001e0: bff0 ddbe 1758 933e 974f d8be 2932 dbbd
000001f0: d7af 6fbe 27fb ee3e 28d9 783d afa8 2e3d
00000200: fc7e bc3e 1c75 eabe 7a45 2e3e e03e 62be
00000210: 3824 49bf 6295 9b3e c5a3 653d e485 8d3f
00000220: 0d7d 45bf e34e ebbe f7ad e03e 41f9 133f
00000230: 831f 763d d240 49be 54fe 78bd 9980 0d3d
00000240: 89e5 9ebe 4e28 0bbe 5521 29be deed 0a3e
00000250: bb1b 793d fd24 5cbe 2418 5f3e 22a7 233e
00000260: 054e da3e dd24 8c3e d988 9ebe 3334 81be
00000270: 9ef2 10be 36e3 45be 4872 523e 101e 36bd
00000280: db37 023e 3a17 b13e dc64 d5bd 326a 97be
00000290: 1e11 893e 60d5 3b3e 7bef 033e 1974 76be
000002a0: fdc4 b2be e05c 04be ce74 d23d 10a1 173e
000002b0: aa25 72be 82b6 e0bc 9b9a 97be b27c 3cbd
000002c0: 7d84 5d3e ec98 66be bef4 383f 9062 80be
000002d0: 68ea b2be a6cd c73e 36f9 883e 6e5a 2d3e
000002e0: 8789 a13e ab4b 4abe 7f47 14be 0bee 663e
000002f0: 5fb2 ecbe 3f44 503e 57ce 5dbe f861 5ebe
00000300: fd95 c23c c695 93be d1fa 453e 059c b53d
00000310: 1b1c 173e c958 223e db0f 1840 bff6 703f
00000320: 5838 1e3e d24f 42be 33a4 97be cfa2 763d
00000330: 65b2 62be 0fc5 33bf 4856 273e d665 5a3d
00000340: 5ff3 ce3e 81aa 42bf 476e 27bb 1f02 ab3e
00000350: f3bf bebe 9b7d d93e 08ab a8bd 6629 c3be
00000360: ba1f 49be 9a44 d2be 5dbe f7bc 4bdb 07be
00000370: e34a 603e 42f3 40be 636a 253e 3417 42be
00000380: 40bf 49bf 6180 0bbf eba0 dcbe 2d26 82be
00000390: bcd1 023f 4cac 02be 0efc 54bf f3a6 353e
000003a0: 9574 89be 7459 40be 2085 20be f2e8 cabe
000003b0: f2b0 073f cb45 8fbd 6268 18bd 4406 58be
000003c0: 6303 203e fe3a 523f 70ec 7ebd dbc7 4abe
000003d0: 2e8f b03e 0102 8f3e d8d4 c13e 3993 c93e
000003e0: 112e f83d 748e 57bd dce3 18bf 5829 ee3c
000003f0: d00f 6e3e 7085 dcbd 1735 1bbd 7ba4 c2be

invertible_encoder.bijectors.1.net.0.bias f4 [256]
0.0072043953 0.022317449 -0.04969248 0.039711904 -0.028789507 -0.06954947 0.03464604 0.029580055
0.070931554 -0.023121791 0.02909354 -0.03219744 0.051925074 -0.06710417 -0.016837923 -0.071436994
0.008849817 0.022231666 0.030980209 0.0034473662 0.0040726312 0.006280692 -0.027924713 0.0473458
0.018474456 0.03618596 -0.035978075 0.038545 -0.012497889 -0.058401164 0.06836464 -0.008938605
0.006157038 0.06349558 0.0020816515 -0.035518173 -0.0074379956 0.022661436 -0.071966715 0.021688916
0.07638841 -0.016166024 0.026869923 0.025757192 -0.0066861897 0.003473673 -0.052364837 -0.028606195
0.029250864 -0.08695833 -0.0048315544 -0.09474161 0.047406267 -0.09819272 0.002264501 0.0033545743
-0.08740985 0.005183337 -0.06737051 -0.14534117 -0.0063987593 0.0036300805 0.02315076 0.017736845
-0.11131615 0.038780265 -0.06885508 -0.060401745 0.032077234 -0.043755792 -0.022046193 -0.0012347448
0.039073795 0.006512677 0.046166163 0.0023063677 -0.059603885 -0.050201304 0.0024050295 -7.54515e-05
-0.035961393 0.07080557 0.013090784 -0.035407323 -0.0064211874 0.02730429 -0.01150916 0.024361117
0.0056044813 0.04069397 -0.11836283 -0.07465432 0.047649268 0.033072732 -0.094678104 -0.06542902
-0.08903546 0.0040026316 0.084383994 0.040620495 -0.103845604 -0.009454777 -0.060757488 -0.03425728
0.024693426 0.03371131 0.059304632 -0.027522169 0.008424832 0.02702986 0.06420742 -0.0022689085
0.00082270283 0.026936214 -0.043738887 0.020989928 0.014945479 0.033218868 0.03252006 -0.21298535
0.05097804 -0.03891103 -0.06757952 0.10560282 -0.05276277 -0.0673694 0.014719503 0.04462381
-0.06742076 0.022933662 -0.080372475 0.0054672826 0.020858373 -0.01345167 -0.1201833 -0.052696608
-0.04982007 -0.047695905 -0.039047856 0.009360551 0.012221363 -0.06661045 -0.002494593 -0.039824232
0.0069627482 -0.00043734725 0.033008285 0.07385083 -0.043313537 0.025120223 -0.11226944 -0.10305463
0.072684 -0.03144623 -0.10381358 -0.05589274 -0.02798576 -0.07338749 0.025657699 -0.118463814
-0.04955794 0.027383063 -0.060468502 0.031353172 0.05608159 -0.013756075 -0.041638233 -0.10321547
0.01881505 0.08167309 -0.01259174 0.03876938 -0.10920907 -0.10007699 0.04489255 -0.07165767
-0.00025813843 -0.05125254 -0.066673815 0.001913277 -0.022036016 0.018744664 -0.036514033 0.029607471
-0.023821754 -0.108114086 0.019001037 0.02404071 -0.048103627 0.00507597 -0.015255845 0.011641672
-0.03614422 0.021463538 -0.015770521 -0.0040549017 0.01722378 0.00017219338 -0.045192048 0.0030780323
-0.009188691 0.01696803 -0.017897582 0.010140356 -0.014138123 0.04610132 0.08524894 0.016511554
0.020838307 -0.035551183 -0.05041384 0.022683933 0.010813515 -0.015098516 -0.04532929 0.035511848
0.03978177 0.0113335885 0.026621977 0.015344521 0.0275268 0.0014645277 0.056252696 -0.052803505
-0.026308421 -0.024267847 0.08857025 -0.01702321 -0.06266623 -0.010568592 0.006043261 0.026322909
0.057634108 -0.065877154 -0.008487759 -0.06947782 -0.019053837 -0.022426834 0.009803118 0.09395575
0.0113852285 0.035324406 -0.022912811 -0.0015076746 0.020538729 -0.0100033665 -0.012501831 -0.004732659
-0.009820663 -0.04732674 -0.010018793 -0.0678702 0.018931735 0.020365596 -0.021495821 0.007458139
00000000: d912 ec3b 15d3 b63c 588a 4bbd f3a8 223d
00000010: f9d7 ebbc f46f 8ebd 02e9 0d3d df51 f23c
00000020: 9044 913d e969 bdbc 9355 ee3c 76e1 03bd
00000030: 63af 543d e96d 89bd afef 89bc 8f4d 92bd
00000040: d3fe 103c 2f1f b63c 35ca fd3c 35ed 613b
00000050: b573 853b 43ce cd3b 5ec2 e4bc abed 413d
00000060: be57 973c bb37 143d bf5d 13bd 5de1 1d3d
00000070: f2c3 4cbc 0f36 6fbd c302 8c3d 3a73 12bc
00000080: fac0 c93b f809 823d 516c 083b 817b 11bd
00000090: 6eba f3bb 7aa4 b93c 4963 93bd f4ac b13c
000000a0: 8771 9c3d 9c6e 84bc 501e dc3c bf00 d33c
000000b0: d317 dbbb 90a6 633b 837c 56bd 8a57 eabc
000000c0: 829f ef3c 3517 b2bd 0452 9ebb e407 c2bd
000000d0: 132d 423d 4419 c9bd 0668 143b 6bd8 5b3b
000000e0: ef03 b3bd fbd8 a93b 8df9 89bd 51d4 14be
000000f0: afac d1bb a5e6 6d3b aaa6 bd3c dc4c 913c
00000100: b9f9 e3bd 0ed8 1e3d e403 8dbd d267 77bd
00000110: 6b63 033d 4639 33bd 389a b4bc 29d7 a1ba
00000120: d80b 203d 4b68 d53b bb18 3d3d 6e26 173b
00000130: 3423 74bd e29f 4dbd b39d 1d3b b73b 9eb8
00000140: 414c 13bd 8302 913d ba7a 563c 4507 11bd
00000150: d368 d2bb 3fad df3c ea90 3cbc f790 c73c
00000160: cca5 b73b b8ae 263d 3668 f2bd 5de4 98bd
00000170: e12b 433d 4677 073d 98e6 c1bd a6ff 85bd
00000180: 3958 b6bd 8228 833b 84d1 ac3d ad61 263d
00000190: 01ad d4bd 36e8 1abc d8dc 78bd 5d51 0cbd
000001a0: de49 ca3c df14 0a3d 6ae9 723d 2c76 e1bc
000001b0: 4e08 0a3c ba6d dd3c 2e7f 833d f8b1 14bb
000001c0: a7aa 573a 56a9 dc3c 8c27 33bd 12f3 ab3c
000001d0: e2dd 743c 8210 083d c133 053d d518 5abe
000001e0: 59ce 503d 2c61 1fbd 2267 8abd 4b46 d83d
000001f0: c61d 58bd f8f8 89bd 122a 713c 75c7 363d
00000200: e513 8abd 60df bb3c 539a a4bd e426 b33b
00000210: 2edf aa3c 6564 5cbc a922 f6bd 66d8 57bd
00000220: 2110 4cbd c85c 43bd a5f0 1fbd ff5c 193c
00000230: 1d3c 483c 0f6b 88bd 537c 23bb bc1e 23bd
00000240: c427 e43b c14b e5b9 b233 073d 1b3f 973d
00000250: 8969 31bd edc8 cd3c 85ed e5bd 4e0e d3bd
00000260: 59db 943d c3cd 00bd 379c d4bd c9ef 64bd
00000270: 6442 e5bc 2e4c 96bd 1830 d23c 289d f2bd
00000280: 44fd 4abd 7252 e03c d2ad 77bd 2f6c 003d
00000290: cfb5 653d 2961 61bc da8c 2abd a262 d3bd
000002a0: 0522 9a3c 3944 a73d 964d 4ebc a4cc 1e3d
000002b0: 01a9 dfbd 2af5 ccbd 40e1 373d 42c1 92bd
000002c0: c156 87b9 2fee 51bd 488c 88bd ecc6 fa3a
000002d0: e084 b4bc 698e 993c bd8f 15bd 5e8b f23c
000002e0: d725 c3bc eb6a ddbd 10a8 9b3c 06f1 c43c
000002f0: 4f08 45bd 5354 a63b a7f3 79bc b6bc 3e3c
00000300: f60b 14bd 4dd4 af3c 2e31 81bc fbde 84bb
00000310: e218 8d3c cf8e 3439 4c1b 39bd d0b8 493b
00000320: 2a8c 16bc 8a00 8b3c f39d 92bc bc23 263c
00000330: 96a3 67bc bdd4 3c3d ff96 ae3d 3d43 873c
00000340: 19b5 aa3c 1e9e 11bd be7e 4ebd a8d3 b93c
00000350: 2b2b 313c c45f 77bc 35ab 39bd df74 113d
00000360: 36f2 223d 84b0 393c 5516 da3c 9667 7b3c
00000370: e27f e13c 65f5 bf3a 3a69 663d 7d48 58bd
00000380: c284 d7bc 5dcd c6bc 5264 b53d 4274 8bbc
00000390: 2757 80bd e327 2dbc 8c06 c63b 24a3 d73c
000003a0: be11 6c3d 9aea 86bd 3e10 0bbc 634a 8ebd
000003b0: cb16 9cbc 7bb8 b7bc 429d 203c df6b c03d
000003c0: 1c89 3a3c 53b0 103d a6b3 bbbc 2a9d c5ba
000003d0: d640 a83c 29e5 23bc 7bd4 4cbc 6c14 9bbb
000003e0: d9e6 20bc afd9 41bd dd25 24bc 88ff 8abd
000003f0: ba16 9b3c c0d5 a63c 0118 b0bc 6863 f43b

invertible_encoder.bijectors.1.net.2.weight f4 [10, 256]
-0.031480968 0.013594467 -0.027940055 -0.036846355 -0.10940042 0.07731579 0.13810872 -0.0043416684
0.027814688 -0.15269725 0.24775608 -0.26228923 -0.04131634 0.04706118 0.006565997 0.018815313
0.11771933 -0.024538659 0.03477143 0.5547151 -0.05264845 0.043247644 -0.11808331 0.11919767
0.19921198 -0.0839933 0.09230523 -0.008556514 -0.20442787 -0.03867378 -0.06462947 0.047166705
-0.009407138 0.025477277 0.15627144 -0.24317081 0.013209708 0.040760074 -0.059282564 -0.0050413534
-0.03432197 0.0028537514 -0.11359398 -0.015746804 -0.018236628 -0.0564606 -0.13206914 -0.10588593
-0.025676735 0.062482607 -0.036936183 0.08123151 -0.039434567 0.01726077 0.0018772235 0.11943231
0.070541985 0.033100747 0.05924803 -0.008522508 -0.61027163 -0.020506691 0.050375428 -0.07552063
0.092145026 0.02766175 -0.08724253 -0.057956345 -0.012597987 0.04870633 0.0062280027 0.2649784
0.0011340721 0.084508374 -0.03119128 0.0016575344 -0.05574595 0.056207985 -0.012257998 0.07439522
-0.015062261 0.017714122 0.060074773 -0.011256392 -0.30988532 0.076667964 -0.11210166 0.004902969
0.20371929 -0.045871053 0.053994358 0.06741976 0.022062134 -0.08820108 0.04213272 -0.11630487
-0.01910348 0.037105847 0.018815923 0.02896215 -0.13058268 0.037491895 0.00660362 0.0104198335
0.0048511657 -0.011309047 -0.055620275 -0.10551433 -0.008687134 -0.005220749 0.010585741 -0.25382206
-0.0018947931 0.1658616 0.02921764 0.010589497 -0.14044969 0.12605374 0.008097424 -0.34497997
0.029188046 -0.010022479 -0.04091412 -0.0010370219 -0.22920826 0.20948204 0.052993562 -0.008445671
0.12849519 0.071531564 0.03095225 -0.065337926 0.010660595 0.26172101 -0.005341048 -0.031435814
0.0397014 0.14186384 -0.21054824 -0.15018812 -0.045688905 0.22932905 -0.086488456 0.0917687
0.005552512 0.41985655 -0.03654626 -0.007695535 0.011322554 0.050334554 -0.055667963 -0.010220565
0.07205803 0.03941596 -0.10257374 -0.11275967 -0.042439472 -0.03339262 0.008577312 0.028666373
-0.020165263 -0.103286676 0.08892405 0.026692884 -0.011076505 -0.002111269 0.021292549 0.08181595
-0.017876187 0.0011864017 -0.022363184 -0.026465308 0.014059478 0.07866144 -0.0458341 -0.052844364
0.0074235504 -0.0028523433 0.022755474 0.023451636 0.037224315 -0.10998003 -0.22924197 -0.09582221
0.0721584 -0.061707858 0.045166653 -0.06176151 -0.059761766 -0.056209356 0.057360977 0.080787435
0.09207057 0.033954907 -0.014199517 -0.013916562 -0.060463745 -0.057402965 -0.18128003 0.06922344
-0.010764751 0.011343452 0.025053522 -0.2560995 -0.25094137 0.023560792 -0.028694542 0.03969717
-0.024707751 -0.06285897 0.048423104 -0.065874845 0.4749347 -0.117515795 0.07179438 -0.046420693
-0.10499601 0.012536196 -0.11163724 -1.2225101 0.033299837 -0.09049404 -0.0238401 -0.06058526
-0.0021530997 0.04415292 -0.08164368 0.3506923 -0.03300537 0.06330289 -0.04349369 -0.018807914
-0.01588973 -0.048435096 -0.06769869 -0.050499503 0.034334306 0.015298801 -0.010845936 -0.07695589
-0.07047459 0.03188215 -0.044094067 -0.067886375 0.160319 0.072526276 0.18237834 0.010511619
0.0559203 -0.13886502 0.02831222 0.033347797 -0.027581187 -0.036582068 0.020575684 -0.107353516
00000000: 30f2 00bd 54bb 5e3c 8be2 e4bc 34ec 16bd
00000010: 540d e0bd be57 9e3d 5f6c 0d3e 8e44 8ebb
00000020: a1db e33c ab5c 1cbe c5b3 7d3e c64a 86be
00000030: 533b 29bd 39c3 403d 9327 d73b 9222 9a3c
00000040: d516 f13d 4c05 c9bc 7d6c 0e3d cf01 0e3f
00000050: e7a5 57bd 7124 313d aad5 f1bd e81d f43d
00000060: 3afe 4b3e ae04 acbd 860a bd3d 9f30 0cbc
00000070: 8a55 51be 6668 1ebd 755c 84bd e031 413d
00000080: 6620 1abc b9b5 d03c 9f05 203e c501 79be
00000090: 886d 583c 09f4 263d 46d2 72bd f031 a5bb
000000a0: 3295 0cbd 0106 3b3b f6a3 e8bd 71ff 80bc
000000b0: fb64 95bc 3b43 67bd 223d 07be b9da d8bd
000000c0: 0458 d2bc c3ed 7f3d 654a 17bd b55c a63d
000000d0: 2486 21bd 7566 8d3c 2b0d f63a ed98 f43d
000000e0: 5178 903d a694 073d 10ae 723d fda1 0bbc
000000f0: c33a 1cbf a6fd a7bc 7756 4e3d 8faa 9abd
00000100: 88b6 bc3d e59a e23c 36ac b2bd a263 6dbd
00000110: ca67 4ebc 4a80 473d 4614 cc3b 40ab 873e
00000120: 25a5 943a ba12 ad3d db84 ffbc a041 d93a
00000130: de55 64bd 583a 663d c5d5 48bc 855c 983d
00000140: b4c7 76bc 351d 913c f710 763d bb6c 38bc
00000150: 4aa9 9ebe 1804 9d3d 8e95 e5bd 16a9 a03b
00000160: ca9b 503e 49e3 3bbd 3029 5d3d 5f13 8a3d
00000170: a6bb b43c c5a2 b4bd 5c93 2c3d 3f31 eebd
00000180: e77e 9cbc 4dfc 173d da23 9a3c 0842 ed3c
00000190: 77b7 05be 1a91 193d 2e63 d83b f3b7 2a3c
000001a0: 87f6 9e3b 9549 39bc 16d2 63bd e617 d8bd
000001b0: 7b54 0ebc d112 abbb d16f 2d3c f7f4 81be
000001c0: b55a f8ba a0d7 293e d559 ef3c 927f 2d3c
000001d0: 0bd2 0fbe 3b14 013e 0fab 043c 37a1 b0be
000001e0: c51b ef3c 5335 24bc 9095 27bd aeec 87ba
000001f0: 92b5 6abe 7682 563e c70f 593d b65f 0abc
00000200: 3e94 033e 247f 923d 938f fd3c e4cf 85bd
00000210: c7a9 2e3c 4c00 863e f503 afbb d7c2 00bd
00000220: ef9d 223d c144 113e f599 57be eaca 19be
00000230: 4a24 3bbd 3cd5 6a3e dc20 b1bd 3af1 bb3d
00000240: d9f1 b53b 70f7 d63e 88b1 15bd d42a fcbb
00000250: 3c82 393c 9b2b 4e3d 1704 64bd 2874 27bc
00000260: 2993 933d a172 213d 2e12 d2bd 8bee e6bd
00000270: 03d5 2dbd b3c6 08bd db87 0c3c bed5 ea3c
00000280: 9f31 a5bc f787 d3bd d01d b63d 09ab da3c
00000290: 3b7a 35bc 375d 0abb b66d ae3c 1f8f a73d
000002a0: 1571 92bc 0981 9b3a ff32 b7bc c6cd d8bc
000002b0: ba59 663c 4019 a13d 8abc 3bbd 5573 58bd
000002c0: 4141 f33b 61ee 3abb b069 ba3c a51d c03c
000002d0: 8678 183d 363d e1bd 68be 6abe 6f3e c4bd
000002e0: c9c7 933d 61c1 7cbd ab00 393d a3f9 7cbd
000002f0: c1c8 74bd c83b 66bd 58f3 6a3d e273 a53d
00000300: 7f8f bc3d 4d14 0b3d 17a5 68bc 4b02 64bc
00000310: d5a8 77bd 5f1f 6bbd 79a1 39be 05c5 8d3d
00000320: a35e 30bc e3d9 393c 0b3d cd3c 791f 83be
00000330: 637b 80be 9002 c13c d110 ebbc 8099 223d
00000340: e967 cabc 34bc 80bd 4e57 463d 64e9 86bd
00000350: a42a f33e 1fac f0bd ef08 933d a023 3ebd
00000360: 2608 d7bd 9e64 4d3c 11a2 e4bd 367b 9cbf
00000370: 6965 083d f054 b9bd 504c c3bc 4028 78bd
00000380: 051b 0dbb b1d9 343d cd34 a7bd f18d b33e
00000390: a430 07bd f2a4 813d 7126 32bd 0e13 9abc
000003a0: 2e2b 82bc e163 46bd 9ca5 8abd 91d8 4ebd
000003b0: 21a2 0c3d d2a7 7a3c 27b3 31bc 0d9b 9dbd
000003c0: fb54 90bd db96 023d fb9b 34bd 0308 8bbd
000003d0: aa2a 243e a888 943d 63c1 3a3e ed38 2c3c
000003e0: af0c 653d a232 0ebe 07ef e73c b397 083d
000003f0: f1f1 e1bc 14d7 15bd 568e a83c 29dc dbbd

invertible_encoder.bijectors.1.net.2.bias f4 [10]
-0.008284488 -0.039835654 -0.029994039 -0.093579575 -0.03456401 -0.08768849 -0.12568511 -0.15202329
-0.06807924 -0.0431788
00000000: a9bb 07bc b62a 23bd 0fb6 f5bc a6a6 bfbd
00000010: fe92 0dbd 0696 b3bd 99b3 00be feab 1bbe
00000020: 216d 8bbd 41dc 30bd

invertible_encoder.bijectors.2.net.0.weight f4 [256, 10]
-0.18762998 0.44931027 0.04603233 -0.14720668 -0.51761067 -0.11455894 0.13284172 -0.24956812
-0.06215706 0.008690436 -0.3281133 0.69863623 0.066104405 -0.38699698 -0.12357802 0.1757686
-0.07569071 -0.14524028 -0.270021 0.08050888 -0.124739304 -0.5050632 -0.05656448 -0.26462457
0.4576538 0.46755308 -0.56071484 0.3858691 -0.09099137 0.48769924 -0.063245386 0.13082609
0.018209951 0.014622202 -0.044621047 -0.3497167 0.30407497 -0.22226459 0.07121984 -0.39197776
0.31533992 -0.2329962 0.026711378 -0.40183368 0.2038431 0.3297258 0.08589383 0.2862959
-0.018312776 -0.44945502 0.82011235 0.41925657 -0.88357836 -0.23701535 0.118795425 -0.17679837
-0.38212612 0.07185533 -0.15736787 0.3026623 -0.02185074 0.20384371 -0.032827407 0.13597904
-0.15487859 -0.24656759 0.15353681 -0.33665264 -0.25892216 -0.39031726 -0.016246412 0.20898053
0.44771644 0.11002341 -0.13110809 -0.027261786 0.073908314 -0.21380633 -0.45004603 0.028664242
-0.22789824 0.17830631 0.26471728 0.020472543 0.31503424 -0.32629907 0.036410794 -0.12520213
-0.009063607 -0.30852497 0.034433447 -0.659946 0.8800738 -0.39044306 -0.25435814 0.3056289
0.0054290104 -0.032412928 -0.43580717 -0.1675035 0.57320327 0.38470775 0.7019504 0.05365409
0.15696318 0.28069925 -0.027300596 0.051011078 0.49521917 -0.1077815 0.6042004 0.2665698
-0.3961522 -0.05333792 -0.15562937 -0.46291763 -0.061971504 0.13085246 0.029641861 0.119105294
-0.9407805 -0.38189217 -0.508297 0.12028254 -1.2808627 0.34939405 0.37612578 0.27914906
0.5057541 -0.31252524 -0.19585462 -0.47460386 -0.5539214 0.11201862 -0.22262447 -0.0030422264
-0.077916674 0.09432691 -0.49817 -0.041660763 0.2002049 0.45035774 0.0799919 0.10088679
0.7881141 -0.1016105 -0.5481896 0.13734832 -0.10924999 -0.06520396 -0.57746667 -0.029869497
0.006923092 -0.06733731 -0.059024274 -0.37821132 0.24993247 0.096840076 -0.26227552 0.19240023
-0.108154215 -0.6320229 0.24260683 0.47167405 0.7104298 0.05455874 0.03930082 0.3069671
-0.19096835 0.48370227 -0.6217209 0.60518277 -0.5188676 0.3087194 0.23554505 0.47239643
-0.1432308 -0.06648103 -0.17852783 0.40524858 -0.19391243 0.17648211 0.30594274 0.45620105
-0.063235685 0.13147928 -0.11005194 -0.24574398 -0.26771417 0.19940673 0.11150471 -0.12847471
0.24617055 0.18197627 0.042431798 -0.28044128 0.0029223762 0.21596596 -0.15471917 0.07016152
-0.18001655 -0.36820203 0.25693536 -0.38830695 -0.19044946 0.042858064 0.2178463 -0.47317374
0.14765637 -0.33811864 0.28974053 0.5295081 -0.24191359 0.41325748 -0.18985611 0.4641426
0.01248153 0.1217051 -0.05490273 0.3201424 1.5078726 -0.115462266 -0.08888435 -0.029235497
0.11422953 -0.5130644 -0.026990432 0.1973078 0.417756 -0.010837361 1.2143424 0.26401573
-0.44546837 -0.009987411 0.29271507 0.34261614 -0.33259228 -0.046569917 0.35572708 -0.35815206
0.19057271 0.51149213 0.32334906 0.06493652 -0.25376764 -0.16971464 -0.27989075 0.13207895
-0.3255283 0.17040052 -0.326654 0.45979145 0.42525646 0.034734305 0.68073505 -0.09371532
00000000: 1322 40be ff0b e63e 658c 3c3d 59bd 16be
00000010: 2282 04bf e19d eabd a907 083e c98e 7fbe
00000020: 6798 7ebd 5562 0e3c 77fe a7be d3d9 323f
00000030: bf61 873d 7824 c6be 7916 fdbd affc 333e
00000040: bb03 9bbd deb9 14be 3140 8abe d7e1 a43d
00000050: 5277 ffbd d24b 01bf 28b0 67bd df7c 87be
00000060: 9951 ea3e 1e63 ef3e 028b 0fbf a290 c53e
00000070: af59 babd b7b3 f93e cc86 81bd 46f7 053e
00000080: 092d 953c f691 6f3c 8fc4 36bd 110e b3be
00000090: b7af 9b3e 5499 63be b5db 913d 4fb1 c8be
000000a0: 3c74 a13e 8e96 6ebe d2d1 da3c 25bd cdbe
000000b0: 3fbc 503e d2d1 a83e 1be9 af3d 6095 923e
000000c0: ad04 96bc f81e e6be e2f2 513f cca8 d63e
000000d0: 3132 62bf 27b4 72be 044b f33d a20a 35be
000000e0: 09a6 c3be e328 933d 0b25 21be 8ef6 9a3e
000000f0: 5300 b3bc 68bc 503e 0876 06bd 173e 0b3e
00000100: 7e98 1ebe 377c 7cbe c138 1d3e bc5d acbe
00000110: 7291 84be aad7 c7be 3217 85bc fefe 553e
00000120: 173b e53e f453 e13d 3341 06be 1c54 dfbc
00000130: 3e5d 973d 0cf0 5abe 6f6c e6be 46d1 ea3c
00000140: 285e 69be ee95 363e 0689 873e 09b6 a73c
00000150: 2b4c a13e ac10 a7be 7c23 153d fd34 00be
00000160: 867f 14bc fcf6 9dbe 160a 0d3d 39f2 28bf
00000170: 844c 613f 27e8 c7be 3b3b 82be 647b 9c3e
00000180: d7e5 b13b 6bc3 04bd 1e22 dfbe 0a86 2bbe
00000190: 73bd 123f 6af8 c43e 05b3 333f 64c4 5b3d
000001a0: f5ba 203e d0b7 8f3e 80a5 dfbc fef0 503d
000001b0: 5e8d fd3e 8cbc dcbd e1ac 1a3f d67b 883e
000001c0: 76d4 cabe dd78 5abd 4e5d 1fbe 8a03 edbe
000001d0: d5d5 7dbd 30fe 053e 7dd3 f23c 7aed f33d
000001e0: fed6 70bf 5f87 c3be c11f 02bf b156 f63d
000001f0: 4ff3 a3bf c7e3 b23e 8f93 c03e a0ec 8e3e
00000200: 1a79 013f 4f03 a0be 1d8e 48be 47ff f2be
00000210: cbcd 0dbf 056a e53d abf7 63be 1760 47bb
00000220: c792 9fbd 782e c13d 2310 ffbe 7aa4 2abd
00000230: 8302 4d3e 4a95 e63e cbd2 a33d bc9d ce3d
00000240: d8c1 493f 2a19 d0bd 2756 0cbf 0aa5 0c3e
00000250: 75be dfbd a789 85bd dbd4 13bf e0b0 f4bc
00000260: 1bdb e23b 25e8 89bd 70c3 71bd eaa4 c1be
00000270: 4cee 7f3e 1754 c63d fa48 86be 9104 453e
00000280: f57f ddbd 41cc 21bf ed6d 783e 437f f13e
00000290: bade 353f fc78 5f3d e6f9 203d cb2a 9d3e
000002a0: 358d 43be d3a7 f73e 1a29 1fbf 42ed 1a3f
000002b0: 82d4 04bf 7810 9e3e b932 713e f2dd f13e
000002c0: 18ab 12be 3527 88bd 00d0 36be be7c cf3e
000002d0: fb90 46be bab7 343e 87a4 9c3e 2f93 e93e
000002e0: b681 81bd 81a2 063e e962 e1bd 4fa4 7bbe
000002f0: d511 89be 4731 4c3e 955c e43d e08e 03be
00000300: 2214 7c3e fd57 3a3e f7cc 2d3d 0096 8fbe
00000310: 5685 3f3b 2e26 5d3e b46e 1ebe d8b0 8f3d
00000320: 4256 38be fa84 bcbe 088d 833e 2bd0 c6be
00000330: 2f05 43be f08b 2f3d 1a13 5f3e d443 f2be
00000340: 3b33 173e e31d adbe df58 943e d88d 073f
00000350: 32b8 77be 7c96 d33e a469 42be 19a4 ed3e
00000360: 557f 4c3c 8640 f93d afe1 60bd b4e9 a33e
00000370: f801 c13f 7b77 ecbd 0009 b6bd 487f efbc
00000380: 2cf1 e93d 3058 03bf 0a1b ddbc 0e0b 4a3e
00000390: 1de4 d53e 308f 31bc 926f 9b3f 122d 873e
000003a0: 6e14 e4be 3da2 23bc c0de 953e 626b af3e
000003b0: 8949 aabe 19c0 3ebd dc21 b63e b55f b7be
000003c0: 7e25 433e 26f1 023f 028e a53e 70fd 843d
000003d0: d5ed 81be adc9 2dbe d74d 8fbe b43f 073e
000003e0: a5ab a6be 797d 2e3e 313f a7be c969 eb3e
000003f0: 37bb d93e 8f45 0e3d a744 2e3f d1ed bfbd
