Sentinel_model_weights/IKAE/best_model_4.pt (torch, 138638 bytes, 24 tensors)

invertible_encoder.bijectors.0.net.0.weight f4 [256, 10]
000000 eb 94 a4 3d 0d be 76 3e 19 c6 16 bd 2a f9 2d be
       0.08036216 0.24095936 -0.036810014 -0.1698958
000010 e0 19 ef be a4 a6 c6 be 14 a3 87 3e 6d 82 46 3e
       -0.4669943 -0.38799012 0.26491606 0.19385691
000020 a4 70 f5 bd ed 47 26 3e 06 50 f5 3d c0 91 6e bd
       -0.11984375 0.16238375 0.11978154 -0.058244467
000030 3d 3c 75 3e 81 bd 78 bd 0d 08 f2 3e c3 b7 b0 3e
       0.2394876 -0.0607276 0.47271767 0.345152
000040 8d 97 8b 3e fa 56 9f bd 8e a1 16 be c5 bc da be
       0.27264062 -0.07780261 -0.14710066 -0.42722145
000050 d0 e5 c5 3c 89 54 9f bc 80 09 de bd e0 e4 bf bd
       0.024157435 -0.01944949 -0.10841656 -0.09369826
000060 af 33 58 3e 98 7c a8 bd e7 c7 b5 3d 60 e9 4d bc
       0.21113466 -0.08226889 0.08876019 -0.012567848
000070 72 b0 6b 3e 46 4e d7 be ed eb 9f bd b4 63 38 3d
       0.23016527 -0.42051905 -0.07808671 0.04501696
000080 87 b0 c6 be 92 2d b7 3d 8d 39 3c 3e 8a 7f 6c be
       -0.38806555 0.08944239 0.18381329 -0.23095527
000090 e7 11 38 be 48 99 38 3e f1 da cb 3d d8 e3 8a bd
       -0.17975579 0.18027222 0.09953869 -0.06781739
0000a0 2e 57 6f bd 9e b6 5d 3d bc 09 91 3e 05 0a 40 be
       -0.05843275 0.054129235 0.2832774 -0.18753822
0000b0 75 14 c3 be a8 8e 90 3e b8 6e 2c 3e f6 9d 31 be
       -0.38101545 0.28233838 0.16839111 -0.17345414
0000c0 3f ad 88 be 05 ce b5 3e ff 7a ae be 4b 44 9c 3e
       -0.26694676 0.35508743 -0.34078214 0.30520853
0000d0 12 a9 21 3e 10 e3 ad be d6 d4 e7 be 24 73 c6 3d
       0.15787151 -0.33962297 -0.45279568 0.0968993
0000e0 16 36 bd 3d 3d 54 61 3e 94 d0 90 bd 09 55 5b 3e
       0.09238832 0.2200479 -0.07071033 0.21419157
0000f0 68 09 77 bd 28 c4 3b 3e 91 3d d0 be a1 8c 1b 3d
       -0.060311705 0.18336546 -0.4067197 0.03797591
000100 2a 08 f6 bb a1 5b 09 3e 16 3d 46 3d 78 e5 92 be
       -0.0075082975 0.1341386 0.0483981 -0.28690696
000110 dd 7c 88 3c 8b 36 a5 3d c9 1f 13 bf da ff b5 be
       0.016661102 0.08067044 -0.57470375 -0.35546762
000120 80 07 30 bf 2d e3 4b be 67 80 ee be c0 42 a5 3e
       -0.68761444 -0.1991088 -0.46582338 0.3227749
000130 58 93 10 3e f5 6d 39 3d 50 8e 08 be 87 9b 46 be
       0.14118707 0.04527088 -0.13335538 -0.19395266
000140 20 74 d0 3e 2f 3e fa 3e 37 05 f1 3e 87 b9 84 be
       0.40713596 0.48875567 0.4707429 -0.25922796
000150 57 1c f1 3d 75 84 0f 3d 6d 8d 6b 3e 03 4a 23 3e
       0.117729835 0.03503843 0.23003168 0.15946202
000160 b8 1e 4d be 61 fb 90 be f8 70 90 3d da 32 21 3c
       -0.2003125 -0.28316787 0.07052797 0.009838784
000170 8c cf 33 3d 2e 47 03 3e 53 97 75 3e 1f 9a 12 be
       0.043899104 0.12820122 0.23983507 -0.14316605
000180 4b fd a1 be d4 c0 ff 3d 77 df 5c 3e b7 75 15 bf
       -0.3163856 0.12487951 0.2156962 -0.58382744
000190 dc 16 e1 be b9 82 bd 3e fd 54 a4 3e 04 be 8d 3d
       -0.43962753 0.37013796 0.3209609 0.06921008
0001a0 72 ca 68 be de 55 26 3e c5 2b 4c be a2 0f 01 bd
       -0.22733477 0.16243693 -0.19938572 -0.03150905
0001b0 67 ab a2 bd 69 42 01 3b 53 4f 6e 3e e7 72 36 ba
       -0.07942849 0.0019723421 0.23272447 -0.0006959871
0001c0 63 e3 c1 be 28 cb 11 3b 00 f8 8d bd 14 b1 62 3e
       -0.37868795 0.0022246335 -0.06932068 0.22137862
0001d0 48 ac 8f bb 91 85 33 be 7c f6 12 bc be 16 19 3e
       -0.004384551 -0.1753142 -0.008969899 0.14950082
0001e0 51 c3 70 3d 2f 63 8c be ac 60 7c 3d 6b 82 a2 bc
       0.05878002 -0.2741942 0.06161563 -0.019837579
0001f0 48 d9 4b 3e 70 a3 e4 bd 18 b6 27 bd b2 03 20 3e
       0.19907105 -0.11163986 -0.040945143 0.1562641
000200 ca 25 18 be 9e 07 53 3e 8a e9 4e 3e d9 f1 15 3e
       -0.14858165 0.20608374 0.20206276 0.14643039
000210 fd 28 62 bc 5f b3 4b bd 27 e7 12 3e 54 c1 55 bd
       -0.013803718 -0.04973161 0.1434599 -0.052186325
000220 ba 80 90 3e 05 e5 93 bd f5 a7 86 3e b3 c5 7f be
       0.2822321 -0.072214164 0.26300016 -0.2497776
000230 a5 af 82 bd 94 c7 14 be ce a0 18 bf 16 82 21 3d
       -0.06381158 -0.14529258 -0.5962037 0.0394307
000240 04 3f 45 bd b8 94 87 3d 1f 73 ac bd 96 00 e7 bd
       -0.0481558 0.06620163 -0.08420395 -0.11279409
000250 37 4d 99 3c 8b 63 8a bd 2b db a0 be c1 ee 0e bd
       0.018713577 -0.067572676 -0.31417212 -0.034895662
000260 fe d3 ab be a6 99 90 bc 6c 24 bf bd 56 b6 03 be
       -0.33560175 -0.01765139 -0.09333119 -0.12862524
000270 cd 3d 93 be 64 69 84 3e ed a9 34 3d d1 2d ef 3d
       -0.28758088 0.25861657 0.044107366 0.11678661
000280 ee f1 1e be 78 21 25 be 96 20 ec bd b3 bd 4c 3c
       -0.15521976 -0.16126049 -0.11529653 0.0124964
000290 51 8f 76 be 6e e3 77 be e8 90 88 3d d5 65 43 3e
       -0.24078108 -0.24207851 0.06668264 0.19081815
0002a0 b5 2a ea bd af c9 9a be c8 8e 65 3d 97 7b b5 3d
       -0.11433927 -0.30231997 0.05604437 0.088614635
0002b0 d8 32 82 3d 8b ae 42 bd 46 0c 25 be 38 1f c2 3c
       0.06357354 -0.04752974 -0.16117963 0.023696527
0002c0 92 41 95 3d 6c 55 53 bc 89 56 60 be d8 d9 82 3e
       0.07287897 -0.012898784 -0.2190801 0.25556827
0002d0 d3 e4 ee 3e 7e db 83 bd da f1 80 bf d0 18 35 bd
       0.46658954 -0.06438349 -1.0073807 -0.044213116
0002e0 ad 3f e2 bd 08 41 ad bd 4d 13 de 3d 5f 1c d4 bc
       -0.110473014 -0.08459669 0.10843525 -0.025892435
0002f0 e0 2e a6 3e 50 03 d9 be 35 c2 2d 3d 18 77 3f 3e
       0.32457638 -0.4238534 0.04242154 0.18697774
000300 d1 80 76 3e 65 3a 93 be ec 41 a9 3d b6 33 1f 3e
       0.24072577 -0.2875549 0.08264527 0.1554707
000310 44 95 fc bc 3e 0a 2c 3d c1 59 5d 3e a8 c0 10 bf
       -0.030832894 0.042001955 0.2161627 -0.5654397
000320 4c e0 44 3e 3a 55 a7 be 6b 40 99 bb 8d da 53 3e
       0.19226187 -0.3268221 -0.0046768687 0.2068884
000330 16 fc f1 bd 0e 8e 45 3d f6 33 89 be 2a f3 be 3c
       -0.1181566 0.048231177 -0.26797456 0.023309309
000340 74 eb 6f 3c 4c 20 1a 3d 17 f6 a8 3c 39 70 41 bd
       0.014643539 0.037628457 0.020625157 -0.047226164
000350 a7 3a 35 be 47 76 30 3e 66 28 20 3d 12 25 15 3d
       -0.17698155 0.17232619 0.039101027 0.036412306
000360 48 ea c2 3c b8 5a 5f be b2 88 02 be 1b 3f a6 3e
       0.023793355 -0.2181195 -0.12747458 0.3247002
000370 40 d8 d2 3e 07 eb a0 be 3f 32 a7 be 01 b9 9a bc
       0.4118061 -0.31429312 -0.32655522 -0.018887045
000380 77 cc 21 3e 1d 08 78 bd e0 ff 82 3e 0c f1 6d be
       0.15800653 -0.060554612 0.25585842 -0.23236483
000390 69 98 bc bd 59 ba 18 3e d4 12 42 be ae 30 d2 bd
       -0.092087574 0.14914836 -0.18952495 -0.10263191
0003a0 98 42 74 bd a9 d5 9d 3e 6f db 82 3d 53 87 98 3d
       -0.05963382 0.30827072 0.0638951 0.07447686
0003b0 b7 73 63 bc cf 92 90 be 72 b3 1a be 97 40 cb 3e
       -0.013882569 -0.28237006 -0.15107515 0.39697716
0003c0 ed 4c 94 be 6f e6 d2 3e a0 f2 10 bf 92 65 9a 3d
       -0.2896494 0.41191432 -0.56620216 0.07538904
0003d0 a3 ea 82 3e 6b b9 86 3e 2a d3 6b be a7 20 b5 bd
       0.2556964 0.26313338 -0.23029771 -0.088441186
0003e0 e7 89 90 be 95 fa 9d 3e cc e7 11 bd f1 e8 61 be
       -0.2823021 0.3085524 -0.03562145 -0.22061516
0003f0 5a f7 e8 be 79 5c d8 3d 26 3f 50 bd b6 9a 61 be
       -0.45501214 0.10564513 -0.050841473 -0.22031674

invertible_encoder.bijectors.0.net.0.bias f4 [256]
000000 62 39 e5 3c f7 db 81 be 5e db 4a bc 4a 88 d6 bc
       0.027981464 -0.25363132 -0.012381403 -0.026188035
000010 c4 aa 73 3c 5f 67 ee 3c a7 a9 f4 bb ec d8 b6 bc
       0.014872257 0.029102026 -0.007466513 -0.022320233
000020 d3 df 30 be 0c 74 22 3d 67 7c 52 3b 6b 4d 14 3a
       -0.17272882 0.039661452 0.0032117607 0.0005657288
000030 4b a9 8e bd da 26 75 be e2 47 4a 3d 7f a3 d9 bb
       -0.06965884 -0.23940602 0.04938496 -0.0066418047
000040 db a8 f9 3c 16 72 b3 3b f2 6a 17 3c 86 0a 2a 3d
       0.030476024 0.0054762466 0.009241806 0.041513942
000050 4a 66 e6 bc ab 6d b0 bc 52 f5 11 bc 6e 3a a5 bd
       -0.028124947 -0.021536669 -0.008908587 -0.08067785
000060 fe 85 c9 3b 18 f5 a0 3d f4 6f 49 bd fa 19 51 bb
       0.0061500063 0.07859248 -0.049179032 -0.0031906352
000070 f0 5c a7 ba 9b 08 14 be 74 8a 59 bb 29 b9 cd 3d
       -0.0012768786 -0.14456408 -0.0033194097 0.10045082
000080 5d 6d 26 3c 62 6d 40 be fb 4a ac bc 80 d2 db 3d
       0.01015791 -0.18791726 -0.021031847 0.10733509
000090 38 b9 0d 3d c9 a6 92 bc 31 14 1d bb 33 3a 21 3b
       0.034600466 -0.017901795 -0.0023968334 0.002460134
0000a0 23 3a 70 bd 94 76 82 3d 96 43 ca 3c dc bc 42 3d
       -0.058649193 0.06370273 0.02469043 0.04754339
0000b0 f8 50 e0 3c c1 4f 37 be 0e c3 d6 bd 5b 8e 9a b9
       0.027382359 -0.17901517 -0.104864225 -0.00029479232
0000c0 7e cf 65 3d 7d 15 73 3d 33 e2 75 bd d4 f8 cf bd
       0.056106083 0.059346665 -0.060030174 -0.10154882
0000d0 f9 08 1a bc 50 52 03 3b 08 07 4c bd 92 63 ff bc
       -0.009401553 0.0020038076 -0.049811393 -0.031175409
0000e0 2f 02 aa bc c5 f6 33 3c dc 5b b3 ba a3 60 35 bd
       -0.020752994 0.010984127 -0.0013683992 -0.044281613
0000f0 6a 9d 9c bd 51 79 db 3d 81 76 4a bc 1d e9 77 bc
       -0.07647212 0.10716499 -0.012357355 -0.015131262
000100 c3 26 10 3a 97 11 c7 3b 89 07 20 be 37 20 74 3d
       0.000549894 0.006075095 -0.15627874 0.059601035
000110 ca 8f 7d 3b b3 1d 6a be e3 fd 97 3a 79 71 04 bd
       0.0038690441 -0.22862892 0.001159605 -0.03233478
000120 69 29 08 bd 7e b2 98 bc ed 7a a1 bd f6 bf b6 bd
       -0.033242617 -0.0186398 -0.07884774 -0.089233324
000130 43 ce 6d 3d 12 ee 4e bb 68 17 b4 3b b9 93 04 be
       0.058058035 -0.0031575006 0.0054959543 -0.12946977
000140 8c d9 24 3b 54 5d 47 bd 33 58 bd bc af 8d 6e bd
       0.0025154082 -0.04867299 -0.023113346 -0.05824059
000150 ce d1 d1 bc 2d 85 1a bb 54 cb ee 3b f4 d4 23 bc
       -0.025612738 -0.0023577914 0.007287422 -0.009999502
000160 b5 30 04 be 12 c0 d4 3b 61 ae 8b bd d8 e8 20 be
       -0.12909205 0.006492623 -0.068203695 -0.15713823
000170 1d d6 f2 bc 0d fe 3f 3e c8 ca 1e 3c 01 71 6a bd
       -0.029643113 0.18749256 0.0096919015 -0.057236675
000180 9a a7 95 ba 92 6e 0d bc 55 09 21 be 3e 04 70 bb
       -0.0011417747 -0.008632319 -0.15726216 -0.0036623622
000190 32 49 5e 3d cc cb 7f bc db 84 44 3e 17 b5 80 bb
       0.054269023 -0.015612554 0.19191305 -0.0039278376
0001a0 09 56 23 ba 52 c6 b5 bc f6 e3 70 3d 20 64 da 3c
       -0.0006230777 -0.022189293 0.05881115 0.026659071
0001b0 c0 db aa 3c 94 4d d2 bc 7f 90 04 be 73 3c 0d 3d
       0.020856738 -0.025671758 -0.12945746 0.034481477
0001c0 9a 84 6a ba 47 7d 1a be bb f8 ff 3c d9 45 ae bd
       -0.0008946151 -0.15086852 0.031246534 -0.08509416
0001d0 66 75 15 bd 02 fb 39 bd e9 98 33 bc e2 91 d0 bc
       -0.036488913 -0.045405395 -0.01096175 -0.025460187
0001e0 0b e2 c6 3d 6c 78 fe bc a2 d6 2c be 64 c4 7b bc
       0.09711083 -0.031063281 -0.16878751 -0.015366647
0001f0 c6 4a 88 3a 55 67 e7 3c 09 5e 74 bc c0 83 20 bd
       0.0010398261 0.028247515 -0.014914998 -0.039188147
000200 81 55 dc bd 4f cd 0c 3d d8 4f 64 bd aa 91 1c bd
       -0.10758496 0.034375485 -0.055740207 -0.038224854
000210 05 90 ef 3d 84 f5 5b bd 33 2e 6c 3c c4 fe a5 3a
       0.116973914 -0.05370094 0.014415312 0.0012664427
000220 db 32 da 3c d6 44 d8 3c 6c c9 6f be 59 ff 4b 3e
       0.026635578 0.026400011 -0.2341668 0.19921626
000230 91 7f 02 3d f8 2d 3f 3c 19 af f7 bc 55 12 72 bd
       0.031859938 0.011668675 -0.03023486 -0.059099514
000240 4a e4 0f be 12 34 11 3c d1 66 fe bd 5d 44 91 3b
       -0.14051929 0.008862512 -0.124219544 0.0044331984
000250 7e 64 6c ba 72 08 db bd 8a a7 67 bb 05 d4 57 bc
       -0.000901766 -0.1069497 -0.0035347664 -0.013173108
000260 16 26 33 bd 5e f7 2e be 0d 7a 59 3c 8e e3 ca bb
       -0.043737493 -0.1708655 0.013273728 -0.0061916774
000270 8a 9a 0c 3c fe fb 88 be a7 46 83 bd e6 d3 68 bc
       0.008581767 -0.26754755 -0.0640996 -0.014210677
000280 22 b2 dd 3c 0f bc dc bd 1d e2 12 be ce 43 5c 3d
       0.02706248 -0.10778057 -0.14344068 0.0537756
000290 5c c6 4f bd 2c bb ff bc 4c 9b 7c bd a0 6c 30 3d
       -0.05072628 -0.03121718 -0.06167154 0.043072343
0002a0 af d0 a8 be c7 75 0c bd 3b 87 07 be ec a0 73 3d
       -0.32971713 -0.03429201 -0.1323518 0.05947964
0002b0 2f 9d 8f 3c 16 02 79 3d 32 5a 32 bd 65 af 72 bc
       0.017531006 0.060793005 -0.04354305 -0.014812325
0002c0 9c 37 b7 3a 77 0c 21 bd 86 41 43 bc bc 5c cd bd
       0.0013978365 -0.039318528 -0.0119174775 -0.10027453
0002d0 96 4b 26 be 8c e8 32 3c 9d c2 ce bc 56 77 32 bd
       -0.16239771 0.010919701 -0.025239283 -0.04357084
0002e0 64 c0 15 3c 2d 9f ba 3b e8 e1 a9 ba c2 3c bc bd
       0.009140108 0.0056952448 -0.0012961002 -0.09191276
0002f0 f7 33 47 3e 86 c2 36 bd 29 af 73 3c 50 65 06 3e
       0.19453417 -0.044619106 0.014873304 0.13124585
000300 c0 26 fd 3c 98 10 df 3b 25 8d c5 3c 60 32 5e bd
       0.030902267 0.006807398 0.024115155 -0.05424726
000310 71 a1 f9 bd a8 e2 a5 bc 32 93 57 bd 82 97 8d bb
       -0.12188996 -0.02024968 -0.05263061 -0.0043210397
000320 c1 84 24 bc 55 87 3c 3b 40 a8 ce bb 96 e7 29 3b
       -0.010041417 0.0028767188 -0.006306678 0.002592539
000330 4b c2 20 3d 89 9c 45 3c 81 e5 b1 bc 5c 3d 42 be
       0.039247792 0.012061247 -0.021715881 -0.18968719
000340 4d 09 e7 3d ba ab bf bc fb 65 73 3c c5 08 b0 bc
       0.11281071 -0.023397315 0.014855857 -0.021488557
000350 6a 7d 59 be 13 e0 ce 3b c5 c3 91 39 73 34 a0 3c
       -0.21239248 0.006313333 0.00027802415 0.01955626
000360 4e 9f ce 3c 28 4c 96 bc 05 c7 da bd ce f3 0b 3d
       0.025222447 -0.018346861 -0.10682491 0.034168057
000370 04 3b 3f 3d b3 f4 21 3a 9b ce 84 bd 75 76 99 3c
       0.04668714 0.00061781256 -0.06484719 0.018733243
000380 db 59 42 bd 3f e7 18 bd 5c ec 59 3d 5c 68 40 b9
       -0.047448974 -0.03732991 0.053203925 -0.00018349424
000390 65 2c 6c 3c 71 f1 de 3d ad b4 60 3c e3 b6 1e be
       0.014414881 0.10885895 0.013714951 -0.15499453
0003a0 27 b6 55 be c9 16 8c 3b dd 99 1b 3e 03 f5 c8 bc
       -0.20870267 0.004275177 0.15195413 -0.024530893
0003b0 fc b1 7d bc d4 8a 36 3d df 1e 13 3d bb a3 00 bd
       -0.015484329 0.04456599 0.035918113 -0.031406146
0003c0 2a 4b 8b 3d 3d 7a b0 bc 41 90 29 3c 9f 25 67 bc
       0.06801446 -0.021542663 0.010349334 -0.014108091
0003d0 48 73 12 bc 0b c3 11 3d 2b 6c 07 3c 92 49 cb bd
       -0.008938618 0.035586398 0.008265535 -0.09926142
0003e0 df 83 dc bc 15 94 51 3c 86 35 c4 3c 94 2e 2f 3d
       -0.02691835 0.012791653 0.023951303 0.04276903
0003f0 97 58 54 bc d3 f3 8a bc 8c 51 bd 3c 35 0f 1a 3e
       -0.012960575 -0.016961968 0.023110174 0.15044864

invertible_encoder.bijectors.0.net.2.weight f4 [10, 256]
000000 4e f2 af bc 7f 5e b7 3c 29 a7 09 3d e7 01 c9 bb
       -0.021477845 0.022383926 0.033606682 -0.00613426
000010 73 9b a9 3b e3 7a 54 3d ca 11 ff bc ea 11 39 3e
       0.0051760017 0.051875006 -0.031136412 0.1807324
000020 91 12 bf bd c0 a5 a8 3d e8 d5 0c bd 97 eb 43 3c
       -0.09329713 0.08234739 -0.034383684 0.011958024
000030 5a 1e e2 bc 5f cf 16 bd 8d 59 8c 3d 1b 3e 64 3b
       -0.027602363 -0.03681886 0.06853018 0.0034827057
000040 3a 03 a0 3d 6a d6 2f bb b9 83 b2 3c da 8c 15 3d
       0.078131154 -0.0026830682 0.021791326 0.03651128
000050 9a fb 23 3c 78 f3 04 bc 76 91 ae bb 54 e0 2c 3c
       0.010008717 -0.008114688 -0.005327399 0.010551531
000060 92 81 6c bc e8 f9 55 3d 42 92 46 3b da 66 ac 3c
       -0.014435189 0.052240282 0.0030299579 0.021045137
000070 1a 35 59 3c 6c 6d 54 bd da 9c 9c ba 91 23 bd bc
       0.013257289 -0.051862165 -0.0011948601 -0.023088248
000080 62 f4 ab 3c a7 a4 8d bc 50 bf 72 3c 7f f3 9f 3d
       0.020990554 -0.017290426 0.01481612 0.07810115
000090 05 6c 52 bc 91 9b c4 bc 91 88 f7 bb c4 1e 76 bc
       -0.012843137 -0.023999961 -0.007554122 -0.0150219835
0000a0 f8 73 89 bc 71 71 8e bd 5f 55 47 bc a9 0f 2f 3d
       -0.016778931 -0.06955231 -0.01216635 0.042739544
0000b0 66 28 48 3c 24 9a d7 3b 6b d9 ac 3c 60 36 3b 3c
       0.012216663 0.0065796543 0.021099767 0.011426538
0000c0 d2 92 ee bc 52 dc af 3b a9 b3 8c 3c c7 c2 5b bc
       -0.029122744 0.0053668404 0.017175512 -0.013413138
0000d0 94 12 de 3d 6d 30 a8 3c 17 5f a2 bc ce 56 b6 bc
       0.10843387 0.020530904 -0.019820733 -0.022258189
0000e0 a3 f3 b4 3c 17 d2 f7 bc 1a d9 23 bb 8c 13 43 bd
       0.022088831 -0.030251546 -0.0025001229 -0.047626063
0000f0 2f ac f6 b9 26 5c 8e bb 4c ab 6c 3d d3 1d fb bc
       -0.00047049063 -0.004344481 0.05778055 -0.03065387
000100 b0 9b 07 3d 94 0d 53 3b e2 b9 47 bd db c7 0d 3d
       0.03310746 0.0032204138 -0.048761256 0.034614425
000110 4d cc 6f 3d 12 8d 08 bd 4f 6c 95 3c 5b af db bb
       0.058544446 -0.03333766 0.018240122 -0.0067042536
000120 a8 aa 5e bc 8a b2 89 3b 0a 1e e7 bb 5d 42 f8 bb
       -0.013590492 0.0042021917 -0.0070531415 -0.0075762705
000130 04 88 cf 3d df 34 92 ba 37 13 90 3b 7a 3a f2 3c
       0.10133365 -0.0011154673 0.004396822 0.0295689
000140 8a 0c 82 ba 8f 77 6e 3b 60 23 63 bd 2d 6f f6 3c
       -0.000992195 0.003638718 -0.055453658 0.03008231
000150 ad f3 02 3c e1 e7 09 bc 70 7b c1 bb 33 1d be 3c
       0.007992667 -0.008417101 -0.0059046075 0.023207283
000160 48 ab 4e bb 30 75 83 3b 4d 87 3f bc 78 75 54 bd
       -0.0031535197 0.0040117726 -0.011689973 -0.05186984
000170 9c 39 31 3c f9 1b 87 3c 4d 8a df 3c 73 89 0c bd
       0.010816958 0.01649283 0.027287627 -0.03431077
000180 da e9 b2 3c c7 43 77 bb 22 af a6 bc 74 1d 1e 3d
       0.021840025 -0.0037729607 -0.020347182 0.038602307
000190 a5 7b a3 bc 4b f4 1d bb 5a 43 a5 3d 8c f5 a7 3c
       -0.01995642 -0.0024101909 0.08069487 0.020502828
0001a0 c4 5c 86 3c 96 4b c3 bc 78 79 7a bd fc 64 11 3b
       0.016401656 -0.023839753 -0.061150998 0.0022185436
0001b0 cf a3 54 bc 2c 0e a3 bc ab bb 30 bb 04 66 2f bd
       -0.012978508 -0.019904219 -0.0026967328 -0.0428219
0001c0 24 4c 9b 3b 72 87 d2 3a 0c 46 0a 3d d1 91 0d bd
       0.0047393013 0.0016062094 0.03375821 -0.03456289
0001d0 ac 92 61 3c 42 08 fe 3a 2c 06 e5 bc ab e4 b4 3c
       0.013767879 0.0019381123 -0.027957045 0.022081694
0001e0 7f 3e 07 3d 62 8e 1d bb cb a9 df 3c a7 b6 5f 3a
       0.033018585 -0.0024041166 0.027302643 0.0008533992
0001f0 09 5e 1f bc 0a b5 68 3c 5b d8 cc bc d6 81 c2 3c
       -0.00972701 0.014203319 -0.02500551 0.023743551
000200 b8 b3 9b bd 43 d5 76 bd 59 af 7f 3c 9e 92 dc ba
       -0.07602638 -0.060261976 0.015605771 -0.0016828363
000210 0e dc ef 3c 14 ba e5 bc f0 11 9c ba d1 f2 28 3d
       0.029279735 -0.02804283 -0.0011907201 0.041247193
000220 19 68 81 bd b1 74 8e 3d 08 fd d7 bd 0c 21 89 3d
       -0.06318683 0.06955851 -0.10546309 0.06695756
000230 41 6e 1d be 5d 2b 42 3c dc 1c a9 bb 9f 85 13 3c
       -0.1537409 0.011851159 -0.005160911 0.009004026
000240 d0 30 01 bc 5a 75 ef bb 47 09 8a 3b 08 fb 9b 3c
       -0.007885173 -0.0073076906 0.0042125317 0.0190406
000250 23 f5 ed 3b ff 09 e2 bb ac 6d b0 3b ae 76 d5 3a
       0.0072618886 -0.0068981643 0.0053841677 0.001628598
000260 70 a9 a4 3c 1a 9a 33 bd 38 15 83 3c 11 60 35 bc
       0.020100325 -0.043848135 0.016001329 -0.011070267
000270 3a 3b 30 3d 89 74 71 bc d3 1f 11 3c 45 33 2b bc
       0.043025233 -0.014737257 0.008857685 -0.010449235
000280 0d ac be 3c d4 f3 98 3b 0b 44 d4 bc 9b cc 0e 3e
       0.0232754 0.0046677385 -0.025911352 0.13945238
000290 e3 2b a9 3c 5f 33 c1 bc 29 32 aa bb 0b d5 c0 3d
       0.02065081 -0.023584066 -0.005193968 0.09415635
0002a0 d3 be 1c bc 49 a0 aa 3b 44 e3 b0 3c 5f 73 58 3b
       -0.00956698 0.0052070958 0.021592744 0.003302775
0002b0 4b ee bd 3c 57 bf 3e 3d 72 f2 dd 3b 19 0c 19 bc
       0.023184916 0.046569195 0.0067732865 -0.009341263
0002c0 7d 76 31 bc 34 56 d7 ba 14 58 48 bd 66 a0 89 3c
       -0.010831472 -0.0016428889 -0.048912123 0.016800117
0002d0 1a e5 3a 3b ed 9d c8 bc 5c a3 33 3c 87 00 a7 bb
       0.0028517903 -0.024489367 0.010964241 -0.0050964984
0002e0 08 7c 8a bc ad 42 29 bd 11 a3 14 3d 78 8f e6 bc
       -0.016904846 -0.041323353 0.036288325 -0.028144583
0002f0 58 81 82 3c ea a1 ea bc 41 81 6a bd 85 26 02 3d
       0.015930817 -0.02864166 -0.057252172 0.031775016
000300 21 4f 9d bc 17 f6 35 3c d8 8a cc bc 4b 53 ff ba
       -0.01920277 0.011106036 -0.02496855 -0.0019479779
000310 44 d7 58 bc b5 a2 e1 bc ed 6f 96 3c fe 11 4e bc
       -0.013234917 -0.027543405 0.018363917 -0.012577532
000320 16 c3 88 3d 04 55 63 bc ec b4 d6 3b ed 82 18 bd
       0.06677835 -0.01387525 0.0065523293 -0.037234236
000330 16 ac 53 3d 14 59 61 bd 0a b0 bf 3c d9 d6 3b ba
       0.051677786 -0.055016592 0.023399372 -0.00071654987
000340 f2 88 31 3d ae c6 6e 3b 56 bf 44 3c a7 8c 98 bc
       0.04334349 0.003643434 0.012008509 -0.018621756
000350 0f 7c 43 3c aa c4 d6 bb 4d 02 0b bd 24 58 09 3d
       0.011931433 -0.006554206 -0.03393774 0.033531323
000360 da ba d0 3b a3 5c 00 bd 86 f1 bb 3c 9d 58 ec 3d
       0.0063699307 -0.031338345 0.022942316 0.11540339
000370 2a e0 f5 3b ee b0 93 bc f6 d0 88 3c 73 74 0f 3d
       0.007503529 -0.018028703 0.016701203 0.035023164
000380 f8 2c cb 3b 41 94 e4 bc 73 2f f1 3c 1d 76 a8 3a
       0.006200429 -0.027902724 0.02944157 0.0012852583
000390 b0 7e 24 3d 0e b2 e7 bc 3e f3 8b bd 42 23 b2 bc
       0.04015988 -0.028283145 -0.06833504 -0.021745328
0003a0 ec f2 2a bd 9b e1 67 bc f1 de 1c 3c db 2e 1b bb
       -0.041735575 -0.01415291 0.009574638 -0.002367905
0003b0 87 f5 cf 3c c7 21 e4 3b 14 51 7e bd c5 04 5a bc
       0.025385631 0.0069620344 -0.06208904 -0.013306801
0003c0 59 13 ee 3c c1 25 90 3a df e8 cd bc 12 59 3d bd
       0.02906196 0.001099758 -0.025135456 -0.046227522
0003d0 0a 85 05 bd 71 13 d1 3c 90 19 f6 3b 07 cb 39 3d
       -0.03259758 0.025521966 0.0075103715 0.045359638
0003e0 be 5c 61 bc 40 f4 34 bd 9c 06 b7 3b dd 9b 01 3c
       -0.013755022 -0.044178247 0.0055855047 0.007910696
0003f0 af ae 0f bc 3b a5 dc bc 4f 60 c9 bb 03 38 d4 bb
       -0.008769675 -0.026934257 -0.006145514 -0.0064764037

invertible_encoder.bijectors.0.net.2.bias f4 [10]
000000 04 e9 f1 3c d9 c4 93 3b 8c fb 93 bd 4b 81 9f 3b
       0.029530056 0.00450955 -0.07225713 0.004867708
000010 0c 41 79 bd bd b8 75 bb 87 fb 3a bc be b1 de 3a
       -0.06085305 -0.0037494146 -0.011412508 0.0016990227
000020 e7 e6 1e bd eb 79 b5 bc
       -0.038794424 -0.022152862

invertible_encoder.bijectors.1.net.0.weight f4 [256, 10]
000000 fe f7 fa bd 82 ec 4e 3d 19 01 86 bc aa e8 b6 bd
       -0.12254332 0.05051852 -0.016357945 -0.08931096
000010 fa c5 96 3d df f9 d7 be de ab 68 3d 3b 6c e6 3e
       0.0736198 -0.42182824 0.05680453 0.45004448
000020 38 10 27 3f 6e 53 01 bd a7 8b 66 be 9d 7d 4c 3e
       0.6525912 -0.031573705 -0.2251421 0.19969793
000030 aa ec 83 be 79 20 9d be 2c 38 c7 be 53 71 13 be
       -0.25766498 -0.30688837 -0.38910043 -0.14398699
000040 9a e0 9d 3e 79 11 6c 3e fe 2d 32 3e 53 e1 22 3e
       0.3083542 0.2305354 0.17400357 0.15906267
000050 ee cf f1 3d e6 e5 83 be 6c ed 5a bd c9 48 ee bc
       0.118072376 -0.25761336 -0.05344908 -0.029087441
000060 fb ca c3 be 03 62 6a 3e ff a1 6b be 5d 57 25 bf
       -0.382408 0.22888951 -0.23011015 -0.6458643
000070 70 2a 19 bf 33 48 1a be 38 5d 9b 3e 69 3b 84 3d
       -0.5983038 -0.15066604 0.30344558 0.06456644
000080 e7 b4 8b be ab 1e 84 3d f8 3c 84 be 10 66 54 3d
       -0.27286455 0.06451162 -0.25827765 0.051855147
000090 b3 10 8a be aa e2 d3 3d 66 3a 41 3e 95 6c a9 bd
       -0.26965865 0.10345967 0.18869933 -0.082726635
0000a0 64 02 f7 bd f1 99 cc 3e 83 70 4f bd 9e 0c f5 bc
       -0.12061003 0.39961198 -0.05064441 -0.029913243
0000b0 c7 99 39 3f e6 bd ec bd 5a 91 12 3e 37 ed 1a be
       0.7250027 -0.11559658 0.1431326 -0.15129553
0000c0 07 fe be be 10 8b bb bd ca 98 49 be 34 f3 26 be
       -0.37303182 -0.091573834 -0.1968719 -0.16303712
0000d0 13 fc 2a 3e 80 87 cf 3d 5f 8a 84 be 93 e2 84 3e
       0.16697721 0.101332664 -0.2588682 0.25954112
0000e0 2d 4b be be 8a 08 9a bb 4e 97 f9 be 51 a8 ab be
       -0.3716673 -0.004700725 -0.4874825 -0.33526853
0000f0 7f 92 4b 3b e2 73 87 be 65 95 e7 be d7 75 92 be
       0.003106266 -0.264556 -0.45231166 -0.2860553
000100 2f 6b 6c bd 0c 1e 7d 3d c0 4e ce bb 5e 59 53 3f
       -0.057719406 0.061796233 -0.006296009 0.8255824
000110 1f a4 b6 be 90 f1 b3 be 47 22 d4 3e 53 42 1c 3f
       -0.3567209 -0.35145235 0.41432402 0.610387
000120 01 d1 a2 be 6e 67 42 bf c5 32 d4 be 5c 83 9f 3f
       -0.31800082 -0.7593907 -0.41444984 1.2461963
000130 94 50 bb be fc 15 85 be 46 ca c1 3e e9 8b a8 be
       -0.36584914 -0.25993335 0.37849635 -0.32919243
000140 2a e1 24 bf db 89 3b bd 97 63 14 3e 7e 01 3c 3b
       -0.64406073 -0.045785766 0.14491116 0.0028687413
000150 0b 22 65 3d 82 18 da 3d 83 8f ae be 9f 14 88 be
       0.05594067 0.10649206 -0.34093866 -0.26578233
000160 3f d8 58 be 13 f8 03 3f b5 03 73 3f ca 95 25 bd
       -0.21176241 0.51550406 0.9492753 -0.040426053
000170 11 5a 6f 3e 42 5d 2c be cc 3e 87 be 28 d8 44 bf
       0.23374201 -0.1683245 -0.26415098 -0.7689233
000180 c9 25 cd 3d c4 fe 31 be 6d 23 90 bd e7 d1 5a 3e
       0.100169726 -0.17382342 -0.07038007 0.21369134
000190 e0 2c 1a bf f4 28 fa bc 3f 43 83 be 87 c2 b3 be
       -0.60224724 -0.030537106 -0.25637242 -0.3510935
0001a0 4c 5d 31 3c fa 8d b1 be 2d a0 ba 3d 6a 30 27 3e
       0.010825466 -0.34678632 0.09112582 0.16327062
0001b0 87 c1 06 3e 5f f4 00 3f 20 0f 17 3e 83 a7 3c bb
       0.13159762 0.5037288 0.14751863 -0.0028786368
0001c0 1c 32 73 be f0 50 20 bd 1a e7 e6 bd e3 d4 0b be
       -0.23749584 -0.039139688 -0.11274548 -0.13655429
0001d0 f7 22 f8 be 20 0c 6f be e7 92 36 bf 34 f2 6f be
       -0.48464176 -0.23344469 -0.71317905 -0.23432237
0001e0 0d 43 d7 3c 16 92 2e 3e f9 b9 bc 3c f1 da 06 bd
       0.02627709 0.17047915 0.023037897 -0.032923643
0001f0 0c f7 84 be ad ad 01 3d dd 11 80 be 18 77 7a 3e
       -0.25969732 0.03165977 -0.2501363 0.24459493
000200 96 20 ee be 3d 0c d0 3d 4e ea 80 be 6f a9 d0 3e
       -0.46509236 0.10158584 -0.2517876 0.40754268
000210 4a fd 2c be bd d0 27 3e b1 c8 a8 3e d9 09 a3 3e
       -0.16893497 0.16388221 0.32965615 0.3184345
000220 a9 26 43 be 11 fa 25 bf 26 21 ef 3e 8a 5b 3d be
       -0.19057716 -0.64834696 0.46704978 -0.1849195
000230 5b 4f d1 3e 97 aa 7e 3f 0a bd 88 be 82 86 d7 be
       0.40880856 0.9947905 -0.26706725 -0.4209481
000240 9a 12 9e be 6d 8b 84 3e 32 bb a4 bd 39 41 90 be
       -0.30873567 0.25887623 -0.08043517 -0.2817476
000250 b1 cb 8a 3e 1e f7 e3 be db 3f cd 3e 7e 2c 0d 3d
       0.2710853 -0.44524473 0.4008778 0.03446626
000260 f7 2b 90 3c dc b5 59 be c6 fe 27 bd 7a a6 2b be
       0.01759909 -0.2126078 -0.041014455 -0.16762725
000270 20 67 29 3e c5 49 28 3e 0b 37 28 be 84 e9 5e 3d
       0.16543245 0.16434391 -0.16427247 0.054421917
000280 95 98 20 be 15 32 bc bc 84 95 12 be 4b 4c 1f be
       -0.15683205 -0.0229731 -0.14314848 -0.15556447
000290 65 6d 5b bd e1 26 3e 3e 69 78 9a be 4f 16 0f bc
       -0.053571124 0.18569519 -0.3016999 -0.008733346
0002a0 4f 43 01 3d 67 92 f2 3d 4f 33 91 be f1 7a 7b be
       0.03155833 0.1184433 -0.28359458 -0.24558617
0002b0 5e 2a 97 bb cc 31 55 3e c1 c3 ac bd 35 33 bd 3e
       -0.004613205 0.20819777 -0.084357746 0.3695313
0002c0 1e be be bd 94 cc 4c 3d af d5 1d bf 5f 4d 0f 3d
       -0.09313606 0.04999979 -0.6165418 0.034985896
0002d0 a5 66 4b be 57 82 54 bf 14 55 39 bd 30 92 21 bd
       -0.19863375 -0.8301138 -0.045247152 -0.039446056
0002e0 f6 20 b9 3e 3e 44 2a 3e d8 bb ed 3e 77 04 f9 3e
       0.3615796 0.16627595 0.46432376 0.4863622
0002f0 9b 51 07 3f 43 7b 07 bf 7f e4 ee 3d cd 5a 61 bf
       0.52858895 -0.5292246 0.11664676 -0.88029176
000300 63 bb 9a be 13 24 55 bd 37 5d e4 bd 8d 76 a3 3e
       -0.3022109 -0.052036356 -0.11150592 0.31926385
000310 f3 05 1d 3e 8f 0c 17 be 65 5a 59 bf e2 f2 98 3d
       0.153343 -0.14750884 -0.84903556 0.07468201
000320 1e 33 03 3f 00 90 69 bf d4 9c 3c 3e 87 a1 38 bf
       0.51249874 -0.9123535 0.184192 -0.7212147
000330 84 be a5 3d 39 48 b6 bc 3c 32 16 3f 67 49 2e be
       0.080929786 -0.022251235 0.586704 -0.17020188
000340 7c cf 76 3e 62 f9 8b be af 0a 16 bf 4b 79 57 be
       0.24102587 -0.273387 -0.5861005 -0.21042363
000350 3e 34 9e 3d 8b 89 7b bd 37 b7 35 3d dd b4 f3 3d
       0.07724808 -0.061410468 0.04436418 0.11899731
000360 46 f0 f7 bd 31 8f 5f 3e 8a e4 5d 3f 81 42 57 3f
       -0.121063754 0.21831967 0.8667685 0.8408585
000370 16 fa c4 be db 81 9f bd 1c dd ea bb 7e 31 0e 3e
       -0.3847205 -0.0778844 -0.0071674716 0.13886067
000380 5b 7c a8 be a5 f3 e2 bd 40 ab e7 be 0b 63 21 3f
       -0.32907376 -0.11081628 -0.4524784 0.6304175
000390 61 2a 18 bf 68 72 2b 3d 02 cb 2b 3e f3 a4 52 3c
       -0.59439665 0.041857153 0.1677666 0.01285671
0003a0 49 6d d4 3e 5a ae 00 3d 7a 53 71 3c f0 ef aa 3d
       0.41489628 0.031416275 0.014729375 0.08346546
0003b0 70 05 f6 be 17 2f 7f be c5 0f e9 be 9d da b7 be
       -0.48051023 -0.24920307 -0.45519844 -0.35908976
0003c0 d9 a7 6c 3e d0 cd e4 bd 62 a5 b0 bd 29 6c e0 bb
       0.23110904 -0.11172068 -0.08625294 -0.006848831
0003d0 43 08 11 be cf 91 22 bf dd 37 ff bc 99 d1 16 3f
       -0.14163308 -0.63503736 -0.031154567 0.5891357
0003e0 68 b5 bf 3e 91 ac 3e 3d 6f 72 09 3d 0e fc 96 3d
       0.3744309 0.04655129 0.033556398 0.07372294
0003f0 30 23 2e 3e b3 e9 8b bd d7 15 14 3f 11 54 06 bd
       0.1700561 -0.06831684 0.57845825 -0.032795016

invertible_encoder.bijectors.1.net.0.bias f4 [256]
000000 2a 68 0f 3d 0f 53 a3 3c df 97 44 bd 02 9f 59 bd
       0.035011448 0.019937066 -0.047996398 -0.053130157
000010 43 41 f4 3c a4 b4 bc bd 31 02 45 bd 31 af a4 bd
       0.029816275 -0.09214142 -0.048097793 -0.080412276
000020 e1 5e c1 3d f4 d7 96 bd ea 62 a8 3d 3f 51 60 bd
       0.09441925 -0.073654085 0.08221991 -0.054764982
000030 df 65 9a bd 54 0c 9c 3c df bf 8e bd 5e 7c 0b bd
       -0.075389616 0.019048847 -0.0697019 -0.034054153
000040 86 be ba bc 33 d6 9c bb 65 91 d1 bc 7d 94 97 bd
       -0.022795927 -0.0047862767 -0.025582025 -0.07401369
000050 e4 6f 49 ba 45 59 40 3d d0 87 98 bc 48 49 a7 bc
       -0.00076842145 0.046960134 -0.018619448 -0.020420685
000060 d6 69 0f bc 85 93 5b 3d d3 46 38 3d ff 61 e4 bd
       -0.008753261 0.053607482 0.04498942 -0.11151504
000070 d9 16 94 bd 6f 37 11 3c 8b 82 46 3c 0a b2 ab bd
       -0.0723092 0.008863314 0.012116085 -0.08383568
000080 49 46 10 3d ae e2 19 3d f4 37 9e bb 71 d9 80 bd
       0.03522328 0.037569694 -0.0048284475 -0.06291474
000090 b9 66 a1 3d 9c f2 7e bd 79 6d 09 bc a2 75 3e bd
       0.07880921 -0.06224309 -0.008387917 -0.046498902
0000a0 36 5b d9 bc 31 c4 81 bc 1b 8d b9 3b 3f 3c b5 bc
       -0.02653275 -0.015840622 0.005662573 -0.022123454
0000b0 5c c2 14 3c cb 88 0c be d2 bd 24 bd b4 ba 66 3d
       0.009079542 -0.13724057 -0.04022009 0.056330398
0000c0 49 fa a9 bd 97 20 85 3d 97 40 71 3d 34 74 f5 bd
       -0.08299691 0.06500357 0.05889949 -0.119850546
0000d0 31 6c 0b b9 aa 27 19 3d a9 0e b4 3d 8c d2 50 bc
       -0.00013296377 0.037391342 0.08791859 -0.012745511
0000e0 63 d5 3a 3d b9 d5 b7 bd a1 0f ae 3d 7b 82 2c bd
       0.045613658 -0.08976311 0.08499075 -0.042116623
0000f0 b6 92 36 bd 72 11 31 bd 22 91 96 bd 17 e0 18 bd
       -0.04457351 -0.043229528 -0.07351901 -0.037323084
000100 19 c2 c1 bd 19 9e b2 bc c5 d5 50 3d b3 49 1e bb
       -0.09460849 -0.021803902 0.050985117 -0.0024152815
000110 43 aa 45 3d 0b 6a e7 37 67 9b a4 3c 1e c9 6e bd
       0.048258077 2.7586726e-05 0.020093633 -0.05829727
000120 cb a3 3c 3d 64 bb b5 bd e6 9b 80 3d ab 69 b8 3d
       0.046054643 -0.088736326 0.06279735 0.090045296
000130 89 06 1d 3d e9 97 63 3b 5f 02 bc 3d 4e 0c 86 bd
       0.03833631 0.0034727997 0.0918014 -0.06545316
000140 1e d6 0f bc 8e 39 8b 3d 2e 5c 92 3d 61 1d 94 3d
       -0.008779077 0.06798087 0.07146488 0.07232166
000150 b2 ee 33 3d 23 fb e0 bc c4 04 b4 bd 2b 4c c5 3d
       0.04392881 -0.027463501 -0.087899715 0.096336685
000160 17 2a 05 3d 53 cd 03 3e 37 d7 21 3d 2d 6b d7 3b
       0.032510843 0.12871294 0.039511885 0.0065740556
000170 1e 89 01 3c 9b bd 83 bd a3 2f 76 3d 49 04 e3 3d
       0.007906226 -0.06432649 0.060104024 0.11084802
000180 33 98 49 3b 91 b3 af 3c 70 0a a6 bd 97 9a 67 bd
       0.0030760884 0.021447929 -0.081074595 -0.056543913
000190 48 b7 85 3d 06 d2 b6 3c fd e0 55 bd 3a 7d e4 bc
       0.06529099 0.022316944 -0.05221652 -0.027891744
0001a0 86 9b c8 bd 13 6e 8e bd 50 22 5a bd 40 dd c5 ba
       -0.09795289 -0.06954589 -0.05325538 -0.0015095845
0001b0 6c 11 1e bd 3e d3 16 be d9 eb 12 bd b6 dc 7a 3d
       -0.038590834 -0.1472902 -0.035869453 0.061245643
0001c0 b7 74 f5 bd 25 72 19 3d ee f6 a6 3d 99 b0 e7 bd
       -0.11985152 0.037462372 0.08152567 -0.1131298
0001d0 13 f3 8c bd 70 91 87 bd 9b 04 bd bd 42 bc 05 3d
       -0.068823 -0.06619537 -0.09229394 0.03265024
0001e0 e5 6c 71 3d dd 14 f2 3a fe 70 8f 3d 88 4b 73 bd
       0.05894174 0.0018469353 0.070039734 -0.059398204
0001f0 ca d9 cb 3c 46 f0 26 bd 9a 15 58 bd 2c 30 c0 3d
       0.024884123 -0.040756486 -0.052754976 0.09384188
000200 6f 84 9b 3c 83 ac 31 bd 92 f1 db bb a3 a7 67 3d
       0.018984048 -0.04337741 -0.006712147 0.056556355
000210 f2 e3 94 3d bb 6a 27 3d bc db d6 bd 14 ed 94 3b
       0.072700396 0.04087327 -0.1049113 0.0045448635
000220 95 23 d6 3c e0 07 d3 bd b1 b6 db bd 78 b7 a8 bd
       0.026140014 -0.103042364 -0.10728205 -0.08238119
000230 cf 75 05 3c 67 50 b2 bc 74 41 e9 bd b5 f0 01 3d
       0.008145764 -0.021766854 -0.11389437 0.031723697
000240 d1 61 a0 3d ff c7 7a bd c8 f1 e6 3b d7 75 c3 3c
       0.07831157 -0.061225887 0.0070478655 0.023859901
000250 3d 2f 4a bd 98 3e b7 bd b3 9d 22 be 44 4b 0b bd
       -0.049361456 -0.08947486 -0.1588047 -0.034007326
000260 19 00 00 be 47 b1 e8 bb 26 d5 18 3d 2a e8 41 bd
       -0.12500037 -0.007101211 0.03731265 -0.04734055
000270 73 65 82 bd 02 de a7 bc 80 7d 72 bd 12 f4 e8 bb
       -0.06367006 -0.020491604 -0.059201717 -0.0071091736
000280 ea 35 e6 3c de 07 c6 bd c3 d0 a0 3d 28 bf 6a 3c
       0.02810188 -0.09669469 0.07852318 0.014327802
000290 fb 4d 4a 3c a1 82 78 3d 07 7f 10 3d a1 27 e3 bb
       0.012347694 0.060671452 0.035277393 -0.0069322144
0002a0 0b 2b b8 bc 09 c5 c3 bc 84 7e 5b 3d 73 d0 b0 3d
       -0.022481462 -0.023897665 0.05358745 0.086335085
0002b0 97 1b 3b bd 96 8c 79 3d e0 e3 04 bd 6a c7 f0 3c
       -0.04568061 0.06092509 -0.03244388 0.029391963
0002c0 85 6f 5d bd 25 31 c0 bb 0e 3d b3 bb ca 8f a1 bd
       -0.05406143 -0.0058652335 -0.005469925 -0.07888754
0002d0 00 ad d9 bd 37 7b 01 3d 93 43 83 bd 9a 55 da bb
       -0.106287 0.031611647 -0.06409373 -0.0066630365
0002e0 8f 6d ba bd 7a ee 6f bd dc 00 16 bd 81 eb a2 3d
       -0.09102928 -0.05857704 -0.036621913 0.07955075
0002f0 ac e3 5e 3d 3d db 1d bd e9 7c e2 3c 2a fd 78 bd
       0.054416344 -0.03853916 0.027647452 -0.06078831
000300 6d 10 8f bd 95 2f 76 3d 48 c4 8b bd 17 03 e3 bd
       -0.06985555 0.06010397 -0.06824547 -0.11084574
000310 7c 6e d8 bc 1a 27 db bc c0 cf 3a bc 4f 1f 21 bd
       -0.02641987 -0.026752044 -0.0114020705 -0.0393365
000320 55 0e 90 3c 3d 3d 14 bd ff a6 58 bd fe a8 ba bd
       0.017584959 -0.036191214 -0.052893635 -0.09114264
000330 64 17 52 bd 2f b8 4e 3d 97 d4 06 3d c0 3f b1 bc
       -0.05129184 0.05046862 0.032917585 -0.021636844
000340 ca 6a 34 3d 6c 25 71 3d 94 fc 22 3c 4c ec 11 3d
       0.044047154 0.05887358 0.009947915 0.03562574
000350 dd fe 29 3d a5 e7 81 bd 87 03 7a bc 8b 32 85 bc
       0.041502822 -0.06343011 -0.01525963 -0.016259452
000360 37 6c 18 bd a1 14 1f bc 86 74 c2 bc 88 a3 85 ba
       -0.037212577 -0.009709508 -0.023737203 -0.0010195831
000370 ff 9b 50 3c 14 81 13 bd 30 ee cd bb 4a 41 7e 3d
       0.012732505 -0.03601177 -0.0062844977 0.062073983
000380 c9 a0 f8 bd 55 88 6c 3d 9e 2e 35 bd 3a a4 42 3d
       -0.12140042 0.057747204 -0.04423391 0.0475199
000390 01 13 9c 3d e0 43 21 bd b0 2b 09 be d2 41 b0 3c
       0.07620812 -0.03937137 -0.13395572 0.02151576
0003a0 a4 bc 42 3d aa f6 be 3d c6 44 39 bd b0 75 c2 3c
       0.047543183 0.09324391 -0.045231603 0.023737758
0003b0 e9 65 89 3d 3e 77 26 3d 6e ae 51 3d c6 8d e0 bc
       0.06708891 0.040641062 0.05119174 -0.027411353
0003c0 1c 41 2f bd 6e 8d 1c 3e c1 4a ab 3c 7a f2 7c bd
       -0.042786703 0.15288326 0.020909669 -0.06175468
0003d0 0e 00 b4 bc 7f 01 56 3d 47 82 b7 bc 87 df c4 3d
       -0.021972682 0.05224752 -0.022400988 0.09612947
0003e0 09 db 8a bd e7 24 3f 3e cf e3 7a bd 8a b2 7b bc
       -0.06780059 0.18666421 -0.06125241 -0.015362391
0003f0 2b 7a 73 3d d2 a7 02 bb 1c 9a 4a 3d 91 99 8f 3a
       0.05944268 -0.0019936454 0.049463376 0.00109558

invertible_encoder.bijectors.1.net.2.weight f4 [10, 256]
000000 16 0a ef bc 4b ed ae 3c 92 f2 4b 3d f8 f5 60 3c
       -0.029179614 0.021353384 0.04979188 0.0137305185
000010 8c d6 8b be d6 a0 c8 ba 29 95 d0 3d 28 df 7b be
       -0.27312124 -0.0015306722 0.101847 -0.24596846
000020 95 9f 6a bd 12 c8 9c 3c c8 7c 37 bd a1 91 66 be
       -0.057281096 0.01913837 -0.044796735 -0.2251649
000030 5d 83 ff 3c 6f e5 92 3d e4 3a f6 bd e0 13 e4 3c
       0.031190569 0.07172667 -0.12022951 0.027841508
000040 20 c5 ef ba d3 12 3f 3d 7d 33 d3 bb 2d 17 37 be
       -0.0018293001 0.04664881 -0.006445347 -0.17879935
000050 b2 0b 85 bd 64 24 05 3e ea 23 af bd 02 c0 01 be
       -0.06496371 0.13002163 -0.08551772 -0.12670901
000060 99 a8 81 3e 27 68 8b 3c 7f 69 0e 3d 6e dc 17 be
       0.25323942 0.017017437 0.034768578 -0.14830181
000070 ee 8a 3d 3d e9 23 62 3c fe c6 4f bd 91 93 4f 3c
       0.04627507 0.013802507 -0.050726883 0.01266946
000080 65 12 ae bd fe 8c 1f 3b 8e 42 1b 3d d2 30 4e 3c
       -0.08499602 0.0024345513 0.03790527 0.012584882
000090 2a 45 90 3c 4b 67 14 3e 9e f6 33 3d dd 69 41 3d
       0.017611105 0.14492528 0.043936364 0.0472201
0000a0 a1 09 73 3e f8 fe 49 bd ee d2 8f bd 2a ce ba 3c
       0.23734142 -0.049315423 -0.070226535 0.022803385
0000b0 ef 56 ba bd 00 ea ce 3d 2d 24 40 3c 98 28 75 be
       -0.090986125 0.10103226 0.011727375 -0.23941267
0000c0 ed 47 54 bd 10 8f c2 bd 26 93 05 be 0c ab 40 3c
       -0.051826406 -0.09499943 -0.13044414 0.011759531
0000d0 ab bf a8 bd 29 d8 2f 3d 70 ab a6 bd 58 cd aa bd
       -0.08239683 0.042930756 -0.08138168 -0.083399475
0000e0 aa bd fc 3b 78 da b8 3c e4 5c 5b bc 54 45 4b be
       0.0077130394 0.022565112 -0.013388846 -0.19850665
0000f0 1a 71 23 bd f7 8c 18 3d d3 83 af bb 7c 27 c3 bc
       -0.039902784 0.03724381 -0.005356291 -0.023822539
000100 0a a6 48 3d 60 f1 80 bd 31 3c 9e 3d 30 2a 93 3e
       0.048986472 -0.06296039 0.07726324 0.28743124
000110 e4 8a ef bd 4c 91 11 bd 2c 50 7e bd aa 0a c4 bd
       -0.11696413 -0.035538957 -0.062088177 -0.095723465
000120 ed ba 34 be 6e d7 3a 3d 27 a0 30 bb 39 e1 4b bd
       -0.17649432 0.045615606 -0.0026950927 -0.049775336
000130 dd 51 a2 bd 5d 0d e5 3d ae 0d 88 bd d0 eb 61 3e
       -0.079257704 0.111841895 -0.06643234 0.22062612
000140 cc 2a 52 bc 20 1d a0 be 67 4b eb bc ee ca c2 bc
       -0.012827586 -0.3127222 -0.028722478 -0.023778405
000150 32 d7 02 3e 56 54 7a 3d eb a8 45 3d 6a cb 3f bd
       0.12777403 0.061115585 0.048256796 -0.04682485
000160 96 f7 5e bd a8 5c 25 3c 5f ee 39 3c 59 2e cd 3d
       -0.054435335 0.010092892 0.011348336 0.10018606
000170 e6 76 83 bd 1a 57 16 bc d6 6f 48 3a 05 ae 4d bc
       -0.064191625 -0.00917604 0.00076460594 -0.0125536965
000180 ae 29 22 3e 4c dd e2 3c f4 87 2e bd f9 36 93 bd
       0.15836212 0.027693413 -0.042610124 -0.071882196
000190 a2 80 d0 bd d7 3c 92 bd 51 82 f5 3b df 87 c4 3c
       -0.10180785 -0.071405105 0.0074923416 0.02399057
0001a0 45 f9 f4 bb b4 31 d0 bd 98 fb 90 bc 48 12 08 3d
       -0.0074760043 -0.1016573 -0.017698094 0.03322056
0001b0 bd bc 1d bb 5a 4a 14 bc 2b 92 5f 3e 4e 27 58 be
       -0.0024068796 -0.00905093 0.21833102 -0.21108744
0001c0 9d e5 74 3d 2b 14 b0 3e 22 96 62 3d 19 1f f2 3c
       0.05978929 0.34390387 0.05531896 0.029555844
0001d0 67 ac ff 3d 02 28 1f bd b1 01 94 bb cd ad d6 bd
       0.12484055 -0.038856514 -0.004516803 -0.104823686
0001e0 b4 5e 28 bd 11 03 62 bd db 3a a9 3c 98 b1 9c 3c
       -0.04110594 -0.055178706 0.020657947 0.019127652
0001f0 7e ba e3 bc 78 02 97 3c a7 88 fa be 75 ca 38 bc
       -0.027798887 0.018433794 -0.48932382 -0.011278738
000200 4b 72 9d 3d 26 ab d5 3d fa a0 05 bd b3 55 b9 3b
       0.07687815 0.104330346 -0.032624222 0.005655968
000210 c7 94 21 be 07 e1 98 3e d2 f2 cf 3c cd 3d e0 bc
       -0.1577941 0.29859182 0.02538434 -0.027373219
000220 b7 1c 90 3c e2 c3 12 bd 4d dc dd 3c 34 5c d0 3d
       0.017591817 -0.03583134 0.027082587 0.10173836
000230 6a 3d 32 bd d7 61 29 3c 04 f1 84 3d cc ed a4 3d
       -0.0435156 0.010338268 0.064912826 0.08053169
000240 14 e1 f1 3d b5 c3 09 3f cf 53 46 bd d3 dd 7b 3d
       0.11810508 0.5381425 -0.04841977 0.061490845
000250 01 ec 04 bd 0a 27 19 bb a1 b7 52 bd 87 86 31 bc
       -0.032451633 -0.0023369216 -0.051444653 -0.0108352965
000260 aa 66 c8 3d 7e ce 62 3d ac 96 56 3a b0 f1 63 be
       0.097852066 0.055372708 0.0008185904 -0.22260165
000270 00 01 07 3d 9f a2 ca 3d 6d dc 82 bd 8e fb 9a bd
       0.032959938 0.09894299 -0.06389699 -0.075675115
000280 b0 f6 1f 3e 48 2f c1 bc 31 fd 4d bd a8 49 87 bd
       0.15621448 -0.023582116 -0.05029029 -0.06605846
000290 9d d5 a5 bc fe e4 98 3a 6d bc 18 bd 78 c3 48 be
       -0.02024346 0.0011664925 -0.03728907 -0.19605815
0002a0 3c 61 79 bd 93 5d 0d bc ec da b7 bc db 63 1a 3d
       -0.060883746 -0.008628267 -0.022443257 0.037692886
0002b0 4e ed cf bc 38 58 6b be 28 cc 02 3e c5 18 5e 3d
       -0.02538171 -0.22982872 0.12773192 0.05422284
0002c0 30 af 5f 3c a9 85 8c 3d 5c f3 00 3b 2c 8a 2b be
       0.013652608 0.06861431 0.0019676303 -0.16751927
0002d0 92 6c a6 bc b2 a5 a2 bc 78 35 b9 bd 6f 87 a1 3d
       -0.020315442 -0.0198544 -0.090434015 0.0788716
0002e0 2c 17 77 bc 86 f1 bd bb bb 3b 0f 3c 8e d7 9d bc
       -0.015081208 -0.005796614 0.008742268 -0.019267824
0002f0 46 8f 57 bd a2 ab b1 3b 94 1d 35 be 8b 32 bf be
       -0.05262687 0.0054220716 -0.17687064 -0.3734325
000300 a3 7a 92 3c 17 6b 02 3f ac 75 ad 3b d1 73 c9 3d
       0.017880743 0.50944656 0.0052935686 0.09836543
000310 8f dc b3 3d 78 d1 7f be 85 5c 0e be 0e 41 a9 3a
       0.087823026 -0.2498225 -0.13902481 0.0012913065
000320 c6 61 fa 3d a2 3a 99 bc b3 8b 20 be 5b 82 0c 3e
       0.1222568 -0.018704716 -0.15678291 0.13721602
000330 3c 64 aa bc 1d 21 9f 3c 04 db a2 3c 02 1a 85 3e
       -0.020799749 0.01942497 0.019879825 0.25996405
000340 83 59 ae 3c bb 57 d5 3c 4d 34 8e bc d1 46 ce 3c
       0.021282917 0.02604281 -0.017358923 0.025180252
000350 82 ae ad bd e7 9e 2f bd 67 f7 20 3e 7f 12 15 be
       -0.0848055 -0.04287615 0.15719377 -0.14557837
000360 b6 ea 40 bb eb f9 fa 3c 1f 80 e1 3c 0e 5e 4a 3c
       -0.0029436774 0.030636748 0.027526913 0.012351526
000370 54 e8 d1 bc 2d 8f 1a be 97 98 1b be 1d 85 2a 3c
       -0.025623478 -0.1509368 -0.15194927 0.010407713
000380 98 8f d0 3c 94 7d f3 bd b3 eb 15 bd 06 99 aa be
       0.025459096 -0.118891865 -0.036601733 -0.33319873
000390 95 62 f1 bc f3 79 74 3c af a0 03 3d 48 31 5f 3d
       -0.029465953 0.014921653 0.03213566 0.054490358
0003a0 87 a3 f6 3d 9a 6e 4e bb b0 db 04 3e fa 00 9d 3d
       0.12042909 -0.003149903 0.12974429 0.07666202
0003b0 2e 74 7c bb 34 3d 72 bd 96 b8 1c 3c 9c d0 0d 3e
       -0.0038521397 -0.0591404 0.009565493 0.1384911
0003c0 25 19 fc bd 3c 0a 9a bd 66 79 c2 bb 7d 6b 99 bc
       -0.123094834 -0.07521483 -0.005934882 -0.018728012
0003d0 76 a1 1d bc b7 67 11 be 3c b2 25 bd 41 11 01 3d
       -0.009621015 -0.1419972 -0.04045318 0.031510595
0003e0 93 1e 40 3d 2f 93 33 bd dc c4 15 3f 28 71 e6 3b
       0.046904158 -0.043841537 0.5850351 0.0070325322
0003f0 9d 67 c5 bd 17 81 8d bd c3 8f a2 bd be 6d 56 3d
       -0.09638903 -0.069093876 -0.079375766 0.052350752

invertible_encoder.bijectors.1.net.2.bias f4 [10]
000000 6f 5b df 3c f6 3c e1 bc 1e e6 ae bc d4 bb f9 bd
       0.027265279 -0.027494889 -0.021349963 -0.121940285
000010 10 42 8c bc 25 88 fe bd ae 50 95 bd 92 c0 c8 bd
       -0.017121345 -0.12428311 -0.07290779 -0.09802355
000020 39 1e a5 bd fe ef 02 bd
       -0.08062405 -0.031967156

invertible_encoder.bijectors.2.net.0.weight f4 [256, 10]
000000 90 bd 43 3e 7a a4 a7 be 1d 06 48 be ad 66 28 be
       0.19115281 -0.32742673 -0.19533582 -0.16445418
000010 0a d3 c4 3d 0f 38 20 be b3 0e 33 3e ba 4f d3 3d
       0.09610565 -0.15646385 0.17486076 0.10317941
000020 0d 2e ba 3e f9 d0 71 be cb bd 31 bf 0b 55 58 bf
       0.3636326 -0.23614873 -0.69430226 -0.84504765
000030 02 2a 61 be 94 5f b5 3c 7a 9b 6c be 52 72 ab bd
       -0.21988681 0.022140302 -0.23106185 -0.08371414
000040 05 e3 a1 be 56 be c4 3c 5a 55 75 3e fa 49 6f 3e
       -0.31618515 0.02401654 0.2395834 0.23368064
000050 4a fd ac bc 02 d2 c5 3d 18 8d 99 3e b1 5c 82 3b
       -0.021116871 0.096591964 0.29990458 0.003978335
000060 df 39 df 3e f0 af cf be 8f 68 e3 3d be 2f bf bc
       0.4359884 -0.40563917 0.11103927 -0.023338195
000070 05 eb 16 bf 00 24 3d 3e 9b 4b 71 3e 85 64 07 be
       -0.5895236 0.18470764 0.23563997 -0.13221939
000080 b3 aa bb be ff af bc 3d 0a bf 6e 3e e7 2d f8 3e
       -0.3665367 0.09213256 0.23315063 0.4847252
000090 dc 1a 46 be b8 a7 f8 be 73 6e a7 3d a3 3f 64 3d
       -0.19346184 -0.4856546 0.081753634 0.05572475
0000a0 28 21 46 bf 83 fe 9e be 67 cc 93 3d 2b c9 1a 3e
       -0.7739434 -0.31053552 0.07216721 0.15115802
0000b0 59 91 e9 3e e6 1b 69 3f 05 27 99 be 6b 57 59 be
       0.45618704 0.91058195 -0.29912582 -0.21224754
0000c0 3f 86 04 3e 0d 4d d1 3c 8f e5 ba be d2 b2 a9 3e
       0.12941836 0.025549436 -0.36503264 0.33144242
0000d0 98 96 05 3f b9 50 e9 3d 23 d6 ce be 2f 1c c2 3b
       0.5218291 0.1139235 -0.40397748 0.00592377
0000e0 72 10 98 bc 5d 6b b3 3e b0 3a f0 3e 8d a6 f8 be
       -0.01856253 0.3504285 0.46919775 -0.48564568
0000f0 94 07 ee 3e 0b 61 df 3c 2b 0a 8e bd c4 5b cd 3d
       0.46490157 0.027267953 -0.06935533 0.100272685
000100 40 dc 53 be ca d9 d5 be 19 e9 95 3d b0 ba c0 3d
       -0.20689487 -0.41767722 0.073198505 0.09410608
000110 61 b5 1d 3e 0d 64 64 be 46 21 05 bf dd 9d 32 bf
       0.15401222 -0.22303791 -0.52003896 -0.6977213
000120 03 5a 13 3e 98 e3 82 be 56 7d 92 3e 06 7c c6 3e
       0.14389805 -0.25564265 0.2861125 0.38766497
000130 c2 6e 5e 3e 09 97 db be 76 77 30 3e ec 6d eb be
       0.21721938 -0.42888668 0.1723307 -0.459823
000140 c5 f3 7d 3e 8b 24 b7 be b4 21 a5 3e 72 ab 17 3d
       0.24800022 -0.35770068 0.32252276 0.037028737
000150 d9 a9 0b 3f 99 f3 a1 be ab 4b 08 be 9f cd 28 3e
       0.5455604 -0.31631163 -0.13310115 0.16484688
000160 6b 9a f9 be 5c 63 5e be c6 8b 11 bf 94 d0 13 3f
       -0.48750624 -0.2171759 -0.568539 0.5774014
000170 7e 22 be bd 1f 9b 2f be 40 4b 03 3e aa 84 08 be
       -0.092839226 -0.17149018 0.12821674 -0.13331857
000180 26 9b 33 be 1e 2f aa 3e c0 ec 95 be ec d1 bf be
       -0.17539653 0.33239073 -0.29282188 -0.37464845
000190 86 1b b6 3e 7e a7 cd 3e 28 de 0e be 33 27 34 be
       0.35567874 0.4016685 -0.13951933 -0.17593078
0001a0 6b 0c a9 be 84 26 9b bd bd dc 60 3d d6 5a 4f 3e
       -0.33017287 -0.07575706 0.054898012 0.20249495
0001b0 01 cd 0c bf ce 0c 2d bf 53 2b 85 3e fa d3 0b bf
       -0.5500031 -0.67597663 0.26009616 -0.54620326
0001c0 4a 30 ee 3e cf 05 30 be 18 25 ca 3e 89 75 ae bb
       0.46521217 -0.17189716 0.39481425 -0.00532407
0001d0 80 8c c2 3d a7 ed 0c 3e 85 09 59 3e 64 4f 01 bf
       0.094994545 0.13762532 0.21195038 -0.50511765
0001e0 32 03 32 bf dd 11 75 3e 86 00 a9 be 9a ad 06 be
       -0.69536126 0.23932596 -0.33008212 -0.13152161
0001f0 4c 44 be bf 89 c4 bd 3e 05 b2 79 3e 1d 61 60 3e
       -1.4864593 0.37064007 0.24384315 0.21912046
000200 35 cb 3e 3f 92 1d 0e be 57 44 f0 be 83 33 5d 3f
       0.7452882 -0.13878468 -0.4692714 0.86406726
000210 91 4f 0e 3f b1 0e 29 be 4a 36 8e 3e ba 95 a9 3e
       0.5559016 -0.1650951 0.27775794 0.33122045
000220 a5 11 25 bf e9 c2 8f be 17 50 94 be 35 15 88 be
       -0.6448005 -0.28078392 -0.28967354 -0.2657868
000230 37 81 81 3e e1 e8 b6 3d c0 e5 81 be 69 bc a7 bd
       0.25293896 0.08931137 -0.25370598 -0.08190233
000240 b0 96 13 be 89 c9 01 3f f3 20 e1 3e b3 02 53 bd
       -0.14412951 0.50698143 0.4397045 -0.051516246
000250 bf 67 d3 be f5 d9 21 3d 79 37 31 3e 42 52 9b 3d
       -0.4129009 0.0395145 0.17306317 0.07584049
000260 c1 67 27 bd 2f 40 ca 3e 6f 85 12 3e 87 49 b9 bd
       -0.04087043 0.39502093 0.14308713 -0.09047227
000270 ec f7 91 bc 3e 1d c9 3d 8b c9 ba 3e f5 95 8c be
       -0.017818414 0.09820031 0.3648189 -0.27458158
000280 bd b1 ab 3e d3 39 3d bd da 6c 8e be c4 2f 95 be
       0.3353404 -0.046197724 -0.27817422 -0.29138005
000290 60 22 af bd 85 ee af 3e c3 c1 6b be 56 43 4f 3e
       -0.085514784 0.34361663 -0.23023133 0.2024053
0002a0 90 65 34 be 7b e6 59 3e b2 ea f1 3d a4 3e 8c 3e
       -0.17616868 0.21279328 0.11812343 0.2739154
0002b0 be 1f 63 3e 1a ef a8 be 45 9c 0d be 0e e0 18 be
       0.22180077 -0.3299492 -0.13829143 -0.1492922
0002c0 66 51 b5 3d 23 f1 ef be 61 b3 6e 3d 56 04 69 be
       0.08853416 -0.4686366 0.058276538 -0.2275556
0002d0 37 41 80 3e ec 5f 21 3f e5 50 78 3e 23 f9 21 3e
       0.25049755 0.6303699 0.24249609 0.15817694
0002e0 53 ca 73 be 94 5f b6 3e 94 92 80 3e 4a 14 e9 be
       -0.2380765 0.35619795 0.2511183 -0.45523292
0002f0 69 b5 62 3e 4a 9a a3 3e a8 c1 85 be 07 a3 a6 be
       0.22139515 0.3195365 -0.2612431 -0.32546255
000300 95 72 1a 3e c6 7e 2e be cd 49 1f 3f f6 e6 8a 3e
       0.15082772 -0.17040548 0.62221986 0.27129334
000310 eb 69 f2 bc bd f5 eb be 27 4b b3 be 71 cd 34 be
       -0.029591521 -0.4608592 -0.35018274 -0.17656495
000320 6a ab b5 3e 67 f2 81 be 3d 70 85 be c6 61 6a 3d
       0.3548234 -0.2538025 -0.26062194 0.05722215
000330 15 51 09 3f cf ba e9 3e 6d 49 a5 3e c2 9d 03 bc
       0.53639346 0.45650336 0.32282582 -0.008033218
000340 60 1a 50 be ee 14 63 be 64 c5 b5 bd cb 61 f4 3d
       -0.20322561 -0.22175953 -0.0887554 0.11932715
000350 a7 46 92 3d 5f 9d 77 3d 1a 84 66 be b0 1a 20 3e
       0.07142382 0.060452815 -0.2251133 0.1563518
000360 69 fd f4 3d 76 0b 94 bd 52 c1 62 be 00 26 2d be
       0.11962397 -0.072287485 -0.22144058 -0.16909027
000370 63 98 14 bf 39 cd 48 bf 33 f8 82 3e e5 1e 2b be
       -0.58045024 -0.78438145 0.25579986 -0.16711004
000380 08 de bf 3e 0d 5f d9 3d c5 5c 52 3d 4a f1 87 be
       0.37474084 0.106138326 0.051358003 -0.26551276
000390 dd f6 8d be 78 3d ad bd 56 f2 ab be 1a a8 ca bc
       -0.27727404 -0.0845899 -0.33583325 -0.02473836
0003a0 17 5c 1c be c0 e2 ce 3e b4 76 70 3c 3f f2 82 be
       -0.15269504 0.40407372 0.0146767385 -0.25575444
0003b0 38 86 a3 be a6 cf 83 be 52 05 aa bd 7c 98 4a 3e
       -0.31938338 -0.2574436 -0.08301796 0.1978473
0003c0 c3 11 fe be 7f 33 69 be dd f7 e3 3e 86 0f c0 bc
       -0.49622926 -0.2277355 0.44525042 -0.023444902
0003d0 01 00 21 3e 20 4c e4 3e d2 7e 27 be ce 09 2b be
       0.15722658 0.4458933 -0.16356972 -0.16702959
0003e0 f7 0b 4a 3e 3c b7 54 be 68 47 04 3e 3b 36 6f bf
       0.19731127 -0.20773023 0.12917864 -0.93442124
0003f0 83 bc 1f 3e 76 15 3c be 69 af c5 be 59 20 d8 3d
       0.15599255 -0.18367562 -0.3861039 0.10553045
