Sentinel_model_weights/IKAE/best_model_1.pt (torch, 138638 bytes, 24 tensors)

invertible_encoder.bijectors.0.net.0.weight f4 [256, 10]
0.18845005 -0.2253849 -0.024668258 0.05391397 -0.3698716 0.06847464 -0.19784163 0.064413615
0.050287392 0.09752665 -0.053356603 -0.025468994 0.010546454 -0.09697623 -0.10659102 -0.007455708
0.04952884 0.0019266861 0.10720065 -0.13699722 -0.17114598 -0.060914915 0.014967853 -0.067123085
-0.30746454 0.013795832 0.18353465 0.120459914 -0.40944964 0.438666 0.8928397 0.30635154
0.73727745 -0.112976335 -0.36597112 0.004323444 0.41106173 -0.09429067 0.005191374 -0.3429748
0.28613594 -0.14031464 0.35193 -0.0008016078 -0.19649011 0.15951496 -0.16675867 0.1140389
-0.11185306 -0.014567691 -0.63599735 -0.13332872 0.30920756 -0.04957292 0.5636478 0.3142694
0.016344743 -0.24636355 0.24472778 0.11373203 0.03482004 0.5466131 0.507821 0.26644439
-0.112410545 -0.114486896 -0.041820638 0.030659242 -0.15871914 -0.27865356 0.22438967 -0.24090981
0.1267032 -0.07716801 0.2221869 -0.03616995 0.037806123 0.10090614 -0.25811243 0.21058519
-0.40169817 -0.262349 -0.059272666 -0.0021570658 0.17666943 -0.18591405 -0.22472967 0.29291645
-0.18386887 0.1408229 0.24533725 -0.2861763 0.21744946 0.0254414 -0.13607942 -0.16688354
0.08280478 0.027408253 -0.08876911 0.05578508 0.27472964 -0.11281377 0.15774405 0.067189686
-0.4660295 -0.36920986 0.24489741 -0.061396454 0.12738448 -0.061852973 0.08902933 0.07423863
0.3586011 -0.2771722 0.016795103 0.15670803 0.13150148 0.10243385 -0.28920195 -0.20685549
-0.010152144 0.24806103 0.38961607 -0.117800206 0.231613 -0.2567456 -0.33095244 -0.11087482
0.27529165 0.22117482 -0.15802112 -0.036628127 0.5122273 0.03845189 0.22456838 0.05605837
-0.018484361 -0.09933549 -0.20961307 -0.18962106 -0.23827934 -0.18423285 -0.36516207 0.012319141
0.058965176 -0.17694122 0.024697693 0.012988772 0.048815258 0.081035264 -0.13550767 0.3816437
-0.04599457 0.13346004 -0.2290074 -0.14227907 -0.06033405 0.0010306997 0.2306017 -0.13225004
-0.12926751 0.26619115 0.30603683 0.24932203 -0.031349022 0.054403458 -0.19790353 -0.106700905
-0.16854021 0.03635406 -0.38737214 0.07358163 -0.08987878 -0.053960487 0.6137485 0.23173515
0.0040801507 -0.13166064 -0.42398936 0.23128596 0.15656151 -0.018406078 -0.09496076 0.026478985
-0.16748348 0.36258036 -0.20084552 -0.15921202 0.07247742 -0.018833786 -0.12531866 -0.30076247
-0.4815061 -0.02807301 0.3194218 -0.35925522 0.073743 0.1354408 0.20517005 -0.5133921
0.1299965 -0.41956913 0.33647743 -0.026141042 0.22540054 0.067621395 -0.0020449741 0.021637628
-0.07237183 -0.0111103775 -0.0071691517 -0.1988146 -0.49506217 0.08578549 0.25722876 0.20813224
0.16345191 -0.36072898 -0.17476277 0.34364116 -0.65832436 0.22135518 -0.6157757 -0.21131967
0.027919235 -0.19787097 -0.023638403 0.24307193 0.10556357 0.007823317 0.17580386 -0.2263673
0.41704994 -0.063813485 -0.18873614 0.10210143 -0.2141704 0.22163391 0.16140044 -0.24761859
-0.3633909 -0.009525132 0.21686725 0.00568555 0.026138796 0.07078514 -0.30887637 -0.24797384
-0.13621508 0.36120605 0.5144178 -0.2809229 0.08711047 -0.047682337 0.18027328 -0.2244474
00000000: 0df9 403e 4dcb 66be 1615 cabc e5d4 5c3d
00000010: cf5f bdbe 6f3c 8c3d ff96 4abe 49eb 833d
00000020: 27fa 4d3d 0dbc c73d 748c 5abd 5aa4 d0bc
00000030: 09cb 2c3c 799b c6bd 654c dabd 034f f4bb
00000040: c1de 4a3d dc88 fc3a 048c db3d 0049 0cbe
00000050: e440 2fbe eb81 79bd ba3b 753c d477 89bd
00000060: fe6b 9dbe ea07 623c 82f0 3b3e b0b3 f63d
00000070: 62a3 d1be d498 e03e 2591 643f 1cda 9c3e
00000080: 37be 3c3f 2360 e7bd 9160 bbbe adab 8d3b
00000090: af76 d23e 771b c1bd 671c aa3b 659a afbe
000000a0: 6980 923e a4ae 0fbe 2b30 b43e fd22 52ba
000000b0: b434 49be e457 233e c9c2 2abe 3a8d e93d
000000c0: 3813 e5bd 53ad 6ebc b9d0 22bf 5387 08be
000000d0: 7450 9e3e f90c 4bbd 394b 103f ebe7 a03e
000000e0: 69e5 853c ba46 7cbe eb99 7a3e 57ec e83d
000000f0: 759f 0e3d d6ee 0b3f 8f00 023f 666b 883e
00000100: 8037 e6bd 1b78 eabd 1e4c 2bbd 1729 fb3c
00000110: 4587 22be aeab 8ebe 68c6 653e 10b1 76be
00000120: 7cbe 013e 430a 9ebd f684 633e f126 14bd
00000130: 98da 1a3d e1a7 ce3d 5027 84be a5a3 573e
00000140: 62ab cdbe 9c52 86be e5c7 72bd 8f5d 0dbb
00000150: d5e8 343e 4160 3ebe 891f 66be 25f9 953e
00000160: 1f48 3cbe e133 103e b039 7b3e b385 92be
00000170: 12ab 5e3e 7c6a d03c 6758 0bbe 85e3 2abe
00000180: 8d95 a93d 4687 e03c 94cc b5bd e57e 643d
00000190: 5da9 8c3e e80a e7bd a887 213e bf9a 893d
000001a0: 6b9b eebe 1309 bdbe 63c6 7a3e d97a 7bbd
000001b0: 1471 023e 8b59 7dbd 0255 b63d 6c0a 983d
000001c0: 909a b73e 84e9 8dbe e295 893c 1278 203e
000001d0: 53a8 063e d7c8 d13d 4712 94be edd1 53be
000001e0: 2e55 26bc b603 7e3e c27b c73e 3c41 f1bd
000001f0: f52b 6d3e 2974 83be 9972 a9be 5612 e3bd
00000200: 07f3 8c3e a77b 623e 4ad0 21be 6007 16bd
00000210: 5421 033f bb7f 1d3d 41f5 653e 769d 653d
00000220: 846c 97bc 6870 cbbd cfa4 56be 062c 42be
00000230: 80ff 73be 89a7 3cbe 86f6 babe 39d6 493c
00000240: 7885 713d 1430 35be d152 ca3c dcce 543c
00000250: 82f2 473d d1f5 a53d 86c2 0abe ce66 c33e
00000260: cd64 3cbd c0a9 083e ea80 6abe 9bb1 11be
00000270: d620 77bd 8b18 873a da22 6c3e 8e6c 07be
00000280: b45e 04be 354a 883e dcb0 9c3e 464e 7f3e
00000290: d567 00bd 29d6 5e3d 39a7 4abe 0186 dabd
000002a0: ce95 2cbe ffe7 143d a455 c6be f7b1 963d
000002b0: 5e12 b8bd ac05 5dbd 9f1e 1d3f fb4b 6d3e
000002c0: c9b2 853b 0cd2 06be 2215 d9be 3ad6 6c3e
000002d0: a951 203e 58c8 96bc c97a c2bd 75ea d83c
000002e0: ca80 2bbe 22a4 b93e 73aa 4dbe 7a08 23be
000002f0: 0b6f 943d 5049 9abc 8953 00be 8afd 99be
00000300: f887 f6be 5ef9 e5bc 418b a33e 4df0 b7be
00000310: 9206 973d feb0 0a3e 1918 523e aa6d 03bf
00000320: cd1d 053e c4d1 d6be c546 ac3e bd25 d6bc
00000330: 66cf 663e 167d 8a3d f904 06bb 6541 b13c
00000340: af37 94bd 4d08 36bc 34eb eabb 0e96 4bbe
00000350: ca78 fdbe 4eb0 af3d 7db3 833e 9e20 553e
00000360: f05f 273e 78b1 b8be 03f5 32be bcf1 af3e
00000370: f287 28bf efaa 623e 7aa3 1dbf 2f64 58be
00000380: e1b6 e43c b09e 4abe 53a5 c1bc d9e7 783e
00000390: b731 d83d 5f2d 003c ed05 343e d4cc 67be
000003a0: 9287 d53e a5b0 82bd 0c44 41be 8e1a d13d
000003b0: 7c4f 5bbe 00f4 623e 2846 253e ba8f 7dbe
000003c0: 5f0e babe 4d0f 1cbc 7312 5e3e da4d ba3b
000003d0: 0721 d63c cdf7 903d 0b25 9ebe dbec 7dbe
000003e0: f77b 0bbe 00f0 b83e e3b0 033f 20d5 8fbe
000003f0: f966 b23d 8e4e 43bd 8f99 383e 8ad5 65be

invertible_encoder.bijectors.0.net.0.bias f4 [256]
0.0069885245 -0.014328745 -0.0125741875 -0.14461917 -0.041209556 -0.23541413 -0.15883145 -0.024699291
-0.009048876 -0.008073367 0.013777288 0.070898816 -0.03750525 -0.037025485 0.0068317116 -0.06342679
-0.04822337 0.030010058 -0.014407418 0.011403066 -0.058840312 -0.025393594 -0.006205293 -0.08637613
0.17321017 -0.118537866 0.019113552 -0.03519573 0.009452703 -0.030555503 -0.26595747 -0.0024369888
-0.0048765414 -0.017299598 -0.044664577 -0.06373734 -0.0034478721 -0.03653912 -0.007996662 -0.15008764
0.027387703 -0.065458715 0.0053538643 0.0005381863 0.07149185 -0.05498074 -0.018478965 -0.027292807
-0.07326701 -0.15831007 0.04643897 0.10365447 -0.0056898887 0.04371059 -0.047681015 -0.014074489
0.06527243 -0.025776858 -0.080627345 -0.044375025 -0.016725909 -0.16517271 -0.024536321 0.007920152
-0.030789278 0.06880951 0.028204637 -0.006676651 -0.0061480687 -0.14955729 0.09199907 0.00089722103
-0.0349356 -0.0231594 -0.054635476 -0.09701896 -0.019513723 0.1060452 0.098059796 -0.16659528
-0.088538446 -0.16602863 -0.07875495 -0.04738924 0.023007046 -0.033927936 0.032166276 0.12070957
-0.05494785 -0.023997428 -0.047499303 -0.1373494 -0.017801128 -0.062101297 0.0051839175 -0.026357725
-0.123586535 -0.028898094 0.11322582 0.044299167 0.055312485 -0.06105884 -0.02011019 0.086018614
0.022921063 0.008923854 0.021583423 0.020681873 -0.037512187 -0.021532355 0.015034751 0.008192966
-0.052363146 -0.13213515 0.001658098 -0.022848532 0.07754497 -0.028496953 -0.052726258 0.039799828
0.06837421 -0.018602688 0.021976743 -0.12988783 0.010908764 -0.0808923 -0.03627852 -0.06716211
0.0051639155 -0.07138646 -0.022811705 -0.022561757 0.000302562 -0.100303635 0.027673867 0.028781014
0.0121596875 0.0004303786 -0.054862477 0.037555736 -0.017221166 -0.05465753 0.0076148612 -0.14250913
0.0050531165 0.0031987734 -0.026150847 0.002707624 0.15869085 -0.038208716 -0.0218763 -0.09240841
-0.015481578 -0.089555256 0.05972357 -0.1357224 0.033320725 -0.001222333 -0.13625523 -0.050494917
-0.114103645 -0.01646561 -0.004454751 0.12352598 -0.004817014 0.033958815 0.021069627 0.010614155
-0.054489423 -0.016444692 -0.0011016447 0.003954081 -0.008270817 0.15552491 -0.13653666 -0.06388598
-0.0010160718 0.07555424 -0.15029386 -0.06351719 -0.00012668583 -0.034180585 0.022233386 0.012157422
-0.043625545 -0.0041892957 -0.033048913 -0.02852604 0.084152415 0.11091638 0.08225706 -0.019472932
-0.032334276 -0.025395926 0.010676115 0.0028869554 -0.038859405 -0.022316406 0.04921154 -0.08840345
0.0019188051 -0.084905036 0.029757675 -0.21009181 0.09223758 -0.12846482 -0.008334892 0.022167765
0.009047145 0.052763708 -0.009436575 -0.0817821 -0.058559027 0.10147761 -0.17092934 0.006155802
-0.01390643 -0.051518593 -0.020597856 -0.017625691 0.0143345995 -0.046235975 0.019549102 0.050292797
0.013805499 -0.017715976 -0.1561412 -0.14070529 0.014129147 -0.0055402294 0.004471915 -0.027740587
-0.08252352 0.010491538 -0.23759967 -0.08883501 0.06410449 0.0014501144 -0.002573787 -0.053454228
0.018869912 -0.03588197 -0.015349435 -0.09393324 0.008081198 0.020627005 -0.0033037157 0.02091387
0.03724254 -0.07844315 0.017042242 -0.14431648 -0.00073355535 -0.021428201 -0.014102715 -0.021314278
00000000: feff e43b 1dc3 6abc f703 4ebc 0c17 14be
00000010: 5acb 28bd 6710 71be b6a4 22be 2b56 cabc
00000020: bd41 14bc 2846 04bc 22ba 613c 6633 913d
00000030: 1b9f 19bd 09a8 17bd 8ddc df3b e8e5 81bd
00000040: de85 45bd a7d7 f53c 170d 6cbc edd3 3a3c
00000050: 8a02 71bd 3a06 d0bc c555 cbbb f8e5 b0bd
00000060: 025e 313e fbc3 f2bd 0694 9c3c 6629 10bd
00000070: 83df 1a3c 894f fabc 942b 88be e3b5 1fbb
00000080: 65cb 9fbb e3b7 8dbc 34f2 36bd b988 82bd
00000090: b2f5 61bb 0baa 15bd 6e04 03bc 93b0 19be
000000a0: 2d5c e03c 380f 86bd 786f af3b 1215 0d3a
000000b0: 526a 923d 7c33 61bd 3361 97bc 2a95 dfbc
000000c0: 040d 96bd 091c 22be ca36 3e3d cb48 d43d
000000d0: 3f72 babb e009 333d 2b4d 43bd af98 66bc
000000e0: 8dad 853d fd29 d3bc f31f a5bd 96c2 35bd
000000f0: c604 89bc 0923 29be 6500 c9bc 86c3 013c
00000100: cc39 fcbc 00ec 8c3d 690d e73c cfc7 dabb
00000110: bd75 c9bb 8c25 19be 026a bc3d 7c33 6b3a
00000120: a218 0fbd c8b8 bdbc 73c9 5fbd e0b1 c6bd
00000130: 3edb 9fbc 3a2e d93d 93d3 c83d f497 2abe
00000140: a553 b5bd 6903 2abe 464a a1bd 381b 42bd
00000150: 4679 bc3c 05f8 0abd c9c0 033d 9436 f73d
00000160: ff10 61bd 4196 c4bc a18e 42bd 52a5 0cbe
00000170: acd3 91bc ee5d 7ebd dadd a93b 28ec d7bc
00000180: f01a fdbd b2bb ecbc f0e2 e73d 0b73 353d
00000190: 588f 623d d618 7abd 20be a4bc 872a b03d
000001a0: f4c4 bb3c 5b35 123c b8cf b03c 086d a93c
000001b0: 61a6 19bd 9f64 b0bc 5154 763c ca3b 063c
000001c0: bd7a 56bd 704e 07be 8954 d93a d82c bbbc
000001d0: e6cf 9e3d 7172 e9bc 7df7 57bd 2505 233d
000001e0: c707 8c3d aa64 98bc 9208 b43c 5101 05be
000001f0: acba 323c ddaa a5bd c998 14bd 4a8c 89bd
00000200: 1036 a93b 1033 92bd 9ddf babc 6fd3 b8bc
00000210: 2fa1 9e39 fe6b cdbd 4eb4 e23c 29c6 eb3c
00000220: 6d39 473c 70a4 e139 7ab7 60bd 0bd4 193d
00000230: 6713 8dbc 93e0 5fbd 1686 f93b eaed 11be
00000240: 9d94 a53b 83a2 513b 4d3a d6bc 6572 313b
00000250: db7f 223e be80 1cbd ed35 b3bc 9f40 bdbd
00000260: 72a6 7dbc bf68 b7bd b4a0 743d d0fa 0abe
00000270: 507b 083d b136 a0ba 7e86 0bbe c2d3 4ebd
00000280: 2caf e9bd e3e2 86bc 29f9 91bb 30fb fc3d
00000290: 0bd8 9dbb 6618 0b3d 369a ac3c fee6 2d3c
000002a0: 4d30 5fbd 05b7 86bc 1065 90ba 3c91 813b
000002b0: 5282 07bc ec41 1f3e 44d0 0bbe a7d6 82bd
000002c0: b62d 85ba 2ebc 9a3d a2e6 19be 4d15 82bd
000002d0: f8d6 04b9 f100 0cbd ca22 b63c ec2f 473c
000002e0: b3b0 32bd 5c46 89bb 4c5e 07bd 71af e9bc
000002f0: 1a58 ac3d 2128 e33d 6476 a83d b385 9fbc
00000300: f270 04bd 1e0b d0bc dfea 2e3c 1333 3d3b
00000310: 0a2b 1fbd e5d0 b6bc 0a92 493d de0c b5bd
00000320: 6a80 fb3a b1e2 adbd 5ec6 f33c 4f22 57be
00000330: 0ee7 bc3d 488c 03be 128f 08bc 2c99 b53c
00000340: 7a3a 143c c21e 583d dd9b 1abc 607d a7bd
00000350: 97db 6fbd 7ed3 cf3d 1a08 2fbe 9cb6 c93b
00000360: ccd7 63bc 2905 53bd d6bc a8bc c163 90bc
00000370: abdb 6a3c ef61 3dbd 7025 a03c d2ff 4d3d
00000380: 7630 623c 1821 91bc 7be3 1fbe 0c15 10be
00000390: f07d 673c d08a b5bb 2489 923b 3a40 e3bc
000003a0: 1702 a9bd b3e4 2b3c 544d 73be 21ef b5bd
000003b0: 3749 833d c411 be3a fbac 28bb d2f2 5abd
000003c0: 1395 9a3c f9f8 12bd 327c 7bbc 1260 c0bd
000003d0: 0067 043c f7f9 a83c 2783 58bb 9053 ab3c
000003e0: a28b 183d cda6 a0bd 2c9c 8b3c b3c7 13be
000003f0: 114c 40ba 328a afbc 130f 67bc 489b aebc

invertible_encoder.bijectors.0.net.2.weight f4 [10, 256]
0.000425522 -0.014720436 -0.034551654 0.005710015 0.013145744 0.027635327 0.14357576 -0.010702303
-0.041164655 -0.01689474 -0.006927401 -0.02911234 -0.007161703 0.0024944139 -0.025757657 -5.4351836e-05
-0.001672982 0.056542117 0.016221493 -0.060601678 0.019707942 -0.005997323 -0.111174636 -0.00856412
-0.028012305 0.0036652626 0.008232462 0.05673112 0.010472344 -0.0054156077 0.009427387 -0.035838913
-0.022323098 -0.006331057 0.015711676 -0.056439035 -0.02537724 -0.059463188 -0.021504814 -0.009694905
-0.0016786578 -0.037051886 -0.023880672 -0.011733536 -0.03009188 -0.013138234 0.0046336204 -0.026699258
0.03680406 -0.029116008 -0.11233619 0.008867011 -0.01599593 -0.0011115319 -0.024283377 0.023821048
0.011918342 -0.020854626 0.02383021 -0.025422884 -0.02642707 0.005459645 -0.027324202 -0.013511568
-0.02782276 -0.047431275 -0.008909947 0.034305584 -0.0209634 -0.0063649267 -0.038865957 -0.04357409
-0.01287527 0.017580543 0.015288124 -0.019816365 -0.014166429 -0.0038736213 -0.023432279 0.02420013
0.003293586 0.01070523 0.025998916 -0.008679743 -0.037413843 0.0014767149 0.0030732471 -0.025293138
-0.0028159136 -0.0054943385 -0.073570974 0.0009049445 0.020792257 -0.0020624148 0.0020726947 0.0348376
-0.076853625 -0.019919062 -0.033880804 -0.02400161 -0.0051245485 0.017655428 0.0038917118 0.026886882
-0.035696447 -0.036321554 -0.008554054 -0.009007302 0.0077935746 -0.012763133 -0.009551478 -0.010907435
0.0029254889 0.004862723 -0.010965675 -0.00578372 0.0056562205 -0.0066490457 0.0074770744 0.0038901886
-0.027459033 0.030262059 0.0012703385 0.01606342 -0.045568127 -0.018453794 -0.052878812 0.014672837
-0.030244255 0.1428185 0.016649662 0.010813477 0.011338946 -0.012732164 -0.0029987574 -0.046129216
0.0121315345 -0.04237228 0.015888987 0.022240046 -0.025877206 -0.014842654 -0.027651748 -0.00055836525
-0.010522107 0.009752277 0.01812329 -0.041261118 -0.05364342 0.01252041 -0.044851005 0.0047572753
-0.012223857 -0.02972627 -0.03742241 0.025644459 0.014574135 -0.044680092 -0.018478211 -0.0062306286
0.030341381 -0.031298228 -0.0057710814 -0.09524588 -0.005937827 -0.014466971 -0.019897418 -0.019856421
0.010247665 -0.02227002 -0.008418049 0.008295361 0.013115517 -0.031627107 0.06940489 0.008756291
0.06988561 0.17056067 0.019597378 0.022738548 0.004266433 -0.031328924 -0.02767325 0.0076040947
-0.026860628 0.006833056 -0.020125424 -0.039880157 -0.041287012 -0.0027837174 0.013850744 -0.004331177
-0.0021296926 -0.0015132491 0.0006746186 -0.0066063134 -0.06250321 -0.009736271 -0.025413765 -0.0032288819
0.0035143776 0.01719735 0.01550181 0.0016618621 -0.005704546 -0.016194949 -0.015156281 0.03510322
-0.0062351064 -0.026599541 0.033528354 -0.030678637 -0.0035036544 0.006431836 0.005384912 -0.05639385
-0.13106355 -0.088858 0.01791505 -0.017709829 -0.07042823 -0.026208272 -0.014921196 0.0013061361
0.0010028343 0.01121414 0.008860452 0.0029030903 0.016949061 -0.0019103372 -0.027372032 -0.106077686
0.012683949 -0.0043536397 0.045061547 0.002921123 0.019275676 -0.023555797 -0.023508502 0.009075323
0.10077334 -0.01523324 0.037031934 0.0018803545 -0.021168038 -0.04779634 0.0017492457 0.037343353
-0.012401225 -0.0056845285 -0.01728059 0.022573706 0.015480819 -0.018737923 -0.03337825 0.004670125
00000000: 9918 df39 fc2d 71bc 0986 0dbd 141b bb3b
00000010: 3f61 573c 7b63 e23c 8605 133e b658 2fbc
00000020: 459c 28bd d666 8abc 40ff e2bb 017d eebc
00000030: b8ac eabb 5279 233b b901 d3bc d7f7 63b8
00000040: f647 dbba b598 673d f0e2 843c 7739 78bd
00000050: 8d72 a13c 3185 c4bb 87af e3bd 8650 0cbc
00000060: 107a e5bc e734 703b 73e1 063c e45e 683d
00000070: 3294 2b3c 6975 b1bb 5475 1a3c d3cb 12bd
00000080: eede b6bc c174 cfbb c6b5 803c 9e2c 67bd
00000090: eee3 cfbc ac8f 73bd dd2a b0bc 61d7 1ebc
000000a0: 6906 dcba b8c3 17bd 66a1 c3bc 043e 40bc
000000b0: 3f83 f6bc bf41 57bc a0d5 973b 67b8 dabc
000000c0: dbbf 163d b284 eebc 8410 e6bd f146 113c
000000d0: e609 83bc d2b0 91ba efed c6bc 5c24 c33c
000000e0: 2645 433c 52d7 aabc 9337 c33c a743 d0bc
000000f0: 957d d8bc d2e6 b23b 01d7 dfbc a05f 5dbc
00000100: 8fec e3bc 4c47 42bd 07fb 11bc 0384 0c3d
00000110: 70bb abbc e090 d0bb e931 1fbd bf7a 32bd
00000120: ccf2 52bc 1205 903c 0a7b 7a3c ee55 a2bc
00000130: 4f1a 68bc 95dc 7dbb 0df5 bfbc 5a3f c63c
00000140: 34d9 573b fd64 2f3c aefb d43c 7b35 0ebc
00000150: 423f 19bd 548e c13a 8868 493b 8e33 cfbc
00000160: 318b 38bb da09 b4bb 61ac 96bd cc39 6d3a
00000170: 8654 aa3c 9429 07bb 0cd6 073b dfb1 0e3d
00000180: 6f65 9dbd 4d2d a3bc 99c6 0abd 069f c4bc
00000190: d4eb a7bb 1ea2 903c 170c 7f3b e141 dc3c
000001a0: 7036 12bd e9c5 14bd 4e26 0cbc 5d93 13bc
000001b0: 3e61 ff3b 761c 51bc cd7d 1cbc 19b5 32bc
000001c0: 8fb9 3f3b 7a57 9f3b 60a9 33bc 5c85 bdbb
000001d0: d157 b93b 3de0 d9bb 3f02 f53b 89f2 7e3b
000001e0: c4f1 e0bc 23e8 f73c 7d81 a63a 6f97 833c
000001f0: a5a5 3abd 692c 97bc 7497 58bd 5766 703c
00000200: cdc2 f7bc 033f 123e df64 883c 032b 313c
00000210: fdc6 393c 919a 50bc cd86 44bb fdf1 3cbd
00000220: 58c3 463c 8e8e 2dbd 9f29 823c c230 b63c
00000230: 6ffc d3bc 9a2e 73bc eb85 e2bc 425f 12ba
00000240: ea64 2cbc 04c8 1f3c 4b77 943c 6b01 29bd
00000250: 34b9 5bbd 6822 4d3c b0b5 37bd ebe2 9b3b
00000260: 9346 48bc 8284 f3bc 3e48 19bd 5414 d23c
00000270: 5ac8 6e3c 7902 37bd 9e5f 97bc 4d2a ccbb
00000280: 7d8e f83c 9232 00bd 571b bdbb 4610 c3bd
00000290: 1a92 c2bb e006 6dbc e9ff a2bc efa9 a2bc
000002a0: d3e5 273c 9e6f b6bc dbeb 09bc 44e9 073c
000002b0: 77e2 563c 6d8b 01bd 2724 8e3d 8c76 0f3c
000002c0: 3020 8f3d 75a7 2e3e ae8a a03c 3146 ba3c
000002d0: 6fcd 8b3b c252 00bd 03b3 e2bc c52b f93b
000002e0: d20a dcbc d4e7 df3b 13de a4bc 6059 23bd
000002f0: 921c 29bd 076f 36bb 3bee 623c 8cec 8dbb
00000300: 5092 0bbb 3758 c6ba e3d8 303a c679 d8bb
00000310: af01 80bd e184 1fbc 8730 d0bc a69b 53bb
00000320: 7951 663b 75e1 8c3c 4efb 7d3c d7d2 d93a
00000330: 33ed babb 45ab 84bc 0d52 78bc 65c8 0f3d
00000340: dd4f ccbb 48e7 d9bc 0755 093d c451 fbbc
00000350: 919d 65bb 27c2 d23b ea73 b03b 3dfd 66bd
00000360: 8635 06be 2ffb b5bd 95c2 923c 3414 91bc
00000370: ad3c 90bd bbb2 d6bc 0878 74bc a832 ab3a
00000380: 8971 833a 83bb 373c 6e2b 113c c641 3e3b
00000390: c2d8 8a3c 4864 faba 503b e0bc 423f d9bd
000003a0: 57d0 4f3c faa8 8ebb 7592 383d 5070 3f3b
000003b0: 06e8 9d3c 16f8 c0bc e794 c0bc aab0 143c
000003c0: 4162 ce3d d794 79bc ccae 173d 3a76 f63a
000003d0: 9868 adbc 18c6 43bd f246 e53a 58f5 183d
000003e0: 822e 4bbc 4845 babb 0690 8dbc 7eec b83c
000003f0: 43a3 7d3c 4680 99bc a2b7 08bd d907 993b

invertible_encoder.bijectors.0.net.2.bias f4 [10]
-0.018581562 0.007036309 -0.0022418306 0.006078428 0.016804589 -0.009795222 0.009146672 0.03006932
0.05800326 -0.0034414723
00000000: 5c38 98bc d790 e63b adeb 12bb 8d2d c73b
00000010: c7a9 893c 247c 20bc ecdb 153c ef53 f63c
00000020: d494 6d3d 538a 61bb

invertible_encoder.bijectors.1.net.0.weight f4 [256, 10]
0.5640162 0.6472502 0.3563832 -0.115525275 -0.7629804 0.2053559 -0.13293679 -0.063445084
0.4693752 -0.13670932 0.61675274 0.10103579 0.49059895 0.6558486 0.720391 0.5526216
-0.07077671 -0.58598894 0.07382599 0.20961685 0.18016395 0.18588567 -0.077851996 -0.29286256
0.07161018 0.26345924 0.4720972 0.30894136 0.3323406 1.9521089 0.40659958 -0.55401874
-0.11586958 0.2522551 -0.3517773 0.06294183 -0.031393584 -0.28799832 -0.122472085 0.43187302
-0.03460729 -0.23419118 -0.2054904 -0.13177937 -0.3218099 -0.24759586 0.120955594 -0.010082483
0.63374525 1.7564284 0.03156126 -0.085317925 -0.04652933 -0.057104833 -0.0033066801 0.020852283
0.033378698 0.058580313 -0.16879603 0.20760725 0.1517775 0.07683249 -0.14068452 0.5351945
-0.62028843 0.018904451 0.7988164 0.96201366 -0.028382218 0.72533816 0.37590125 -0.30478087
-0.3724574 -0.15307106 0.078447744 0.5965153 0.48688427 -0.4774976 0.23756859 -0.6779953
0.79616416 -0.017457496 0.8777712 0.3887531 -0.10057105 -0.015415618 -0.27239826 0.1887882
-0.3241012 0.5053319 0.42718086 0.6146173 0.2752585 0.7915279 -0.46792322 -0.3413685
-0.7141085 -0.07598944 0.39818093 0.862627 -0.57723564 0.04052322 -0.56718165 -0.36445156
0.22477964 -0.089418754 0.35705498 -0.2050041 0.38985282 0.16130812 -0.11778308 0.21509975
0.070781216 -0.084703185 -0.67569804 -0.0053629414 0.5161692 -0.13568953 0.23771618 1.5248317
-0.09156653 -1.0376222 -0.021187121 0.04733997 -0.26649895 -0.6489109 -0.71523106 -0.35311842
-0.060766395 2.4456224 -0.34740216 -0.24781433 -0.7131222 0.36434844 0.5911041 -0.68186617
-0.53788614 -0.5571013 -0.03560296 1.2756703 0.21078317 0.53501755 -0.034333255 0.09583341
0.2253412 -0.40150127 0.18565553 0.16407692 -0.097418815 -1.2230953 -0.61707026 0.47104213
-0.21540777 -0.31058645 0.33336303 0.14182276 0.22605675 0.044321217 -0.02129251 -0.15694582
-0.43631256 0.03322204 -0.46503353 0.019964756 -1.2230114 -0.88296854 -0.15622744 -0.16680115
-0.2073087 0.7935912 0.23903157 0.66591847 -0.17985058 -0.22695202 0.504624 0.30502483
0.50584227 0.27935687 0.38653335 1.9290122 0.69971955 -0.40779248 -0.108739026 0.496878
-0.22777149 0.21501495 0.3719781 -0.83143216 0.21569164 1.0206563 0.44781128 -0.1715806
0.33787757 -0.12337091 -0.1233366 0.16059154 -0.55346113 -0.20901465 0.22572158 -0.44694066
0.4858571 -0.03841018 0.72133076 0.7040005 -0.07167398 -0.063111104 -0.27237713 -0.578776
-0.16468939 -0.0337908 -0.69315684 -0.5898018 0.27824324 -0.04224494 -0.5666588 -0.44140676
0.37963524 -0.5046536 -0.5871458 -0.9233944 0.26456028 0.23321581 0.15782802 0.00093530316
-0.65775186 -0.116026156 0.8575083 0.4632891 0.36690038 -0.5254884 -0.2647051 0.75534713
-0.16859974 -0.49349257 0.51445985 -0.092132315 0.085220695 0.15670952 -0.20479111 -0.38107097
-0.19547413 -0.073548354 -0.19733302 0.02803246 0.48829007 -0.0070512323 0.5763001 -0.19296671
0.05902881 0.3418719 0.006627257 0.38953236 -0.14079234 -0.15645064 -0.76016873 0.40969458
00000000: 5e63 103f 30b2 253f dc77 b63e 8498 ecbd
00000010: af52 43bf d148 523e 9520 08be 7fef 81bd
00000020: f251 f03e 87fd 0bbe 82e3 1d3f daeb ce3d
00000030: c92f fb3e b2e5 273f 8b6b 383f 9c78 0d3f
00000040: 61f3 90bd 5f03 16bf 1532 973d cda5 563e
00000050: e67c 383e d058 3e3e de70 9fbd 15f2 95be
00000060: 5ca8 923d 21e4 863e b9b6 f13e 902d 9e3e
00000070: 8c28 aa3e b4de f93f d22d d03e 2cd4 0dbf
00000080: 084d edbd 9527 813e 271c b4be a5e7 803d
00000090: 8f96 00bd 8474 93be a5d2 fabd 761e dd3e
000000a0: 60c0 0dbd d0cf 6fbe 136c 52be 2cf1 06be
000000b0: 44c4 a4be c589 7dbe 91b7 f73d 0031 25bc
000000c0: 213d 223f a5d2 e03f 6146 013d 2abb aebd
000000d0: 8a95 3ebd c2e6 69bd e3b4 58bb 68d2 aa3c
000000e0: 1ab8 083d e9f1 6f3d ded8 2cbe ff96 543e
000000f0: 906b 1b3e 5a5a 9d3d 9a0f 10be 8202 093f
00000100: 39cb 1ebf 82dd 9a3c 3b7f 4c3f 8746 763f
00000110: d381 e8bc c3af 393f 2176 c03e 3d0c 9cbe
00000120: bdb2 bebe a9be 1cbe 36a9 a03d 3ab5 183f
00000130: e548 f93e 917a f4be 2e45 733e 1a91 2dbf
00000140: 6ad1 4b3f 0603 8fbc 9db5 603f a50a c73e
00000150: 32f8 cdbd ca91 7cbc c977 8bbe b251 413e
00000160: 98f0 a5be 6e5d 013f 73b7 da3e 8f57 1d3f
00000170: afee 8c3e 93a1 4a3f a293 efbe dac7 aebe
00000180: d1cf 36bf 5aa0 9bbd 5fde cb3e 20d5 5c3f
00000190: b7c5 13bf adfb 253d d132 11bf 6599 babe
000001a0: a22c 663e 2e21 b7bd e9cf b63e 98ec 51be
000001b0: ca9a c73e f52d 253e 4138 f1bd 1c43 5c3e
000001c0: bef5 903d dd78 adbd 8cfa 2cbf 9dbb afbb
000001d0: aa23 043f 32f2 0abe df6b 733e af2d c33f
000001e0: 3c87 bbbd ced0 84bf 9d90 adbc 8ee7 413d
000001f0: 8d72 88be 061f 26bf 6219 37bf f0cb b4be
00000200: 2fe6 78bd 1485 1c40 b2de b1be 0ac3 7dbe
00000210: 2d8f 36bf e18b ba3e 9952 173f c88e 2ebf
00000220: e8b2 09bf 319e 0ebf 69d4 11bd 2a49 a33f
00000230: 8bd7 573e e9f6 083f 07a1 0cbd 4f44 c43d
00000240: d8bf 663e 9391 cdbe 7c1c 3e3e c803 283e
00000250: 8483 c7bd 638e 9cbf 51f8 1dbf 6f2c f13e
00000260: db93 5cbe 3005 9fbe 8fae aa3e fc39 113e
00000270: 6c7b 673e 2a8a 353d a16d aebc 68b6 20be
00000280: 5c64 dfbe d513 083d e018 eebe 218d a33c
00000290: a38b 9cbf 3a0a 62bf 16fa 1fbe eccd 2abe
000002a0: bb48 54be cb28 4b3f b1c4 743e a279 2a3f
000002b0: c02a 38be 1c66 68be 0a2f 013f 372c 9c3e
000002c0: e17e 013f dd07 8f3e b3e7 c53e dfe9 f63f
000002d0: d220 333f 2dca d0be 91b2 debd cb66 fe3e
000002e0: ee3c 69be e12c 5c3e ea73 be3e bdd8 54bf
000002f0: 45de 5c3e dea4 823f 8547 e53e d3b2 2fbe
00000300: 4afe ac3e e3a9 fcbd e697 fcbd 1c72 243e
00000310: a1af 0dbf f007 56be 8f23 673e 68d5 e4be
00000320: 43c2 f83e fe53 1dbd 22a9 383f 6039 343f
00000330: cfc9 92bd 6540 81bd 0475 8bbe aa2a 14bf
00000340: 56a4 28be 3968 0abd ba72 31bf 40fd 16bf
00000350: e675 8e3e 0809 2dbd 8d10 11bf 1100 e2be
00000360: 8d5f c23e fa30 01bf 304f 16bf 9363 6cbf
00000370: 7274 873e 20d0 6e3e ab9d 213e 222f 753a
00000380: 6d62 28bf 1f9f edbd aa85 5b3f 3b34 ed3e
00000390: 5eda bb3e 6886 06bf 6d87 87be 6e5e 413f
000003a0: 69a5 2cbe 0fab fcbe a4b3 033f deaf bcbd
000003b0: 3088 ae3d 7678 203e c3b4 51be bc1b c3be
000003c0: 5f2a 48be 85a0 96bd ab11 4abe 54a4 e53c
000003d0: 2801 fa3e 060e e7bb 6788 133f 1199 45be
000003e0: 32c8 713d d509 af3e 7629 d93b c970 c73e
000003f0: de2b 10be 9934 20be 6b9a 42bf 7dc3 d13e

invertible_encoder.bijectors.1.net.0.bias f4 [256]
-0.009923487 -0.010969123 -0.040410165 0.03509567 -0.05624795 0.0011708633 -0.037709977 -0.009556826
0.018652704 -0.069664806 -0.043653253 -0.003812447 0.008190173 -0.015907718 0.0057805255 -0.040665507
-0.0006714114 -0.03474028 -0.0132347 0.09540612 0.015219047 0.0024330618 -0.029022826 0.005292219
-0.13132589 0.14716037 0.01902469 -0.047857214 0.18256444 -0.039974675 -0.047287308 0.016174901
0.022426097 0.0011987519 -0.06901964 0.03391516 -0.07784052 -0.057381134 -0.026418818 -0.028970636
-0.115386866 -0.039696455 0.035873853 -0.05918905 0.03807654 0.028066317 0.017878618 0.0140718175
0.041759916 -0.033369012 -0.004555529 0.03506708 0.04760282 0.008951169 0.011250342 0.03291623
-0.032376114 -0.07409891 -0.03984866 -0.06007529 -0.036105182 0.007899666 -0.019950572 0.037907757
-0.023300912 0.010277369 -0.023404483 -0.10278512 0.010215055 -0.0059392275 0.050588563 -0.03448809
-0.019832136 0.027087362 0.034652244 -0.060929306 -0.045150843 0.004248721 -0.016196607 0.046642378
-0.05404814 -0.052829817 0.090899654 -0.04275529 0.014495461 -0.043185517 -0.06399255 -0.023032138
-0.044895988 -0.017928533 -0.07887665 0.002677723 -0.10312597 -0.090372115 -0.02243928 -0.015420591
0.012351923 -0.013622718 0.021547092 -0.063100226 0.022952696 0.060524143 -0.1377264 -0.14844982
0.034728732 -0.045950986 -0.0037310477 0.0016984161 0.034930546 0.034938775 -0.050105628 -0.01235915
-0.00037872803 0.014983085 -0.06984507 0.03777725 -0.0011255357 -0.002958611 -0.05288084 -0.053467773
-0.053233683 -0.02248933 -0.07372146 -0.0938344 -0.072917596 0.037834927 -0.032227 0.011928902
0.016513934 0.030783702 -0.011165192 -0.031667512 -0.03785946 -0.038534507 0.026909554 0.014740728
-0.034109518 -0.05348531 -0.0018776861 0.011355014 0.0068149636 0.019152202 -0.08721826 -0.013293346
-0.07569617 0.032181226 -0.08494257 0.044275474 0.030706644 -0.004136879 0.007603274 0.018023381
-0.05967212 -0.0543168 -0.011865849 -0.054932863 -0.06861719 -0.13160583 0.17812033 0.013483828
-0.008250385 0.015974088 -0.06615797 -0.07252909 -0.09815264 0.014703447 -0.008675502 0.054458413
0.017201545 -0.07662905 0.027405487 0.031014094 0.009735549 0.009308964 0.03367891 0.014412483
0.03194098 -0.12850556 0.016492171 0.034074944 -0.013739939 0.016418748 -0.010768466 0.05757297
-0.034602493 -0.029409435 -0.08081661 -0.06275754 0.004602272 0.017282657 0.0062776236 -0.08389545
0.0074561792 0.026640013 -0.047397193 0.046851546 0.061612025 -0.07542986 -0.08594545 -0.0041294103
0.01648576 -0.08910879 -0.004649631 0.032701276 -0.008098933 -0.045125544 -0.069521755 0.024965962
0.029288694 -0.02274778 -0.022948107 -0.009223496 -0.03181353 -0.016816817 -0.008647249 -0.036983326
-0.01475718 0.0228407 -0.00358558 -0.05186716 -0.0054285363 -0.003956662 -0.04047895 -0.059711397
-0.029062128 -0.054807372 -0.09978689 -0.02606571 -0.0122756995 -0.062376093 -0.032158066 0.012354938
0.026372928 0.006435075 0.013125967 0.0030766097 0.020654568 -0.019115364 -0.04331982 -2.8650871e-05
0.0198322 -0.030832589 -0.06681907 0.040074635 -0.0035504333 -0.03220219 -0.024761776 0.052796155
-0.10759984 0.049702674 0.016499385 -0.043516815 -0.039738607 0.008577128 0.023038428 -0.020212067
00000000: 1f96 22bc d6b7 33bc 2185 25bd 7ac0 0f3d
00000010: 4064 66bd a777 993a c775 1abd 3c94 1cbc
00000020: 8ecd 983c 6cac 8ebd c1cd 32bd 3fda 79bb
00000030: 1330 063c e750 82bc 906a bd3b e090 26bd
00000040: a801 30ba d34b 0ebd 5bd6 58bc 4964 c33d
00000050: 4f59 793c 0174 1f3b 47c1 edbc 5a6a ad3b
00000060: 4b7a 06be 35b1 163e abd9 9b3c ed05 44bd
00000070: 2cf2 3a3e 7cbc 23bd 56b0 41bd 3a81 843c
00000080: efb6 b73c 701f 9d3a 2b5a 8dbd 9fea 0a3d
00000090: da6a 9fbd 7b08 6bbd 476c d8bc d453 edbc
000000a0: f34f ecbd c098 22bd 76f0 123d 3870 72bd
000000b0: 25f6 1b3d 55eb e53c 2e76 923c 7b8d 663c
000000c0: 720c 2b3d f2ad 08bd 8c46 95bb 80a2 0f3d
000000d0: 2dfb 423d eda7 123c 5b53 383c 2bd3 063d
000000e0: d19c 04bd 2bc1 97bd 5938 23bd 8211 76bd
000000f0: 07e3 13bd 9a6d 013c 626f a3bc 2a45 1b3d
00000100: 8ee1 bebc 6962 283c c2ba bfbc 0181 d2bd
00000110: 0c5d 273c da9d c2bb f435 4f3d 6243 0dbd
00000120: 0177 a2bc 51e6 dd3c 83ef 0d3d 0291 79bd
00000130: 17f0 38bd db38 8b3b bfae 84bc 140c 3f3d
00000140: 9561 5dbd 1464 58bd 9929 ba3d 2c20 2fbd
00000150: 5f7e 6d3c 4ce3 30bd 870e 83bd e5ad bcbc
00000160: dbe4 37bd dcde 92bc 158a a1bd bd7c 2f3b
00000170: b533 d3bd 0415 b9bd 95d2 b7bc a6a6 7cbc
00000180: b85f 4a3c d231 5fbc 8783 b03c b13a 81bd
00000190: 4b07 bc3c 2ae8 773d 2608 0dbe 3b03 18be
000001a0: b73f 0e3d 1a37 3cbd 9884 74bb 639d de3a
000001b0: 5513 0f3d f61b 0f3d 8f3b 4dbd 087e 4abc
000001c0: 0490 c6b9 9d7b 753c ef0a 8fbd 51bc 1a3d
000001d0: b686 93ba 41e5 41bb 9499 58bd 0601 5bbd
000001e0: 900b 5abd 8b3b b8bc 47fb 96bd 402c c0bd
000001f0: d255 95bd ccf8 1a3d 7500 04bd 7171 433c
00000200: 3b48 873c 1a2e fc3c 36ee 36bc cbb5 01bd
00000210: 8512 1bbd 5cd6 1dbd 6d71 dc3c 1883 713c
00000220: 6cb6 0bbd 6a13 5bbd b11c f6ba 610a 3a3c
00000230: 0f50 df3b 14e5 9c3c 7d9f b2bd 56cc 59bc
00000240: 9806 9bbd 76d0 033d 5ff6 adbd 335a 353d
00000250: 808c fb3c a88e 87bb e324 f93b c5a5 933c
00000260: c16a 74bd 4b7b 5ebd fa68 42bc 4801 61bd
00000270: 2b87 8cbd aec3 06be 2d65 363e 46eb 5c3c
00000280: 9f2c 07bc 17dc 823c d47d 87bd 228a 94bd
00000290: 4004 c9bd bae6 703c b123 0ebc c90f 5f3d
000002a0: 41ea 8c3c b1ef 9cbd 7981 e03c 4511 fe3c
000002b0: da81 1f3c a084 183c e6f2 093d 5622 6c3c
000002c0: 8cd4 023d f696 03be 971a 873c 2b92 0b3d
000002d0: 7b1d 61bc 9c80 863c 386e 30bc a2d1 6b3d
000002e0: 58bb 0dbd 0eec f0bc 2e83 a5bd 0687 80bd
000002f0: a8ce 963b 5c94 8d3c 86b4 cd3b 61d1 abbd
00000300: f752 f43b 283c da3c 8f23 42bd 68e7 3f3d
00000310: e45c 7c3d f87a 9abd 2b04 b0bd 0150 87bb
00000320: 250d 873c ab7e b6bd ef5b 98bb c6f1 053d
00000330: 63b1 04bc 90d5 38bd 6c61 8ebd 6b85 cc3c
00000340: d8ee ef3c 8d59 babc abfd bbbc 251e 17bc
00000350: e74e 02bd 6cc3 89bc 31ad 0dbc d47b 17bd
00000360: 19c8 71bc 6b1c bb3c 0dfc 6abb a972 54bd
00000370: dde1 b1bb e3a6 81bb 41cd 25bd f093 74bd
00000380: b313 eebc b27d 60bd 125d ccbd c187 d5bc
00000390: 0420 49bc 137e 7fbd 2db8 03bd 5e6c 4a3c
000003a0: 0a0c d83c 52dd d23b 4c0e 573c f2a0 493b
000003b0: c533 a93c d397 9cbc 2070 31bd 4757 f0b7
000003c0: 2377 a23c a094 fcbc 70d8 88bd 4d25 243d
000003d0: 63ae 68bb 72e6 03bd 35d9 cabc c840 583d
000003e0: 4e5d dcbd 0895 4b3d b829 873c b03e 32bd
000003f0: f3c4 22bd 1587 0c3c 16bb bc3c c793 a5bc

invertible_encoder.bijectors.1.net.2.weight f4 [10, 256]
0.07198542 0.045051537 0.12139195 -0.0042202915 -0.008447915 -0.018984344 -0.041133877 -0.022756696
-0.055297773 0.15490535 0.013682826 0.013547634 0.022555204 0.074132144 -0.05318275 0.039003234
-0.0036533568 -0.030604653 -0.023352455 -0.040550906 -0.08346673 0.028808985 0.14674954 0.087226994
0.037044615 -0.0061765458 0.045221448 -0.088214934 -0.09656576 0.065235525 0.034176525 -0.025475267
-0.024131933 -0.04655864 -0.10613524 -0.033280317 0.102251604 -0.019699305 -0.12278144 0.052289337
0.01941352 -0.055653024 -0.043729946 0.033181395 -0.15536569 -0.061685685 -0.05896596 -0.02725149
0.0171804 0.030356238 -0.033079877 0.058571175 0.016427752 0.033606768 0.0066913064 0.094219744
0.0043552965 -0.038268942 -0.016280383 0.050851565 0.06507498 -0.0010238383 -0.031568393 -0.105822966
0.029694315 -0.06857426 0.026022922 0.010898633 0.0047091558 0.034399316 -0.006050218 0.018692298
-0.048180774 -0.03347744 -0.080754906 -0.3320553 -0.11697532 0.00665467 0.022764191 0.42865533
-0.23255825 -0.030263245 -0.018569544 0.01479457 0.066235125 -0.17046472 -0.10982911 0.1154051
-0.11171872 0.009623357 0.039292917 0.33245793 0.019980226 -0.15266182 0.068514384 -0.025663016
-0.07705414 -0.045306012 0.07018859 0.11792791 0.039908487 -0.02412378 0.03811991 0.005490927
0.17643456 0.0029410936 -0.15717605 -0.005847482 -0.020054115 0.08574454 0.07872991 0.040317275
0.0028422105 0.12118269 0.062378857 -0.0813066 0.019635167 0.08098527 -0.14223945 0.17751817
-0.056200672 0.026604453 0.009349086 -0.1334967 0.04020576 0.0054647755 0.19201294 0.022153936
0.05511684 0.5095985 0.020211304 -0.013364952 0.15043701 0.04265128 0.029975304 0.011221647
-0.0660912 -0.0112301465 0.1296508 0.062117286 -0.1264822 -0.0025265547 -0.011019858 -0.20414908
0.045301396 -0.07437268 0.126382 0.011798519 -0.010442514 -0.13416173 -0.04690189 0.11168903
0.034280032 0.18788788 -0.13072102 -0.081791945 -0.032030657 0.020029293 -0.06635652 -0.102827236
0.06553364 -0.038300414 0.037780233 0.042156763 -0.0699602 -0.02316548 0.06150795 0.1443915
-0.017065333 -0.036288057 -0.05804144 0.011147334 -0.011944212 -0.0044177356 -0.26445284 -0.30528206
-0.06433647 0.06316802 -0.04175598 -0.03541844 0.015227894 0.017273908 -0.086314134 0.0018349385
0.008075755 0.023912521 0.056569625 -0.0052448767 -0.09363718 0.0009399972 -0.1667529 -0.16163176
-0.17226821 0.011900012 0.007871469 0.06699409 0.103140436 -0.0026944603 -0.043411635 0.17006448
0.030823225 0.13534729 -0.026342064 0.012695356 -0.15299365 -0.06390394 0.027952727 -0.018384993
-0.030763166 -0.1485744 0.050879907 -0.0853264 0.096946925 0.057260446 -0.17967683 -0.012594671
-0.16804585 -0.039335065 0.032632016 0.064660266 -0.028496262 -0.114819504 -0.049333178 0.2832369
-0.004401752 0.00087611075 0.03142416 -0.05130765 -0.026812866 0.08157716 -0.0433665 -0.048557013
-0.030553851 -0.04589529 -0.05522974 -0.16530848 -0.058006227 -0.056477517 -0.00921256 -0.02276705
0.028751533 -0.004371858 -0.020700723 0.14624602 0.27755955 0.027653083 0.001225859 -0.035000354
0.09418126 -0.041840523 0.0060157934 -0.057572454 0.056887 -0.11885032 0.18102543 0.0141031
00000000: 186d 933d f687 383d 589c f83d 5f4a 8abb
00000010: 2069 0abc 0e85 9bbc ff7b 28bd 406c babc
00000020: eb7f 62bd 829f 1e3e ef2d 603c e5f6 5d3c
00000030: b1c5 b83c 98d2 973d 28d6 59bd dbc1 1f3d
00000040: 286d 6fbb 9cb6 fabc a64d bfbc b518 26bd
00000050: 9bf0 aabd d200 ec3c 8345 163e 11a4 b23d
00000060: 18bc 173d 9f64 cabb 203a 393d 08aa b4bd
00000070: 45c4 c5bd 349a 853d affc 0b3d 82b1 d0bc
00000080: 55b0 c5bc 46b4 3ebd 6f5d d9bd f150 08bd
00000090: 4a69 d13d 7060 a1bc d674 fbbd 582d 563d
000000a0: 1a09 9f3c 6df4 63bd 2c1e 33bd 37e9 073d
000000b0: 2f18 1fbe 21aa 7cbd 4a86 71bd 843e dfbc
000000c0: e9bd 8c3c a5ad f83c c47e 07bd 54e8 6f3d
000000d0: 7e93 863c 40a7 093d bf42 db3b 48f6 c03d
000000e0: e0b6 8e3b e5bf 1cbd 705e 85bc bb49 503d
000000f0: 0846 853d 5032 86ba dc4d 01bd b6b9 d8bd
00000100: 7e41 f33c a970 8cbd 062e d53c 2e90 323c
00000110: 434f 9a3b 4ce6 0c3d e840 c6bb 9720 993c
00000120: 3459 45bd a41f 09bd d462 a5bd 2703 aabe
00000130: c290 efbd 6b0f da3b f87b ba3c b678 db3e
00000140: c023 6ebe a0ea f7bc 281f 98bc ed64 723c
00000150: 48a6 873d 4e8e 2ebe 16ee e0bd 8259 ec3d
00000160: c9cc e4bd 49ab 1d3c 9cf1 203d ed37 aa3e
00000170: 92ad a33c 6153 1cbe 4551 8c3d 3f3b d2bc
00000180: 90ce 9dbd cc92 39bd 09bf 8f3d 3084 f13d
00000190: 1577 233d 3c9f c5bc 9f23 1c3d 3ced b33b
000001a0: 43ab 343e 5dbf 403b c2f2 20be 3c9c bfbb
000001b0: 8748 a4bc d59a af3d 263d a13d ba23 253d
000001c0: 6144 3a3b a12e f83d f980 7f3d 1384 a6bd
000001d0: eed9 a03c 9bdb a53d 38a7 11be 53c7 353e
000001e0: ad32 66bd 95f1 d93c e92c 193c 5cb3 08be
000001f0: ccae 243d dc11 b33b 0a9f 443e 2c7c b53c
00000200: 32c2 613d 0c75 023f 2d92 a53c acf8 5abc
00000210: 290c 1a3e 1cb3 2e3d c58e f53c 00db 373c
00000220: d35a 87bd a6fe 37bc 2ec3 043e b26e 7e3d
00000230: 8d84 01be 8e94 25bb a28c 34bc 750c 51be
00000240: f58d 393d b450 98bd 486a 013e 934e 413c
00000250: 1417 2bbc b161 09be 321c 40bd 38bd e43d
00000260: 3869 0c3d ae65 403e bbdb 05be 8982 a7bd
00000270: 9432 03bd 7914 a43c ede5 87bd 1697 d2bd
00000280: 8036 863d e5e0 1cbd 72bf 1a3d 92ac 2c3d
00000290: 4b47 8fbd 88c5 bdbc c3ef 7b3d 5edb 133e
000002a0: 99cc 8bbc c9a2 14bd dcbc 6dbd 4fa3 363c
000002b0: a8b1 43bc a7c2 90bb 5d66 87be ee4d 9cbe
000002c0: d7c2 83bd 3c5e 813d 5208 2bbd ed12 11bd
000002d0: 6b7e 793c 0382 8d3c 77c5 b0bd 5282 f03a
000002e0: 2c50 043c 31e4 c33c 8db5 673d 37dd abbb
000002f0: dac4 bfbd 256a 763a 46c1 2abe cc82 25be
00000300: 1467 30be 45f8 423c 55f7 003c 3334 893d
00000310: 4b3b d33d 8b95 30bb 66d0 31bd 6225 2e3e
00000320: fd80 fc3c 7b98 0a3e 50cb d7bc 2f00 503c
00000330: 5eaa 1cbe 12e0 82bd 1efd e43c 209c 96bc
00000340: 0903 fcbc e323 18be 7367 503d 9cbf aebd
00000350: 1c8c c63d ee89 6a3d 34fd 37be e159 4ebc
00000360: 3614 2cbe ce1d 21bd 26a9 053d 9a6c 843d
00000370: fe70 e9bc 7d26 ebbd 9611 4abd 6d04 913e
00000380: 923c 90bb ccaa 653a 9fb6 003d f827 52bd
00000390: a8a6 dbbc ed11 a73d 12a1 31bd b8e3 46bd
000003a0: 124c fabc b3fc 3bbd 9438 62bd a046 29be
000003b0: f097 6dbd f854 67bd 47f0 16bc f781 babc
000003c0: 5688 eb3c ce41 8fbb 9094 a9bc 84c1 153e
000003d0: 491c 8e3e b888 e23c 01ad a03a 885c 0fbd
000003e0: 1be2 c03d f860 2bbd 2220 c53b 18d1 6bbd
000003f0: 5802 693d cc67 f3bd bb5e 393e b010 673c

invertible_encoder.bijectors.1.net.2.bias f4 [10]
0.0039360765 0.0069595776 -0.021784663 -0.15992516 -0.05916836 -0.144762 -0.13709642 -0.1529785
-0.078387976 -0.094382815
00000000: 34fa 803b 2b0d e43b c075 b2bc 6cc3 23be
00000010: 865a 72bd 7d3c 14be 0163 0cbe 65a6 1cbe
00000020: e089 a0bd c74b c1bd

invertible_encoder.bijectors.2.net.0.weight f4 [256, 10]
-0.67569387 0.3153109 -0.0643182 0.23493786 -0.054533917 0.12695837 -0.23487368 -0.0494435
-0.4779531 -0.099193916 0.032372408 -0.17314227 0.18274601 -0.23461157 0.30891958 0.20034298
-0.3586165 0.3022019 0.4220427 -0.90042365 0.25507608 0.029088652 0.2380369 -0.42514533
-0.7251647 0.20439562 0.031668838 -0.43814066 -0.029199932 0.1947258 -0.018064363 0.3158562
-0.34643388 0.543488 -0.6843289 0.002828902 0.04289704 -0.42745832 0.045641858 0.31629813
0.33645684 0.47302324 -0.9167661 0.17164978 -0.24836613 0.23740071 0.16859318 -0.17718999
-0.07279817 0.43286282 0.047688063 0.43774912 -0.16626306 -0.15599789 -0.25845176 -0.00043064068
-0.0586859 0.08811824 -0.4690308 0.512494 0.6748134 0.4587427 -0.3334618 -0.068361044
-0.42117766 -0.31822935 0.13757735 0.14312914 -0.37134838 0.45514846 -0.44077834 0.465795
0.2908454 -0.029030545 0.8382302 0.49632606 -0.53758526 0.19803317 -0.43663263 0.34592327
-0.13252915 -0.29938588 -0.32375103 0.08511104 0.015340689 -0.0869323 0.2772769 -0.29551637
-0.18427557 0.19274624 -1.0581228 -0.50803035 -0.46596834 0.08778387 -0.7765663 -0.11314687
0.46473303 -0.0054179817 0.4198479 -0.32291445 -0.20680523 0.03859389 0.018740758 0.027156187
0.14445318 -0.15744562 0.120053664 -0.02088241 0.10253927 -0.17939293 0.3126095 0.09098621
0.2312869 0.27415085 -0.45854887 -0.23328455 -0.012633131 -0.23577173 0.042197473 -0.100133
-0.19983612 0.1179596 -0.07884845 -0.101843596 0.16252206 0.25689504 -0.17779604 -0.56543064
0.12107909 0.07917364 -0.23326914 -0.27928242 -0.17495072 -0.01821315 0.22376315 -0.24452971
-0.04761432 0.5232554 0.37809232 -0.44809672 -0.4217298 -0.6922584 0.008470985 0.027472612
0.68495274 -0.10818504 0.24324761 0.39159516 -0.081273496 0.10366554 0.3566706 0.22892918
-0.14512119 0.03792924 -0.19559698 0.27583957 0.06547636 0.12014497 -0.6169278 -0.052683193
0.39398697 -0.56634766 0.28672677 -0.030740865 0.48437187 0.32016307 0.21240833 -0.051168483
0.07117255 0.08693448 -0.95976037 0.7088243 0.07078557 -0.03058094 0.65147847 0.42284688
-0.25806728 -0.004710991 -0.20869039 0.046474937 0.30666465 0.2957999 0.07653239 -0.21062249
0.44001523 0.29106298 -0.18725899 -0.39314696 0.11256175 0.10932939 0.13230744 0.017149715
-0.08650919 -0.09978766 -0.021192737 -0.2145923 0.13574252 -0.122685455 -0.45985085 0.14453326
-0.47812948 0.0022249043 -0.47475615 0.012608156 0.7361883 -0.035360437 -0.20386279 0.33062837
0.009569802 -0.47549203 -0.39268383 -0.2826232 0.10747408 0.21215133 0.3781279 -0.33830905
0.1206856 -0.30395836 -0.29206774 0.42116934 -0.4505943 -0.3688403 -0.18564762 0.0884158
0.2522657 0.5493075 -0.6924555 0.029665593 -0.30499282 0.34678307 -0.443493 0.4579486
-0.39012706 -0.7365703 0.32319325 0.09301964 0.34420243 -0.10945701 0.3447438 -0.002277806
-0.9244634 -0.22811085 -0.18200414 0.24927758 0.7960173 0.04506459 -0.1776584 0.27134436
0.1358148 -0.8197911 0.46049973 0.44784775 -0.08032753 -0.11024918 -0.38486373 0.33640382
00000000: 46fa 2cbf 6e70 a13e 43b9 83bd 8d93 703e
00000010: f55e 5fbd 6001 023e ba82 70be 4485 4abd
00000020: 45b6 f4be 2e26 cbbd ee98 043d 354c 31be
00000030: c521 3b3e 043e 70be b52a 9e3e b626 4d3e
00000040: 959c b7be 35ba 9a3e fb15 d83e 2a82 66bf
00000050: 5599 823e 534b ee3c f2bf 733e a6ac d9be
00000060: 65a4 39bf 164d 513e 2fb7 013d f953 e0be
00000070: b234 efbc 3366 473e b7fb 93bc e7b7 a13e
00000080: c85f b1be 0822 0b3f 2e30 2fbf 1a65 393b
00000090: ceb4 2f3d d1db dabe f5f2 3a3d d4f1 a13e
000000a0: 1244 ac3e 1a30 f23e 2fb1 6abf f6c4 2f3e
000000b0: b153 7ebe 2c19 733e b1a3 2c3e 4b71 35be
000000c0: 3517 95bd 32a0 dd3e 8f54 433d a720 e03e
000000d0: dd40 2abe e9bd 1fbe ca53 84be 9dc7 e1b9
000000e0: a060 70bd 5677 b43d ce24 f0be cf32 033f
000000f0: 92c0 2c3f 53e0 ea3e 81bb aabe e000 8cbd
00000100: 99a4 d7be f5ee a2be 14e1 0c3e 7290 123e
00000110: 6021 bebe 3809 e93e b3ad e1be af7c ee3e
00000120: b0e9 943e 77d1 edbc 4196 563f 731e fe3e
00000130: 309f 09bf 35c9 4a3e 508e dfbe db1c b13e
00000140: b9b5 07be 1b49 99be b2c2 a5be b24e ae3d
00000150: 8357 7b3c 9009 b2bd 3df7 8d3e ec4d 97be
00000160: bcb2 3cbe 455f 453e 9170 87bf 470e 02bf
00000170: 6793 eebe 08c8 b33d 0dcd 46bf 8cb9 e7bd
00000180: 7df1 ed3e 5389 b1bb 4ef6 d63e 0b55 a5be
00000190: c0c4 53be a014 1e3d 3886 993c a776 de3c
000001a0: 89eb 133e 6d39 21be b2de f53d 9711 abbc
000001b0: 1c00 d23d c8b2 37be 5a0e a03e fa56 ba3d
000001c0: 79d6 6c3e 805d 8c3e ebc6 eabe 25e2 6ebe
000001d0: 31fb 4ebc 256e 71be 42d7 2c3d 8812 cdbd
000001e0: d7a1 4cbe ce94 f13d 4c7b a1bd 6093 d0bd
000001f0: 2f6c 263e bf87 833e 2a10 36be 10c0 10bf
00000200: 50f8 f73d ca25 a23d 1bde 6ebe 1bfe 8ebe
00000210: 4826 33be be33 95bc 2b22 653e ff65 7abe
00000220: 3c07 43bd 11f4 053f 5195 c13e ef6c e5be
00000230: f8ec d7be d937 31bf e3c9 0a3c 3e0e e13c
00000240: 1059 2f3f 1e90 ddbd e715 793e 297f c83e
00000250: b872 a6bd 994e d43d 879d b63e 696c 6a3e
00000260: a69a 14be b15b 1b3d 934a 48be d83a 8d3e
00000270: 7818 863d 910e f63d fbee 1dbf 55ca 57bd
00000280: a9b8 c93e 29fc 10bf dacd 923e 44d4 fbbc
00000290: 97ff f73e 6aec a33e 9281 593e 0b96 51bd
000002a0: eac2 913d b40a b23d dbb2 75bf 8275 353f
000002b0: 06f8 903d e184 fabc 4bc7 263f 637f d83e
000002c0: 6521 84be a85e 9abb efb2 55be 815c 3e3d
000002d0: 2603 9d3e 1673 973e 04bd 9c3d 6cad 57be
000002e0: ad49 e13e 3506 953e d2c0 3fbe 8f4a c9be
000002f0: c686 e63d 16e8 df3d 9a7b 073e 8f7d 8c3c
00000300: bb2b b1bd 795d ccbd 649c adbc 15be 5bbe
00000310: 1600 0b3e 8342 fbbd 9271 ebbe 8700 143e
00000320: 63cd f4be b3cf 113b 3d13 f3be 7092 4e3c
00000330: d676 3c3f 1bd6 10bd 68c1 50be 1f48 a93e
00000340: a9ca 1c3c b173 f3be db0d c9be fdb3 90be
00000350: 5f1b dc3d 333e 593e fb99 c13e d836 adbe
00000360: 032a f73d 6ea0 9bbe e789 95be 82a3 d73e
00000370: 4cb4 e6be a3d8 bcbe 691a 3ebe 5813 b53d
00000380: f828 813e 6b9f 0c3f c344 31bf 4205 f33c
00000390: 0528 9cbe 8d8d b13e 8411 e3be 3d78 ea3e
000003a0: bcbe c7be df8f 3cbf 9679 a53e 1581 be3d
000003b0: 4d3b b03e ff2a e0bd 4282 b03e 3e47 15bb
000003c0: a2a9 6cbf e495 69be 4b5f 3abe 9f42 7f3e
000003d0: cac7 4b3f a695 383d 15ec 35be a6ed 8a3e
000003e0: 0913 0b3e d4dd 51bf 9fc6 eb3e 4d4c e53e
000003f0: c382 a4bd 52ca e1bd dc0c c5be 1f3d ac3e
