Sentinel_model_weights/IKAE/best_model_3.pt (torch, 138638 bytes, 24 tensors)

invertible_encoder.bijectors.0.net.0.weight f4 [256, 10]
-0.16647384 -0.30630708 -0.06589794 -0.23140773 0.02757039 -0.31396294 0.21292923 0.21621393
-0.04746723 0.14640749 0.3116694 0.365809 -0.37469456 -0.14326411 -0.4174199 -0.13606034
-0.3510499 0.23659074 0.41933537 0.20046622 0.44536853 -0.61779356 0.3498678 -0.0068125897
-0.12282037 -0.062186956 -0.06541047 0.21682909 -0.26747134 -0.5391577 -0.04017998 0.24754871
-0.15224887 -0.083436884 -0.20897618 0.04028213 0.1291706 -0.13406627 -0.08106489 0.1698023
-0.14191356 -0.21480495 -0.048342492 -0.076609254 0.22307438 0.11071919 -0.031540483 0.113861635
-0.0778728 0.27791682 0.11564027 -0.18425508 -0.011660337 0.10914629 0.27130088 -0.057398893
-0.2712762 0.13399819 0.09842847 -0.17207737 0.6370845 0.28116134 -0.12861012 -0.0686596
-0.36181444 -0.14151241 0.06090878 -0.3881934 0.21870255 0.28692514 -0.12752815 0.06387379
-0.2716246 -0.12778093 0.0034127603 -0.028932355 -0.11268606 0.1291562 -0.03514499 0.105899006
-0.3284589 -0.106120765 -0.12452279 0.13749209 0.44845322 -0.24962853 0.15698646 -0.19765908
-0.09539975 -0.11924873 0.18059254 0.24401891 -0.2093338 0.27217257 0.18001685 0.020316701
-0.35014507 0.06881801 -0.06443383 -0.30494606 -0.3783698 0.08143866 -0.11181046 -0.056501843
0.16277017 -0.11547549 -0.091371655 -0.119843155 0.28461137 -0.40248278 0.15681665 0.015802018
-0.42256504 -0.31178042 -0.30699044 -0.31168357 0.24764462 0.21068048 -0.119592875 0.3330796
0.2639945 -0.22270516 -0.2463343 -0.15939869 -0.13631167 -0.10419384 0.11541043 0.028396042
0.015913831 0.09943313 0.7528351 0.40268734 0.36453018 -0.098015994 -0.16933174 -0.007724585
0.05725536 0.12449474 -0.38887793 -0.0514478 0.045468137 0.29477766 -0.18582554 0.007997351
-0.23116255 0.15335122 0.18484318 -0.48410568 0.22688146 0.41277677 -0.27450904 0.34389743
-0.09482803 0.19039902 0.28389114 -0.41469604 0.13270347 -0.101318434 0.05460135 -0.20490809
-0.29365078 0.19114529 0.20862088 0.044086397 -0.360628 -0.32203823 0.14869854 -0.062349632
0.040724114 -0.08059822 -0.14407265 0.20013309 -0.40843228 -0.0016907055 0.119282596 0.043832183
-0.24109074 0.13658556 0.2755706 -0.629522 0.65124995 0.07355657 0.26487187 0.14499065
0.28352326 0.062621094 0.033707518 0.16393666 -0.43118876 -0.15180823 0.5197936 -0.38247082
-0.25426006 -0.00076038885 0.28667757 0.0834463 -0.04825387 0.03968825 -0.17761561 0.41150847
-0.39581218 0.14892228 -0.025768815 0.21853411 0.2995697 -0.2077133 0.13571392 -0.32474887
0.22534569 -0.25569144 -0.31608546 -0.19210376 0.36656347 0.102043375 -0.20722008 -0.193025
0.045790825 -0.039906077 -0.036229867 0.068544306 -0.3989999 -0.47276413 -0.069796816 0.18760403
0.18086645 0.03639994 -0.067372546 0.09924273 0.2833345 -0.5742644 -0.23392276 0.23707461
0.08047578 0.26438403 0.078875735 0.22062656 -0.4192272 -0.06338391 -0.1274864 -0.06365946
-0.005527641 0.10158889 -0.453312 -0.16272238 -0.053776998 0.15208858 0.014263489 0.09918659
-0.21186261 -0.01459644 0.19488117 0.10275135 0.023609307 -0.37526378 -0.19071348 -0.28361872
00000000: 1e78 2abe 48d4 9cbe 80f5 86bd 26f6 6cbe
00000010: 4cdb e13c c0bf a0be 1f0a 5a3e 2f67 5d3e
00000020: 006d 42bd d8eb 153e 2293 9f3e 514b bb3e
00000030: f7d7 bfbe d4b3 12be 10b8 d5be 6753 0bbe
00000040: d0bc b3be d844 723e 20b3 d63e 0447 4d3e
00000050: 5807 e43e b827 1ebf df21 b33e 253c dfbb
00000060: 3f89 fbbd c0b7 7ebd edf5 85bd 7208 5e3e
00000070: 01f2 88be 3d06 0abf c393 24bd 697d 7d3e
00000080: 21e7 1bbe f5e0 aabd dafd 55be e0fe 243d
00000090: 4c45 043e ab48 09be 5905 a6bd a7e0 2d3e
000000a0: ca51 11be d4f5 5bbe c702 46bd 50e5 9cbd
000000b0: 9c6d 643e bec0 e23d 9830 01bd 4a30 e93d
000000c0: c67b 9fbd 1d4b 8e3e ced4 ec3d 5dad 3cbe
000000d0: 000b 3fbc 1788 df3d f3e7 8a3e 1a1b 6bbd
000000e0: b7e4 8abe d236 093e de94 c93d 0d35 30be
000000f0: f817 233f 61f4 8f3e 5fb2 03be 689d 8cbd
00000100: be3f b9be a1e8 10be 7c7b 793d 49c1 c6be
00000110: 90f3 5f3e dae7 923e bd96 02be 43d0 823d
00000120: 6112 8bbe 01d9 02be 9ea8 5f3b 8c03 edbc
00000130: f3c7 e6bd 8641 043e 31f4 0fbd 94e1 d83d
00000140: c42b a8be d855 d9bd ce05 ffbd baca 0c3e
00000150: a99b e53e 9f9e 7fbe 0fc1 203e 2467 4abe
00000160: f260 c3bd ae38 f4bd 40ed 383e 18e0 793e
00000170: 9a5b 56be 345a 8b3e 5656 383e 366f a63c
00000180: 3746 b3be 75f0 8c3d e2f5 83bd e421 9cbe
00000190: b0b9 c1be 50c9 a63d e2fc e4bd 7a6e 67bd
000001a0: 39ad 263e 6a7e ecbd 1021 bbbd 5470 f5bd
000001b0: 95b8 913e 3912 cebe 8b94 203e 3c73 813c
000001c0: 725a d8be afa1 9fbe da2d 9dbe fd94 9fbe
000001d0: 8d96 7d3e a0bc 573e 1ced f4bd 6989 aa3e
000001e0: 492a 873e d20c 64be 0f3f 7cbe 6939 23be
000001f0: 4995 0bbe 9463 d5bd 4e5c ec3d d19e e83c
00000200: b95d 823c 99a3 cb3d cdb9 403f 092d ce3e
00000210: b3a3 ba3e 9cbc c8bd 4d65 2dbe 841e fdbb
00000220: 9984 6a3d 19f7 fe3d 021b c7be eeba 52bd
00000230: cc3c 3a3d 19ed 963e 0d49 3ebe 5207 033c
00000240: e0b5 6cbe 1a08 1d3e 8847 3d3e b3dc f7be
00000250: 9d53 683e 7a57 d33e 738c 8cbe 5313 b03e
00000260: 3335 c2bd f6f7 423e 2e5a 913e 0a53 d4be
00000270: 6be3 073e 0a80 cfbd aaa5 5f3d 6dd3 51be
00000280: 6559 96be 97bb 433e b6a0 553e f093 343d
00000290: 3ca4 b8be 32e2 a4be 6e44 183e 5462 7fbd
000002a0: 54ce 263d ae10 a5bd c887 13be b0ef 4c3e
000002b0: 091e d1be aa9a ddba 6f4a f43d 6089 333d
000002c0: 7ee0 76be 16dd 0b3e 9717 8d3e 5b28 21bf
000002d0: 51b8 263f d4a4 963d 499d 873e 6e78 143e
000002e0: f629 913e 7d3f 803d e510 0a3d 03df 273e
000002f0: c6c4 dcbe 9e73 1bbe 3211 053f 37d3 c3be
00000300: 602e 82be d554 47ba 67c7 923e e5e5 aa3d
00000310: daa5 45bd 2590 223d dee0 35be 3db1 d23e
00000320: e5a7 cabe 157f 183e 1f19 d3bc 68c7 5f3e
00000330: 3361 993e ccb2 54be 97f8 0a3e 7c45 a6be
00000340: 05c1 663e fde9 82be f4d5 a1be d9b6 44be
00000350: 35ae bb3e 1efc d03d 8031 54be 58a8 45be
00000360: 298f 3b3d 8e74 23bd c565 14bd f560 8c3d
00000370: b749 ccbe 240e f2be a2f1 8ebd 451b 403e
00000380: 0e35 393e 1a18 153d 9efa 89bd c63f cb3d
00000390: 3811 913e fe02 13bf 7389 6fbe b0c3 723e
000003a0: 7cd0 a43d 585d 873e 9a89 a13d eeeb 613e
000003b0: f3a4 d6be 6ccf 81bd cb8b 02be e45f 82bd
000003c0: 3721 b5bb d60d d03d 8318 e8be b2a0 26be
000003d0: 4545 5cbd 1cbd 1b3e 69b1 693c 5722 cb3d
000003e0: 83f2 58be e825 6fbc ee8e 473e 4d6f d23d
000003f0: 4e68 c13c 9322 c0be 654a 43be 7936 91be

invertible_encoder.bijectors.0.net.0.bias f4 [256]
-0.016356489 -0.07760617 0.036577154 -0.019651292 -0.1316704 -0.053337973 -0.014278095 -0.039477497
0.0042023375 -0.070830464 0.0422687 0.1471801 -0.025455572 -0.024375606 -0.15509607 -0.024195664
0.0123078395 0.022742536 -0.23890023 -0.042476308 -0.025313646 -0.00717013 -0.086027436 -0.066334076
0.016561333 -0.042673238 -0.010047182 0.0039093383 -0.005018571 -0.094734974 -0.013431651 -0.2803119
-0.094755776 -0.00593084 -0.030182196 -0.10205858 0.00054705655 -0.0127682015 -0.014392889 -0.052104834
0.015408296 -0.0146191185 -0.004245613 -0.014803715 0.013309858 -0.042652715 -0.016733713 0.0060618315
0.007977241 -0.0072187628 -0.005308046 0.10230565 0.14163704 0.012104258 -0.021970829 0.11685861
0.010541311 0.086963885 0.0008959116 -0.14815162 -0.007194049 0.011456787 -0.05075943 -0.023021221
-0.01609135 0.086886354 -0.0061360006 -0.15457812 -0.15656203 -0.027853997 0.045658402 -0.027028171
-0.018358098 -0.006601832 -0.030906145 -0.04316647 -0.027043438 0.01929637 0.00648925 -0.004432818
0.011792369 -0.040649325 -0.0059334147 0.03634771 -0.01991372 -0.034287505 -0.07710453 0.031677995
0.10039329 -0.0047922316 -0.0045820386 0.018101506 0.006405784 -0.008187294 -0.061331604 0.0007624233
-0.01598826 -0.19474557 0.0019124803 -0.009986292 -0.07311046 -0.23165807 0.0072516534 0.14984721
0.013421828 -0.015071529 -0.026037311 0.16852775 0.02799987 0.051595196 -0.009954195 0.0050261617
0.034367833 0.06866261 0.054637402 -0.18119802 0.011295774 -0.013038541 -0.18069689 -0.0106782345
0.035687707 0.01144732 -0.06350588 -0.06933127 -0.07224653 0.010059859 -0.038067248 -0.010278856
-0.09212534 -0.0036846867 -0.018810937 0.044323258 -0.046540022 -0.03231823 -0.09568264 0.029114649
-0.23500945 0.08956306 -0.17429236 0.15757845 0.03503752 -0.0042063957 -0.041536838 -0.008605482
-0.0048726285 0.10556534 -0.018411689 -0.06646972 -0.12142963 -0.024506627 -0.08025747 -0.041289616
-0.051172476 0.0015620447 -0.020395422 0.12499367 0.000848231 -0.059843298 -0.108957976 -0.029172825
-0.1942337 0.051991653 -0.06853587 -0.011982334 0.004129346 0.04910827 0.018227236 -0.005305641
-0.062621064 -0.019119073 -0.0016451592 -0.0120635005 -0.0681022 -0.11552854 -0.008323509 -0.19577347
-0.007516393 -0.0070243636 -0.10214809 -0.055274602 0.044234697 0.003888041 -0.15159379 -0.014707274
-0.0076757753 0.109731115 0.0017995213 -0.035684776 -0.08727989 -0.020261992 -0.016847238 -0.06915186
-0.0159557 0.02701796 -0.07198642 -0.0010375156 -0.11055669 -0.24380791 -0.21407709 -0.00075253565
-0.17877384 -0.06083324 0.022175627 -0.10350464 0.04690429 -0.14822488 -0.024207639 -0.090909526
-0.18816382 -0.010775107 -0.04866496 -0.001471249 0.05858235 -0.010225679 -0.01135165 -0.015425639
0.023896597 -0.21180102 -0.011784721 0.0067642014 -0.017872607 -0.09939703 -0.08817341 -0.0018825853
-0.03760954 0.011918854 -0.0011555082 -0.08553536 0.021804312 -0.028413871 -0.0019755964 0.13266854
0.042654697 -0.03720133 -0.010752828 0.044429198 -0.020514144 -0.21112816 -0.052038208 0.035851892
-0.09226336 0.040846094 -0.0067664413 -0.001112015 0.009425368 0.16003029 -0.1459968 0.0028294832
0.14267151 0.04008007 -0.04915523 0.062286954 0.032651864 -0.082093515 -0.0102738105 0.02950696
00000000: 0bfe 85bc fcef 9ebd edd1 153d bffb a0bc
00000010: 9bd4 06be eb78 5abd acee 69bc 28b3 21bd
00000020: c3b3 893b 900f 91bd f221 2d3d 61b6 163e
00000030: 3488 d0bc 5aaf c7bc 81d1 1ebe fc35 c6bc
00000040: d2a6 493c 8e4e ba3c 43a2 74be a3fb 2dbd
00000050: 905e cfbc 69f3 eabb 272f b0bd 29da 87bd
00000060: a2ab 873c 22ca 2ebd f09c 24bc e819 803b
00000070: d372 a4bb 6904 c2bd 6d10 5cbc 0b85 8fbe
00000080: 510f c2bd 7e57 c2bb a740 f7bc 1704 d1bd
00000090: 5868 0f3a b831 51bc 27d0 6bbc e16b 55bd
000000a0: 1473 7c3c 0785 6fbc c81e 8bbb 488b 72bc
000000b0: 9711 5a3c 9db4 2ebd 2415 89bc 54a2 c63b
000000c0: f9b2 023c 5f8b ecbb 1eef adbb a085 d13d
000000d0: 4d09 113e f050 463c 2bfc b3bc 9153 ef3d
000000e0: 77b5 2c3c 1f1a b23d 9cdb 6a3a 0fb5 17be
000000f0: 0fbc ebbb 3fb5 3b3c 1fe9 4fbd 0097 bcbc
00000100: 02d2 83bc 79f1 b13d 8110 c9bb ba49 1ebe
00000110: cc51 20be 112e e4bc 4e04 3b3d 2f6a ddbc
00000120: b963 96bc 2e54 d8bb e22e fdbc 53cf 30bd
00000130: 338a ddbc 6c13 9e3c c6a3 d43b 2c41 91bb
00000140: c834 413c e87f 26bd 176d c2bb 56e1 143d
00000150: 1922 a3bc 0e71 0cbd fbe8 9dbd c9c0 013d
00000160: ff9a cd3d 2708 9dbb ed24 96bb 9c49 943c
00000170: 9ce7 d13b 0024 06bc d936 7bbd 5ddd 473a
00000180: d0f9 82bc 626b 47be 31ac fa3a 8b9d 23bc
00000190: f0ba 95bd c637 6dbe 479f ed3b 8c71 193e
000001a0: 3ae7 5b3c 93ee 76bc 334c d5bc 8a92 2c3e
000001b0: fc5f e53c 7c55 533d eb16 23bc 80b2 a43b
000001c0: 49c5 0c3d fc9e 8c3d 78cb 5f3d f98b 39be
000001d0: e911 393c 9b9f 55bc 9b08 39be c3f3 2ebc
000001e0: 462d 123d 8a8d 3b3c 5f0f 82bd 8efd 8dbd
000001f0: fdf5 93bd 1bd2 243c 67ec 1bbd a668 28bc
00000200: 36ac bcbd c97a 71bb 6519 9abc 4e8c 353d
00000210: c0a0 3ebd 1f60 04bd 43f5 c3bd d881 ee3c
00000220: 51a6 70be d66c b73d b279 32be 3f5c 213e
00000230: 8183 0f3d ced5 89bb 8822 2abd 02fe 0cbc
00000240: 92aa 9fbb a432 d83d 1cd4 96bc 4721 88bd
00000250: 19b0 f8bd 1fc2 c8bc 075e a4bd 4d1f 29bd
00000260: 3b9a 51bd 86bd cc3a 4d14 a7bc aefc ff3d
00000270: d25b 5e3a 3f1e 75bd 5c25 dfbd d9fb eebc
00000280: 33e5 46be 33f5 543d 895c 8cbd 8d51 44bc
00000290: 774f 873b c125 493d 4951 953c f1da adbb
000002a0: 793f 80bd 9a9f 9cbc 62a2 d7ba fda5 45bc
000002b0: 2b79 8bbd 3a9a ecbd 545f 08bc d778 48be
000002c0: 134c f6bb a22c e6bb 0533 d1bd 9f67 62bd
000002d0: 712f 353d 81ce 7e3b 673b 1bbe c7f6 70bc
000002e0: 1285 fbbb b5ba e03d eadd eb3a 332a 12bd
000002f0: cdbf b2bd 7afc a5bc 3803 8abc 7e9f 8dbd
00000300: 87b5 82bc c554 dd3c 9e6d 93bd 3ffd 87ba
00000310: 8c6b e2bd c8a8 79be 0637 5bbe d045 45ba
00000320: 7d10 37be 472c 79bd a9a9 b53c 3efa d3bd
00000330: b61e 403d 43c8 17be 194f c6bc c62e babd
00000340: 04ae 40be 138a 30bc e954 47bd edd6 c0ba
00000350: 0cf4 6f3d 9b89 27bc 45fc 39bc d2bb 7cbc
00000360: ccc2 c33c 5ee2 58be b414 41bc 3ca6 dd3b
00000370: 9369 92bc ac90 cbbd 4394 b4bd 15c1 f6ba
00000380: 760c 1abd 4c47 433c 6c74 97ba 2a2d afbd
00000390: f59e b23c 35c4 e8bc 0279 01bb 43da 073e
000003a0: b1b6 2e3d 6c60 18bd a12c 30bc 64fb 353d
000003b0: 470d a8bc fb31 58be 0426 55bd 6fd9 123d
000003c0: 93f4 bcbd 3c4e 273d 06b9 ddbb 08c1 91ba
000003d0: dc6c 1a3c fbde 233e 2f80 15be da6e 393b
000003e0: 7b18 123e 002b 243d ff56 49bd 9b20 7f3d
000003f0: f6bd 053d a520 a8bd 7c53 28bc 95b8 f13c

invertible_encoder.bijectors.0.net.2.weight f4 [10, 256]
-0.003998129 0.02097198 0.04072024 0.0053613214 0.0053601908 -0.012848096 0.04057549 0.015582123
-0.032508887 -0.03249967 -0.02907834 0.07751527 0.006203827 0.019299358 -0.034482487 -0.034774184
-0.022709647 -0.25512367 -0.020212451 0.080368005 -0.035575733 0.015494622 -0.24725096 0.004119188
0.010977956 -0.0239083 -0.01256882 -0.038731027 -0.023402376 -0.014878777 0.0100867525 -0.008545601
-0.0053710802 0.025614759 0.01246625 0.007632418 0.003724675 -0.0019911074 -0.0136865415 0.014453897
0.01731742 -0.013000726 -0.0050474443 -0.04113479 -0.010879416 -0.016726753 -0.016532503 0.009733252
0.010987874 -0.0333873 0.031527027 0.030322641 -0.019500703 -0.016590467 0.008930593 -0.03543629
-0.0021284893 -0.04156272 -0.006211144 -0.01783795 -0.00075702346 -0.02968844 0.041272223 0.0025334829
0.011566803 0.062295828 -0.011479668 -0.0013081356 -0.053853497 0.0039511793 0.021316653 -0.0010107957
0.0023560994 0.045978613 0.013528825 0.0071505317 -0.02335417 -0.022133319 0.09827562 0.017541904
-0.020702656 -0.010883547 0.0022838 -0.014757214 0.009423794 -0.011624986 0.018815098 0.0011097705
0.099511184 -0.004706886 -0.024859335 -0.05680414 0.0026111263 -0.005365133 -0.028496211 0.023237064
-0.016510932 -0.027719654 0.022030087 -0.030576143 -0.0031075354 0.01123394 0.04907952 0.04630037
0.0053280964 0.0902042 0.024007678 0.03350273 0.010173846 0.08843616 0.021520127 0.00022098018
-0.01703945 0.073395625 0.045000017 -0.023125682 -0.044575 0.022278158 -0.03314385 -0.011992803
-0.10937048 0.021800708 0.0111390855 0.019051835 -0.033887133 0.016630597 0.021519229 0.02016983
0.036654107 0.08036432 0.025756763 0.00561245 0.009839743 0.027793178 -0.005757363 0.00042970263
-0.040919837 -0.030491441 -0.018660754 0.032036543 0.016739437 0.0131030325 -0.032396063 -0.051438753
0.020025762 0.011240657 -0.025889594 0.011256565 0.0011292752 0.033898056 0.008841753 -0.012643331
0.0001421974 -0.0021512227 -0.0034383824 0.082061864 -0.0052187615 -0.03206422 0.029377574 -0.008836956
0.003930395 0.17854804 0.01841584 -0.019297326 0.0003221286 0.03815011 0.036990028 0.012267201
0.009391873 -0.00052442105 -0.02938804 -0.0056762802 -0.007873659 -0.004996253 -0.018238155 0.004782533
0.009617899 -0.021529289 -0.006566627 -0.019178675 -0.012354824 0.022171669 -0.030369436 0.007787131
0.032581724 0.055696018 -0.0042974134 0.014862715 -0.03395698 0.039437376 0.020607965 0.041835215
0.024649065 -0.011966784 -0.0017503232 0.027246559 -0.012703918 -0.0072385417 -0.04480812 -0.037491698
-0.0013887666 -0.010241201 -0.005948704 -0.009641378 0.006010774 -0.018995067 -0.019279294 0.010239643
-0.05790601 0.013287575 0.010434628 0.00035739437 0.03407567 -0.010891655 0.038839728 -0.01183196
0.0031431338 -0.0034331381 -0.020069659 0.07245556 -0.007953736 0.018904682 0.017517105 0.027216101
-0.024508815 0.06106883 -0.005703699 0.0036581454 -0.015677374 -0.023255588 -0.0030162123 0.09609715
0.05074308 -0.010233416 0.026482398 -0.0051614665 -0.0001367898 -0.028287165 -0.02186075 0.024704898
0.0012832086 -0.028058138 0.01904577 0.003513312 -0.009977874 0.057689715 -0.11360045 -0.027250702
-0.0072110016 -0.041047845 -0.016862132 0.068076186 0.03191269 0.008766111 -0.0126799615 -0.005595433
00000000: bd02 83bb 6ecd ab3c 44ca 263d 06ae af3b
00000010: 8aa4 af3b d280 52bc 7c32 263d 294c 7f3c
00000020: 0a28 05bd 601e 05bd b335 eebc 53c0 9e3d
00000030: 7949 cb3b b019 9e3c 823d 0dbd 606f 0ebd
00000040: 9509 babc 929f 82be 9594 a5bc fb97 a43d
00000050: dcb7 11bd 28dd 7d3c 5b2f 7dbe 41fa 863b
00000060: e2dc 333c 57db c3bc 74ed 4dbc 6da4 1ebd
00000070: 57b6 bfbc 1dc6 73bc e842 253c d902 0cbc
00000080: e3ff afbb 0bd6 d13c 3e3f 4c3c 5d19 fa3b
00000090: ad19 743b 3d7d 02bb 843d 60bc 0ad0 6c3c
000000a0: 43dd 8d3c ff00 55bc 0865 a5bb f47c 28bd
000000b0: 943f 32bc 8b06 89bc 2c6f 87bc 3878 1f3c
000000c0: 7c06 343c 1fc1 08bd 7c22 013d 3067 f83c
000000d0: f0bf 9fbc bbe8 87bc 9f51 123c a525 11bd
000000e0: 207e 0bbb ac3d 2abd da86 cbbb e420 92bc
000000f0: fc72 46ba 2c35 f3bc 100d 293d ca08 263b
00000100: b082 3d3c e929 7f3d 3815 3cbc bf75 abba
00000110: 7c95 5cbd e578 813b 43a0 ae3c ad7c 84ba
00000120: ca68 1a3b 1254 3c3d 01a8 5d3c 024f ea3b
00000130: 3f51 bfbc ef50 b5bc ba44 c93d 0ab4 8f3c
00000140: 9e98 a9bc e850 32bc ceab 153b 3ec8 71bc
00000150: 4266 1a3c ba76 3ebc 1f22 9a3c b875 913a
00000160: 85cc cb3d 393c 9abb cea5 cbbc 75ab 68bd
00000170: 6e1f 2b3b ffcd afbb e370 e9bc a85b be3c
00000180: ef41 87bc 5414 e3bc 7178 b43c d27a fabc
00000190: cba7 4bbb 8f0e 383c 9b07 493d 75a5 3d3d
000001a0: 5097 ae3b fbbc b83d c0ab c43c 293a 093d
000001b0: 34b0 263c 041e b53d fa4a b03c eab6 6739
000001c0: 5196 8bbc 7250 963d f051 383d 1272 bdbc
000001d0: 4694 36bd af80 b63c d8c1 07bd 767d 44bc
000001e0: a1fd dfbd 6697 b23c b680 363c 9812 9c3c
000001f0: 3ccd 0abd e43c 883c 1849 b03c 333b a53c
00000200: 9e22 163d 0c96 a43d d9ff d23c a5e8 b73b
00000210: e036 213c 85ae e33c 43a8 bcbb b649 e139
00000220: 8f9b 27bd 30c9 f9bc 70de 98bc c038 033d
00000230: 2521 893c 1aae 563c bcb1 04bd 71b1 52bd
00000240: 110d a43c bc2a 383c 6a16 d4bc 756d 383c
00000250: 3004 943a b0d8 0a3d 00dd 103c f925 4fbc
00000260: d31a 1539 87fb 0cbb 7c56 61bb 0d10 a83d
00000270: 2502 abbb c655 03bd 3da9 f03c e1c8 10bc
00000280: 8bca 803b 4cd5 363e d1dc 963c 6d15 9ebc
00000290: 5ee3 a839 4a43 1c3d db82 173d 5ffc 483c
000002a0: 5fe0 193c 4d79 09ba 30bf f0bc 1700 babb
000002b0: 8500 01bc 9cb7 a3bb 2f68 95bc cbb6 9c3b
000002c0: 6494 1d3c 315e b0bc dc2c d7bb 991c 9dbc
000002d0: e36b 4abc 5ca1 b53c 53c9 f8bc 302b ff3b
000002e0: 6a74 053d 8221 643d 51d1 8cbb bf82 733c
000002f0: 7916 0bbd 1689 213d 09d2 a83c 675b 2b3d
00000300: d6ec c93c 5410 44bc 1a6b e5ba 2d34 df3c
00000310: 1824 50bc 4a31 edbb b888 37bd e590 19bd
00000320: 4607 b6ba b6ca 27bc 59ed c2bb dff6 1dbc
00000330: 07f6 c43b 8b9b 9bbc 9cef 9dbc 2dc4 273c
00000340: da2e 6dbd 21b4 593c 01f6 2a3c a960 bb39
00000350: ee92 0b3d ea72 32bc 6816 1f3d d6da 41bc
00000360: 09fd 4d3b 80fe 60bb 2069 a4bc 9563 943d
00000370: 6350 02bc fedd 9a3c 0880 8f3c 4df4 de3c
00000380: b6c6 c8bc 4f23 7a3d 18e6 babb 7fbd 6f3b
00000390: d66d 80bc 8182 bebc a5ab 45bb 95ce c43d
000003a0: fad7 4f3d 0faa 27bc 9df1 d83c 8521 a9bb
000003b0: 3b6f 0fb9 7cba e7bc 5115 b3bc ed61 ca3c
000003c0: 5631 a83a 2eda e5bc e005 9c3c 983f 663b
000003d0: 3d7a 23bc 0d4c 6c3d 5aa7 e8bd dd3c dfbc
000003e0: 444a ecbb c921 28bd 7422 8abc 876b 8b3d
000003f0: e1b6 023d bc9f 0f3c 9dbf 4fbc e559 b7bb

invertible_encoder.bijectors.0.net.2.bias f4 [10]
-0.014072892 -0.028112806 0.015397284 -0.009432757 0.014154535 -0.008249312 0.0037538595 -0.028659666
-0.0005745972 -0.0036873328
00000000: fd91 66bc d44c e6bc e444 7c3c da8b 1abc
00000010: 6ce8 673c 1f28 07bc 5003 763b adc7 eabc
00000020: 91a0 16ba 2ea7 71bb

invertible_encoder.bijectors.1.net.0.weight f4 [256, 10]
-0.03409733 0.14907303 0.37961057 -0.562891 0.37463892 0.18872213 0.26305515 0.17529841
-0.6473667 -0.530682 -0.2760858 -0.712495 0.20784137 0.085438125 0.15622501 0.6048649
0.029762546 -0.29414642 -0.19509096 0.6193343 -0.03430633 -0.24321605 -0.38454732 0.14106166
-0.92071164 -0.6058956 0.38833842 0.31524214 0.6930685 -0.5987926 -0.028417602 -0.1869421
0.3939626 0.1652471 0.21883115 0.3932062 -0.5464375 -0.4297292 -0.94157994 0.03453788
0.14982477 -0.043912154 -0.52838963 0.1886284 0.54411143 -0.21234216 -0.32554185 -0.81347317
-2.0729492 -0.51899886 -0.29630738 -0.20257854 0.48620415 -0.19741282 -0.24849567 9.0370006e-05
-0.7703718 0.6783483 0.25166103 -0.52215517 -0.11743948 -0.34712115 0.11002421 -0.043022085
0.28900883 0.20887369 -0.173177 0.22364862 -0.42848137 0.39383537 0.23896945 0.27943173
-0.26215872 1.0974416 -0.39103088 -0.9807068 -0.14949022 -0.016771697 0.22646116 -0.10221651
0.11841753 0.21911304 -0.0928846 -0.02582521 0.06248725 -0.25118333 0.12794869 0.10275148
0.10646952 0.0010746509 -0.075928345 0.31183222 0.058864366 -0.07966269 -0.41604102 -0.36750573
-0.35595766 -0.10999522 0.94375527 -0.5949596 0.3913967 0.05302023 0.16521367 0.1551721
-0.54763186 -0.15787259 0.10836021 -0.24582995 0.31474143 -0.18676701 0.16685447 -0.42310897
-0.31885335 0.13241175 0.42013764 0.50470763 0.6249562 -0.7733909 0.03615191 1.0161103
-0.46416575 -0.12434774 -0.13497958 -0.1548488 -0.32728922 -0.044610377 0.08602547 -0.4826734
-0.30530354 0.47562432 -0.11509349 -0.24475269 -0.34241003 0.24338588 0.043697596 0.10457738
-0.4688202 0.31793007 -0.71051353 -0.1883329 -0.11485751 0.081514195 0.023038905 0.14078404
0.38722703 1.0466322 0.18077528 0.19390385 -0.26783326 0.3293325 -0.37657923 -0.47183815
-0.17067486 0.022461502 -0.075992934 -0.1357438 0.051759113 0.04468957 0.2843088 0.83099633
-0.124063425 -0.09454558 0.58290243 -0.043161716 0.35669258 0.27006465 -0.030362 -0.11295093
-0.20548734 -0.118691646 0.93895906 -0.7643735 0.57608694 -0.10679595 -0.110548295 0.02040143
-0.7051568 0.20545709 0.8105915 -0.9300643 0.29372784 0.48171368 0.24289878 0.64464694
0.07385121 -0.49116296 -0.5067268 0.29581675 0.13094041 -0.27826095 0.4560746 0.35141477
-0.06518674 0.09338998 0.1299963 -0.36480045 -0.16976555 0.39047503 0.14289273 -0.97744375
-0.037980694 0.2795114 -0.44516927 -0.38920057 -0.08518657 -0.19200295 0.14095359 0.097152315
1.0759238 -1.0715307 -0.09240596 0.014994008 -0.09868898 -0.19283636 0.9544606 -0.12256561
0.09643974 0.0894485 0.12313491 -0.21515474 0.2792167 0.6883869 -0.79005426 0.2872552
-0.256941 0.03453415 -0.31465334 -0.3349915 -0.39298376 0.6108772 -0.6888558 -0.4090044
0.17153597 0.36142266 -0.064539 -0.06205962 0.5608444 -0.14002152 -0.13364738 0.2237117
-0.041920807 0.10570389 -0.021956263 -0.014808001 0.45047337 -0.05332221 0.33677548 -0.34157437
-0.018743629 -0.09206502 0.20111553 -0.23808558 -0.12688081 -0.33586368 -0.800262 -0.024864664
00000000: a4a9 0bbd 9aa6 183e 515c c23e a019 10bf
00000010: acd0 bf3e 6040 413e 2aaf 863e 6d81 333e
00000020: d3b9 25bf c7da 07bf 1e5b 8dbe 1366 36bf
00000030: 5ed4 543e 2ffa ae3d 73f9 1f3e 6dd8 1a3f
00000040: 95d0 f33c 5c9a 96be edc5 47be b18c 1e3f
00000050: cb84 0cbd a10d 79be 63e3 c4be 7872 103e
00000060: c2b3 6bbf f91b 1bbf 4bd4 c63e 6b67 a13e
00000070: f06c 313f 794a 19bf 08cc e8bc c06d 3fbe
00000080: 77b5 c93e 8936 293e 4615 603e 5352 c93e
00000090: 54e3 0bbf 7705 dcbe 620b 71bf 9877 0d3d
000000a0: aa6b 193e 3bdd 33bd 8b44 07bf ce27 413e
000000b0: e34a 0b3f 3970 59be 6cad a6be c73f 50bf
000000c0: 33ab 04c0 1cdd 04bf 9ab5 97be c070 4fbe
000000d0: c0ef f83e 9626 4abe a675 7ebe 0785 bd38
000000e0: 1637 45bf 3ca8 2d3f b7d9 803e f6ab 05bf
000000f0: 1c84 f0bd ddb9 b1be 5f54 e13d ed37 30bd
00000100: f7f8 933e fce2 553e 5055 31be 2504 653e
00000110: e961 dbbe caa4 c93e 68b4 743e ad11 8f3e
00000120: ab39 86be f778 8c3f 3335 c8be 9a0f 7bbf
00000130: f713 19be cc64 89bc 6fe5 673e e456 d1bd
00000140: e484 f23d 2b5f 603e 483a bebd 648f d3bc
00000150: a1f2 7f3d 1a9b 80be fb04 033e 5e6f d23d
00000160: b10c da3d 4ddb 8c3a 5280 9bbd 79a8 9f3e
00000170: c31b 713d 3126 a3bd 5403 d5be b629 bcbe
00000180: 1540 b6be 2d45 e1bd f299 713f 464f 18bf
00000190: 2665 c83e be2b 593d c62d 293e 6fe5 1e3e
000001a0: 9a31 0cbf 5aa9 21be f5eb dd3d d9ba 7bbe
000001b0: ca25 a13e da3f 3fbe e6db 2a3e bda1 d8be
000001c0: bf40 a3be f296 073e 481c d73e 8534 013f
000001d0: 21fd 1f3f f2fc 45bf 0614 143d e70f 823f
000001e0: 22a7 edbe 07aa febd 1638 0abe af90 1ebe
000001f0: 7492 a7be 5fb9 36bd 1f2e b03d f820 f7be
00000200: bf50 9cbe 0885 f33e 23b6 ebbd 73a0 7abe
00000210: 5e50 afbe 263a 793e 40fc 323d aa2c d63d
00000220: 3409 f0be bbc7 a23e 37e4 35bf 57da 40be
00000230: 6a3a ebbd eaf0 a63d 16bc bc3c b129 103e
00000240: 9f42 c63e 0bf8 853f 281d 393e bb8e 463e
00000250: 7121 89be 459e a83e fece c0be c594 f1be
00000260: 64c5 2ebe 2f01 b83c 2fa2 9bbd 6c00 0bbe
00000270: 5d01 543d 690c 373d ec90 913e 2dbc 543f
00000280: f714 febd 1da1 c1bd 1839 153f 57ca 30bd
00000290: 69a0 b63e ea45 8a3e bbb9 f8bc d152 e7bd
000002a0: 466b 52be 9b14 f3bd 9f5f 703f fbad 43bf
000002b0: 6f7a 133f d6b7 dabd 2567 e2bd e620 a73c
000002c0: 2885 34bf 5863 523e ed82 4f3f b218 6ebf
000002d0: 7f63 963e 2da3 f63e 75ba 783e 9507 253f
000002e0: 4e3f 973d b679 fbbe d9b8 01bf 4b75 973e
000002f0: 3e15 063e 3878 8ebe 9c82 e93e a3ec b33e
00000300: a080 85bd 3f43 bf3d c01d 053e 20c7 babe
00000310: 05d7 2dbe 58ec c73e 7952 123e c139 7abf
00000320: a591 1bbd 1e1c 8f3e 3aed e3be 4c45 c7be
00000330: 4c76 aebd 6c9c 44be 2356 103e cbf7 c63d
00000340: dfb7 893f eb27 89bf 563f bdbd 6da9 753c
00000350: 731d cabd e576 45be 8857 743f ae03 fbbd
00000360: 3382 c53d c630 b73d 282e fc3d 8651 5cbe
00000370: 7ef5 8e3e 203a 303f ff40 4abf 1d13 933e
00000380: c58d 83be ae73 0d3d 3e1a a1be 0284 abbe
00000390: 2b35 c9be 7362 1c3f db58 30bf 0669 d1be
000003a0: 20a7 2f3e 640c b93e 062d 84bd 3a32 7ebd
000003b0: 8093 0f3f cd61 0fbe dcda 08be ae14 653e
000003c0: 27b5 2bbd 487b d83d 9fdd b3bc 429d 72bc
000003d0: 72a4 e63e 6468 5abd d66d ac3e d6e2 aebe
000003e0: 3d8c 99bc 968c bcbd 3bf1 4d3e b5cc 73be
000003f0: 0bed 01be 53f6 abbe f8dd 4cbf fbb0 cbbc

invertible_encoder.bijectors.1.net.0.bias f4 [256]
-0.054177795 -0.067128256 0.008646263 -0.0054145055 -0.04919173 0.016842073 -0.044059355 0.019092595
-0.007755787 0.041583013 0.013511431 -0.051965106 0.027908914 0.010088939 0.005474283 -0.011072699
-0.022625081 -0.060808916 0.0073760203 0.032061182 0.022256752 -0.09391178 0.027476592 -0.08227429
-0.045230832 0.00079791364 0.064163215 -0.020567797 0.061918214 0.009346662 -0.051999796 -0.055843983
0.05600109 -0.0053115813 -0.011824479 -0.0052765976 -0.10952661 -0.020566 -0.01159059 -0.15210918
0.11840131 -0.010814177 -0.062847 -0.030417938 0.009993756 0.038453724 0.016832393 0.00787133
-0.02774761 0.020410148 -0.0124906385 -0.028754042 -0.14174135 0.019028956 0.027479518 0.025825141
0.020851882 -0.10846465 -0.0065674493 -0.02061282 0.006283001 -0.1284144 -0.03976518 0.019492868
0.03704716 0.038728416 0.02512943 0.012741366 0.052056342 -0.015530864 -0.04160312 -0.041625373
0.014798589 -0.027355203 0.021584187 -0.021109657 -0.034177706 0.023343377 -0.0041851387 0.036948994
-0.017015748 -0.033024926 -0.019993447 0.051438205 -0.009219844 -0.007098638 -0.009434289 0.01839063
-0.090605 -0.07515934 -0.065123655 0.025342505 0.02036435 0.0048513766 -0.13095352 0.03407139
-0.07001819 -0.20549135 -0.027174199 0.011650554 0.009435818 -0.014636599 0.019223401 0.028454635
-0.1306483 0.1092609 0.036741287 0.012026886 -0.037716538 0.028196225 -0.065663986 -0.16391449
0.020426733 -0.031910438 -0.08349005 0.023065643 0.04294513 -0.0042289207 -0.006836073 0.039133683
0.007753922 0.011047024 -0.05748004 -0.022015374 -0.008365257 -0.05144171 0.005139245 -0.03499501
0.017705308 0.010277728 0.01709076 -0.03195374 0.017925141 0.015990324 -0.053075492 0.042731795
-0.011418766 -0.077442944 -0.022266556 -0.033967268 -0.09851407 -0.013581641 0.037763823 0.0028286995
-0.044163045 -0.002321212 -0.049563922 0.14631951 0.009019662 -0.07268685 -0.10795953 -0.03850561
-0.060993828 0.025939368 -0.0051199924 -0.0061592134 0.021824336 -0.055094615 -0.043957926 -0.039048914
0.023914402 0.0291006 -0.08193834 -0.13199739 0.051151372 -0.009844261 0.046903364 0.040388416
0.019954303 0.009967797 0.03805858 -0.031468943 0.038442615 0.035534322 -0.031130847 0.012431624
0.009956759 0.0041963765 0.03572797 -0.0650151 -0.026597783 -0.022382129 0.049987752 0.024924872
0.0029519273 -0.042786255 0.037586145 -0.031875808 0.017820364 0.051953316 0.02020267 -0.064223655
-0.017300086 0.15694258 0.0027367568 -0.031789385 -0.042848203 0.0009513459 0.018262649 -0.13467483
-0.0081557045 0.024100456 0.052062962 0.025616283 0.008092851 -0.04108713 -0.12012056 0.01202449
0.0025241645 -0.018425861 -0.1203714 -0.003453151 -0.006635229 -0.05002328 0.009041281 -0.03275967
-0.012320127 0.0040980754 -0.06494428 -0.013434389 0.008071126 0.07320764 0.033955842 0.064792745
0.024136387 0.01391318 0.098960176 -0.060582586 -0.052809816 -0.02359091 -0.06703716 -0.019152105
0.018113364 0.015634418 0.001753184 0.008984562 -0.012354288 0.14383356 -0.016733913 0.08980917
0.03960606 0.03400539 0.02334772 -0.051039852 0.026416695 0.021323996 -0.053264115 0.020975217
-0.034526173 -0.03950732 -0.04669043 -0.008435977 0.01897324 0.054046657 -0.05597886 0.014927264
00000000: 89e9 5dbd 8a7a 89bd 0ea9 0d3c 2a6c b1bb
00000010: 447d 49bd 63f8 893c 9577 34bd 1368 9c3c
00000020: 4224 febb f352 2a3d 0d5f 5d3c 5dd9 54bd
00000030: 3ca1 e43c 144c 253c 9d61 b33b 446a 35bc
00000040: 3c58 b9bc c512 79bd 8bb2 f13b 9652 033d
00000050: cb53 b63c d254 c0bd 9716 e13c 6c7f a8bd
00000060: f743 39bd 142b 513a 0168 833d cc7d a8bc
00000070: f49d 7d3d be22 193c bdfd 54bd a9bc 64bd
00000080: 6661 653d c60c aebb 76bb 41bc 4fe7 acbb
00000090: 7d4f e0bd 077a a8bc 75e6 3dbc 82c2 1bbe
000000a0: 637c f23d f22d 31bc eeb5 80bd 0a2f f9bc
000000b0: dabc 233c a781 1d3d 16e4 893c c0f6 003c
000000c0: f54e e3bc 2f33 a73c 89a5 4cbc 998d ebbc
000000d0: a524 11be 9de2 9b3c ba1c e13c 3f8f d33c
000000e0: 91d1 aa3c b722 debd c233 d7bb 37dc a8bc
000000f0: a2e1 cd3b 117f 03be d0e0 22bd 82af 9f3c
00000100: c3be 173d b0a1 1e3d 3cdc cd3c 2ac1 503c
00000110: 0839 553d 2a75 7ebc 0868 2abd 5e7f 2abd
00000120: c875 723c 0518 e0bc 52d1 b03c 29ee acbc
00000130: ecfd 0bbd 9c3a bf3c 7d23 89bb d457 173d
00000140: 9c64 8bbc 2545 07bd 4cc9 a3bc deb0 523d
00000150: d40e 17bc b19b e8bb 4792 1abc f2a7 963c
00000160: 1d8f b9bd 24ed 99bd 8d5f 85bd 169b cf3c
00000170: 23d3 a63c 4cf8 9e3b ae18 06be 718e 0b3d
00000180: b265 8fbd 536c 52be 6d9c debc f7e1 3e3c
00000190: b098 1a3c 59ce 6fbc 657a 9d3c b219 e93c
000001a0: abc8 05be 2ec4 df3d 087e 163d 6b0c 453c
000001b0: a87c 1abd c5fb e63c d77a 86bd 33d9 27be
000001c0: f755 a73c 85b4 02bd d5fc aabd 29f4 bc3c
000001d0: 3ce7 2f3d c292 8abb 2301 e0bb a44a 203d
000001e0: 9d14 fe3b 94fe 343c 3170 6bbd 9659 b4bc
000001f0: 6e0e 09bc 8bb4 52bd 1d67 a83b ed56 0fbd
00000200: b90a 913c ea63 283c ec01 8c3c ede1 02bd
00000210: bfd7 923c 24fe 823c b065 59bd 8907 2f3d
00000220: c715 3bbc 689a 9ebd 5a68 b6bc 4321 0bbd
00000230: bfc1 c9bd 8885 5ebc 3dae 1a3d b461 393b
00000240: 4fe4 34bd 7a1f 18bb 8a03 4bbd c8d4 153e
00000250: 34c7 133c d8dc 94bd e319 ddbd 0fb8 1dbd
00000260: aad4 79bd cc7e d43c 9cc5 a7bb 3ad3 c9bb
00000270: f3c8 b23c e4aa 61bd 3a0d 34bd c1f1 1fbd
00000280: 23e8 c33c 6264 ee3c 4acf a7bd 532a 07be
00000290: 1a84 513d d349 21bc be1d 403d 536e 253d
000002a0: 3577 a33c f94f 233c 50e3 1b3d 94e5 00bd
000002b0: 0176 1d3d 708c 113d 1e06 ffbc 03ae 4b3c
000002c0: ad21 233c c281 893b 7e57 123d a326 85bd
000002d0: 98e3 d9bc ba5a b7bc f5bf 4c3d 3f2f cc3c
000002e0: 1f75 413b a440 2fbd eef3 193d 3590 02bd
000002f0: 03fc 913c 00cd 543d 1280 a53c b187 83bd
00000300: e9b8 8dbc 8eb5 203e 295b 333b 9635 02bd
00000310: 9981 2fbd be63 793a 8d9b 953c 33e8 09be
00000320: 819f 05bc 526e c53c f93f 553d 3dd9 d13c
00000330: e197 043c fa4a 28bd c501 f6bd 5e02 453c
00000340: 746c 253b d5f1 96bc 4885 f6bd 434e 62bb
00000350: 566c d9bb 36e5 4cbd e221 143c 012f 06bd
00000360: 5cda 49bc 2649 863b 8201 85bd e91b 5cbc
00000370: c23c 043c e3ed 953d 4815 0b3d 0fb2 843d
00000380: acb9 c53c 1bf4 633c a2ab ca3d 7225 78bd
00000390: 1b4f 58bd b941 c1bc c74a 89bd e0e4 9cbc
000003a0: 7a62 943c c013 803c 18cb e53a fc33 133c
000003b0: a469 4abc 1b49 133e 8f15 89bc dfed b73d
000003c0: f739 223d 3c49 0b3d b843 bf3c 2a0f 51bd
000003d0: d367 d83c a9af ae3c 792b 5abd 38d4 ab3c
000003e0: 516b 0dbd 6dd2 21bd 773e 3fbd 0d37 0abc
000003f0: c56d 9b3c 0760 5d3d 174a 65bd 7c91 743c

invertible_encoder.bijectors.1.net.2.weight f4 [10, 256]
-0.023390016 0.0652849 -0.17940804 0.106976256 -0.04264988 -0.056265928 0.0074554416 -5.3019885e-05
-0.008976425 -0.049685486 -0.051276177 0.059681263 0.053375605 -0.058855608 0.11249001 0.09771892
0.010324847 -0.018457502 -0.048063833 -0.10542961 0.014066333 0.0013854285 -0.03329844 0.10754591
0.008504543 -0.10852618 -0.058060054 -0.0034525783 0.15895373 -0.03887446 0.041599598 0.060674205
-0.0142685305 0.0025423323 -0.121532105 -0.00912875 0.01762501 0.00434108 -0.018147372 0.038708244
-0.06793911 -0.16120857 0.17178309 0.008594894 0.022193307 -0.1232875 -0.09974496 -0.02831141
0.06951136 -0.028167792 0.034331698 0.10806587 -0.010955637 0.13429683 -0.116889305 -0.03879224
-0.122499704 0.05115349 0.18206266 -0.15548195 0.012467385 0.086089976 -0.06312414 -0.019610792
-0.034256864 -0.007387714 -0.07417157 0.034359675 -0.019363414 0.14127205 0.12552054 -0.08269699
-0.02378615 -0.168157 0.06920093 0.058518108 0.0029442091 0.031938337 0.1431926 0.020955026
-0.14003369 -0.041655265 0.07028414 -0.020872941 -0.14389159 -0.14061047 0.21565497 -0.063894145
-0.0114504155 0.018291816 0.04235061 0.104875796 0.026102899 -0.19564807 -0.2604178 -0.25302458
0.03276149 0.067438886 -0.01791131 0.02520544 -0.22355005 0.10401887 -0.0076235384 -0.13660446
-0.038018122 -0.048451655 -0.019403838 -0.123186134 0.022590453 0.009020262 -0.06436506 0.060076416
-0.111515984 -0.025715113 0.068464585 0.008923596 -0.009566185 -0.035928886 -0.16344857 -0.016011063
-0.01690579 0.07499484 -0.25729352 -0.33862165 0.020317178 -0.098843716 0.0053243493 0.018115107
-0.016329022 0.025738522 -0.03987338 0.179931 0.22024913 -0.0034194835 0.00084082584 -0.10415065
-0.026228288 -0.027026113 -0.006178613 -0.05901387 0.010126683 -0.13391523 -0.08917002 -0.031904347
0.21274023 0.12128671 0.026492288 -0.06946755 0.012955107 -0.10501368 0.09139204 0.13052124
-0.012271501 -0.12475722 0.24030107 -0.0038077268 -0.061186697 -0.022138823 0.10596628 0.04192267
-0.014839258 0.087142006 -0.14038402 0.05162521 -0.058297236 0.071328245 -0.033758193 -0.13176273
-0.0150911305 0.060910493 -0.077381134 -0.032209743 -0.17113653 0.019946795 0.042990196 -0.20303105
-0.057903066 0.48857096 -0.0183351 -0.08152052 0.4342755 -0.2447236 -0.048945535 0.2572835
0.07269573 0.04048845 -0.02927253 0.20073299 -0.082524374 0.0027794484 -0.038366064 0.13965175
-0.08861692 0.018626 0.3802729 0.07608641 0.10582786 0.1064852 0.048992362 0.020385496
0.00680795 -0.027955186 -0.027889684 -0.023792274 -0.0013329083 -0.09555687 0.044209782 0.03606492
-0.0154664945 0.24908659 0.061172843 0.021226512 -0.02849097 0.023821196 0.020728944 0.20284192
0.05760685 0.032160137 -0.021582013 0.1756742 0.14177576 -0.060842834 0.014990976 -0.010350266
-0.016225213 -0.03084245 -0.009554849 -0.028486954 0.018997297 -0.023143165 0.052504733 0.073162906
-0.018080803 -0.025804624 -0.045867875 0.21277443 -0.1361335 -0.058861103 -0.45699108 -0.012472627
-0.028149806 -0.013118693 -0.09746339 0.00576986 0.028025772 -0.016265094 -0.04208959 -0.23169109
-0.0060506705 -0.03571881 0.117318824 0.034255996 -0.010304429 -0.08207496 -0.0023440176 -0.15178366
00000000: 6b9c bfbc 17b4 853d beb6 37be 5e16 db3d
00000010: a4b1 2ebd 1a77 66bd c74c f43b ab61 5eb8
00000020: db11 13bc 0283 4bbd f806 52bd 5774 743d
00000030: 61a0 5a3d 9412 71bd 2a61 e63d db20 c83d
00000040: 8c29 293c 3034 97bc 95de 44bd 7beb d7bd
00000050: 7a76 663c 4497 b53a f263 08bd 0841 dc3d
00000060: a456 0b3c f942 debd 61d0 6dbd a744 62bb
00000070: c4c4 223e d33a 1fbd 5764 2a3d 8485 783d
00000080: 8ec6 69bc 429d 263b d3e5 f8bd c190 15bc
00000090: 5362 903c 9e3f 8e3b cca9 94bc 898c 1e3d
000000a0: a923 8bbd dc13 25be e8e7 2f3e 99d1 0c3c
000000b0: bdce b53c 287e fcbd 1647 ccbd 55ed e7bc
000000c0: f95b 8e3d 24c0 e6bc 659f 0c3d a451 dd3d
000000d0: 467f 33bc 1c85 093e a963 efbd 9de4 1ebd
000000e0: 20e1 fabd 5286 513d a26e 3a3e a936 1fbe
000000f0: 0144 4c3c f14f b03d 3b47 81bd d0a6 a0bc
00000100: ed50 0cbd a314 f2bb 44e7 97bd bbbc 0c3d
00000110: 06a0 9ebc 9fa9 103e 7588 003e 0a5d a9bd
00000120: 2cdb c2bc 5931 2cbe 38b9 8d3d afb0 6f3d
00000130: a2f3 403b c6d1 023d 15a1 123e e0a9 ab3c
00000140: fe64 0fbe b69e 2abd 22f1 8f3d bbfd aabc
00000150: 5158 13be 31fc 0fbe a8d4 5c3e efda 82bd
00000160: 869a 3bbc b8d8 953c d577 2d3d 1fc9 d63d
00000170: bfd5 d53c f857 48be 7b55 85be 708c 81be
00000180: ea30 063d 661d 8a3d bdba 92bc a47b ce3c
00000190: 4eea 64be d807 d53d e0ce f9bb 0ae2 0bbe
000001a0: e4b8 1bbd 3e75 46bd ccf4 9ebc 0349 fcbd
000001b0: 9d0f b93c b9c9 133c d4d1 83bd b012 763d
000001c0: 7e62 e4bd 80a8 d2bc 2937 8c3d 4634 123c
000001d0: 7dbb 1cbc 2b2a 13bd 105f 27be a229 83bc
000001e0: 037e 8abc e596 993d fabb 83be d15f adbe
000001f0: 3670 a63c 936e cabd e177 ae3b 2266 943c
00000200: 71c4 85bc 98d9 d23c 4552 23bd d53f 383e
00000210: fd88 613e 6a19 60bb de6a 5c3a f04c d5bd
00000220: b5dc d6bc de65 ddbc f675 cabb 87b8 71bd
00000230: 63ea 253c 1321 09be c59e b6bd 22ae 02bd
00000240: 93d8 593e 2b65 f83d 5b06 d93c 0145 8ebd
00000250: a841 543c 6a11 d7bd c02b bb3d 5ca7 053e
00000260: 680e 49bc b780 ffbd 7c11 763e 0e8b 79bb
00000270: e79e 7abd 7a5c b5bc d904 d93d 1bb7 2b3d
00000280: 5c20 73bc 8277 b23d d4c0 0fbe f574 533d
00000290: 15c9 6ebd 8b14 923d 0846 0abd cfec 06be
000002a0: ca40 77bc 487d 793d 007a 9ebd 5dee 03bd
000002b0: 6a3e 2fbe 7667 a33c 7d16 303d 5fe7 4fbe
000002c0: c42b 6dbd f925 fa3e 7e33 96bc 3bf4 a6bd
000002d0: 5c59 de3e d398 7abe 1d7b 48bd aaba 833e
000002e0: 80e1 943d 38d7 253d f2cc efbc f38c 4d3e
000002f0: 8a02 a9bd 6827 363b bc25 1dbd de00 0f3e
00000300: ca7c b5bd 8e95 983c 21b3 c23e 31d3 9b3d
00000310: 47bc d83d ea14 da3d 37ac 483d 7cff a63c
00000320: 3915 df3b 4602 e5bc e878 e4bc 04e8 c2bc
00000330: fbb4 aeba 52b3 c3bd 5115 353d cfb8 133d
00000340: 2e67 7dbc 8e10 7f3e 6090 7a3d 39e3 ad3c
00000350: e565 e9bc ab24 c33c bfcf a93c cbb5 4f3e
00000360: 29f5 6b3d 59ba 033d c3cc b0bc f0e3 333e
00000370: aa2d 113e 5636 79bd b69c 753c 2994 29bc
00000380: bdea 84bc 4ea9 fcbc f18b 1cbc 795d e9bc
00000390: 38a0 9b3c bc96 bdbc 340f 573d 6fd6 953d
000003a0: 311e 94bc 3864 d3bc f4df 3bbd 8ae1 593e
000003b0: 9566 0bbe 5718 71bd bcfa e9be fd59 4cbc
000003c0: 6c9a e6bc c9ef 56bc e39a c7bd 1811 bd3b
000003d0: 4e96 e53c 603e 85bc 2266 2cbd 6e40 6dbe
000003e0: b444 c6bb e34d 12bd da44 f03d 0450 0c3d
000003f0: e8d3 28bc eb16 a8bd 179e 19bb 2d6d 1bbe

invertible_encoder.bijectors.1.net.2.bias f4 [10]
-0.00390663 -0.056176 0.012275457 -0.11940018 -0.053749003 -0.068468444 -0.06640033 -0.10970065
-0.114545554 -0.04390566
00000000: 3003 80bb ce18 66bd 001f 493c 1588 f4bd
00000010: ea27 5cbd 2f39 8cbd e5fc 87bd bcaa e0bd
00000020: dc96 eabd 6cd6 33bd

invertible_encoder.bijectors.2.net.0.weight f4 [256, 10]
0.5413912 0.15783125 -0.18952972 -0.4270347 0.42323565 0.047491115 -0.117562026 -0.20621654
0.23463285 -0.19108865 -0.15931876 0.09446259 -0.48111257 -0.26108795 -0.85925496 0.101070754
0.07830001 0.05892565 -0.5087675 0.014502846 -0.09565488 -0.76072615 0.2572745 -0.41075408
-0.3448191 -0.58357966 -0.039125886 0.2833903 0.19544135 -0.5343066 -0.04345433 -1.1165361
0.42003182 -0.14805943 0.1913305 -0.23396198 -0.25790897 0.3058553 0.5253972 -0.07202206
-0.50301915 0.124560945 -0.22667474 -0.058913574 0.054128405 -0.43709293 0.084402956 -0.060179092
-0.34675628 0.008191139 -0.037828736 -0.054021135 0.35269135 -0.24774404 -0.14247398 -0.18634133
0.43106508 0.10643279 0.019139906 -0.5232009 -0.59113437 0.30576938 -0.071579516 0.33508626
0.15054537 -0.101244524 -0.015070068 -0.31912 -0.04708082 -0.34245738 0.3753882 -0.26214933
0.10342775 -0.20244214 0.5842864 -0.09064611 -0.048547935 0.17015012 -0.1123952 -0.2527445
0.11707762 0.06342951 0.04083684 0.51913834 -0.4384785 -0.16717266 0.022751164 0.26073924
0.07590687 -0.0036854835 0.12673767 -0.07176961 0.26722935 0.18123694 -0.56750226 -0.19282226
-0.36399978 -0.09308797 -0.12789379 0.38640672 -0.13277458 0.15833381 0.18063079 0.41759923
-0.33559445 0.55689293 0.06666202 -0.40070847 0.28635916 0.4815573 0.87971175 0.21047793
0.15460442 -0.06342047 0.3169312 0.17645182 -0.1229454 0.22926284 0.3564184 -0.27088264
-0.74926376 0.08946424 -1.0707259 0.013926191 0.6929504 0.09767395 0.016520059 -0.1901852
0.10407975 -0.028181832 -0.28284445 -0.6970391 0.6134281 0.009048736 -0.34902647 0.20324832
-0.27748844 -0.007959943 0.10410207 -0.3376319 0.22579794 -0.07807764 -0.15897398 -0.16286097
0.97072154 0.041907378 0.33768138 0.100016356 0.16168304 0.03808676 0.66378325 0.31720242
-0.51924235 -0.13605213 -0.26490113 -0.16023174 0.11629356 -0.3786873 0.2297844 -0.48597807
-0.33533606 0.23137291 0.2958018 -0.31091368 0.39450568 -0.84366024 -0.03843738 0.7000091
0.16784626 0.102539234 0.22370851 -0.1216394 -0.07722269 -0.14345424 0.82328683 -0.44044507
0.35123158 0.040191587 -0.04678008 -0.020288795 -0.7489569 -0.038238827 -0.5960336 -0.08745705
-0.731078 0.3288467 0.19811589 -0.019516714 0.6037446 0.063502125 0.7966097 0.0726871
-0.2445815 0.45214793 0.4169122 -0.3875804 0.15835093 -0.437086 -0.20806694 0.25998795
0.013077924 -0.33254352 0.02950075 0.026238805 -0.15699767 0.12169769 -0.4756787 0.09249535
-0.07514837 0.12628207 -0.19974288 -0.1449429 -0.073971435 -0.095683955 -0.14473942 0.106783934
-0.047063213 -0.014734754 0.4273264 0.43257746 0.33110905 0.27800173 0.13725427 0.04803441
0.13054201 0.11643845 0.24337883 -0.036282968 0.26085746 0.6980054 0.4916355 0.48835325
0.47816837 -0.22652735 -0.36986402 -0.07337638 -0.0123169245 0.28628293 -0.24640952 0.19691958
0.42317355 -0.042487852 0.314663 0.04164114 -0.56104577 0.3758588 -0.42571557 -0.098443665
-0.21869132 0.06964973 -0.78751916 -0.24548781 0.28599575 0.13757344 -0.14792854 0.18388622
00000000: 9d98 0a3f 849e 213e 1414 42be 4ba4 dabe
00000010: 58b2 d83e 0b86 423d 5cc4 f0bd 6e2a 53be
00000020: 9843 703e beac 43be 7524 23be 9a75 c13d
00000030: 6354 f6be 52ad 85be 22f8 5bbf 2ffe ce3d
00000040: c15b a03d 065c 713d 963e 02bf 589d 6d3c
00000050: b5e6 c3bd f3be 42bf 7cb9 833e 5c4e d2be
00000060: 218c b0be 7a65 15bf 7742 20bd 8918 913e
00000070: c721 483e 51c8 08bf 2bfd 31bd a8ea 8ebf
00000080: 690e d73e e49c 17be 25ec 433e bb93 6fbe
00000090: a50c 84be 1199 9c3e 6e80 063f 4d80 93bd
000000a0: ddc5 00bf cf19 ff3d 6c1d 68be 5c4f 71bd
000000b0: bfb5 5d3d a5ca dfbe 75db ac3d 5a7e 76bd
000000c0: 0a8a b1be 2134 063c 4ef2 1abd 4445 5dbd
000000d0: f693 b43e 9db0 7dbe b3e4 11be 43d0 3ebe
000000e0: 90b4 dc3e 6ff9 d93d 4bcb 9c3c 7ff0 05bf
000000f0: 9554 17bf ce8d 9c3e 4898 92bd 6d90 ab3e
00000100: 9128 1a3e 4a59 cfbd 72e8 76bc b263 a3be
00000110: d1d7 40bd 9356 afbe e232 c03e 7038 86be
00000120: eed1 d33d fe4c 4fbe cb93 153f aba4 b9bd
00000130: 33da 46bd d53b 2e3e 742f e6bd ba67 81be
00000140: 64c6 ef3d 55e7 813d 8844 273d 40e6 043f
00000150: 4180 e0be 4f2f 2bbe a660 ba3c 9d7f 853e
00000160: 1075 9b3d 2788 71bb 85c7 013e f2fb 92bd
00000170: 49d2 883e 2d96 393e d447 11bf 3373 45be
00000180: 2e5e babe e8a4 bebd 97f6 02be 1ad7 c53e
00000190: 0ff6 07be 4222 223e 47f7 383e 91cf d53e
000001a0: 09d3 abbe 8990 0e3f 1986 883d a929 cdbe
000001b0: ab9d 923e ae8e f63e ca34 613f 8787 573e
000001c0: 9f50 1e3e 97e2 81bd ce44 a23e c9af 343e
000001d0: ccca fbbd e1c3 6a3e 797c b63e 21b1 8abe
000001e0: c0cf 3fbf 0739 b73d 8c0d 89bf ae2a 643c
000001f0: 3365 313f 4809 c83d 1355 873c e9bf 42be
00000200: c427 d53d 96dd e6bc fdd0 90be 2871 32bf
00000210: a009 1d3f 2641 143c 99b3 b2be 5420 503e
00000220: f712 8ebe 6c6a 02bc 7733 d53d 17de acbe
00000230: 9337 673e 2be7 9fbd 13ca 22be 07c5 26be
00000240: 3581 783f 12a7 2b3d 93e4 ac3e 60d5 cc3d
00000250: 3d90 253e dd00 1c3d b3ed 293f 5b68 a23e
00000260: 11ed 04bf 4051 0bbe 1fa1 87be ca13 24be
00000270: 512b ee3d 4de3 c1be 9a4c 6b3e 1ed2 f8be
00000280: 2bb1 abbe 05ed 6c3e 5573 973e 1430 9fbe
00000290: a6fc c93e 1efa 57bf 8470 1dbd cc33 333f
000002a0: e4df 2b3e 1700 d23d d813 653e 141e f9bd
000002b0: ee26 9ebd abe5 12be edc2 523f 0482 e1be
000002c0: a0d4 b33e ef9f 243d 789c 3fbd b034 a6bc
000002d0: a4bb 3fbf 51a0 1cbd a895 18bf af1c b3bd
000002e0: ee27 3bbf 985e a83e e4de 4a3e 84e1 9fbc
000002f0: 028f 1a3f 670d 823d 9dee 4b3f f9dc 943d
00000300: 9373 7abe ef7f e73e 8475 d53e f070 c6be
00000310: bf26 223e bcc9 dfbe 800f 55be 241d 853e
00000320: ca44 563c 2543 aabe 8fab f13c c3f2 d63c
00000330: ffc3 20be a33c f93d 298c f3be 346e bd3d
00000340: 63e7 99bd 1650 013e 6689 4cbe e96b 14be
00000350: 567e 97bd f3f5 c3bd 9236 14be 89b1 da3d
00000360: 5bc5 40bd 0a6a 71bc 87ca da3e cb7a dd3e
00000370: 2087 a93e 3e56 8e3e 628c 0c3e bbbf 443d
00000380: ceac 053e 4877 ee3d 4d38 793e 739d 14bd
00000390: 1c8f 853e 7bb0 323f a6b7 fb3e 7009 fa3e
000003a0: 7cd2 f43e c9f6 67be d15e bdbe 5b46 96bd
000003b0: edcc 49bc ad93 923e c752 7cbe 49a5 493e
000003c0: 34aa d83e be07 2ebd 821b a13e e68f 2a3d
000003d0: b2a0 0fbf 9170 c03e 64f7 d9be d59c c9bd
000003e0: 9ef0 5fbe 85a4 8e3d db9a 49bf 2861 7bbe
000003f0: 096e 923e 0de0 0c3e 947a 17be ab4c 3c3e
