Sentinel_model_weights/IKAE/best_model_2.pt (torch, 138638 bytes, 24 tensors)

invertible_encoder.bijectors.0.net.0.weight f4 [256, 10]
000000 ff 97 87 3e 55 63 02 be e2 f8 81 3e 07 43 9e 3d
       0.2648315 -0.12733205 0.25385195 0.07727628
000010 04 72 a9 3e a6 e0 11 3e 01 93 af bb eb 6c 23 be
       0.330948 0.14245853 -0.0053581004 -0.15959518
000020 c7 61 02 3e 79 21 c3 be aa 0b 0a 3e f6 e4 9d bc
       0.12732612 -0.38111475 0.13481012 -0.019274216
000030 3b 93 1e 3d 8d 72 4b 3e c4 a8 a9 3d 19 30 e8 3d
       0.03871463 0.19867916 0.082841426 0.11337299
000040 01 7e d5 3d 66 15 6e be fb 15 11 be 5a 77 c8 3e
       0.10424424 -0.2325035 -0.14168541 0.39153558
000050 0d c8 fa bd 61 3c 6b be 2a d5 cb 3d 09 1c 0a 3e
       -0.12245188 -0.22972251 0.09952767 0.13487257
000060 e3 b1 25 3e 47 30 38 3d e7 d0 90 bd ab e3 1f be
       0.1618114 0.044967916 -0.07071095 -0.15614192
000070 52 3f 9b bd bf 8c 88 3d 81 e4 a6 be 98 c7 f6 be
       -0.07580437 0.0666747 -0.3259621 -0.48199153
000080 3d b3 33 bd a2 6d 1f 3e 3d 93 61 3e b3 8a 27 be
       -0.043872107 0.15569165 0.22028823 -0.16361503
000090 22 f1 c7 3d f0 c1 02 be 6d 6f b7 bd 46 c8 c2 3c
       0.09762789 -0.12769294 -0.089568 0.023777138
0000a0 de ba 91 3d 87 7c ee be 0f 31 84 3e ff c6 18 3c
       0.0711572 -0.46579382 0.2581868 0.009324788
0000b0 d5 1f 11 3e cf 26 6b 3d ab 2a 8f 3c 46 97 35 bd
       0.14172299 0.057410058 0.0174764 -0.04433372
0000c0 e0 6f d4 3b cf 36 9c 3b f2 32 74 be 4d 4e 7a 3e
       0.006483063 0.004767276 -0.23847559 0.24443932
0000d0 8e aa 26 3e 64 bf ce 3d 9e 8f 96 be 90 b5 ca bd
       0.16275999 0.100950986 -0.29406446 -0.098979115
0000e0 93 d2 17 be 02 b5 74 3d 2e 17 15 be 7e 0e 59 3e
       -0.14826421 0.059742935 -0.14559624 0.21196935
0000f0 a4 b4 d3 bc 32 d6 b5 be c9 ab 86 bc d8 8c 83 3e
       -0.025842972 -0.3551498 -0.016439335 0.25693393
000100 7b f7 9e 3e 28 c4 0b bd 7f c5 86 3d 62 a6 b1 be
       0.31048188 -0.034122616 0.06580638 -0.34697253
000110 9b b1 3c be 0d 61 ad 3d 57 45 76 bf ff a5 d1 3e
       -0.18427126 0.084657766 -0.96199554 0.40946957
000120 a8 5d dc be 36 52 7e 3d 71 79 01 bc 17 88 60 3d
       -0.43040204 0.06209012 -0.007902489 0.054817285
000130 21 18 5e 3d cd 5b a8 be de d7 db 3d af 7b 2d 3d
       0.05422223 -0.32882538 0.10734533 0.042354282
000140 de 82 09 3f 28 f3 79 be 83 5a 81 be da 43 b1 3b
       0.5371531 -0.24409163 -0.25264367 0.0054097
000150 e7 8c 68 3e 45 3b 21 be b7 b8 0f bd 9d c8 22 3e
       0.2271 -0.15745266 -0.035088267 0.1589684
000160 84 40 e2 bd a3 88 10 bd 77 62 69 be dc 1b 93 be
       -0.11047462 -0.035286557 -0.22791468 -0.28732193
000170 16 55 ce 3d a0 fd cd 3d ce 02 8f 3e de b4 91 3e
       0.100748226 0.10058141 0.27931827 0.28458303
000180 8f f3 34 be 7c 55 17 be cb ca 03 be 7d c6 69 bd
       -0.17671035 -0.14778703 -0.12870328 -0.05707406
000190 fd 9c 37 3e 4f bd 1e be 83 a6 a2 bd 9a 48 38 bd
       0.1793098 -0.15501903 -0.07941916 -0.044991113
0001a0 34 c2 ef 3e 8d 2b dd 3c 9e 3d a6 bc 1b 4d 8b 3d
       0.46827853 0.026998306 -0.020293053 0.06801816
0001b0 f0 a1 b9 be 5b 66 85 3e 77 87 15 3f 83 53 93 be
       -0.3625636 0.26054654 0.5840983 -0.28774652
0001c0 0b 5c 06 3c 05 76 a1 bd 51 6f 19 be 1b 60 02 be
       0.008200656 -0.078838386 -0.1498387 -0.12731974
0001d0 23 f7 b0 bd 60 e6 84 3e e4 a3 51 bd dd dc c3 3d
       -0.086408876 0.25957012 -0.05118169 0.09563611
0001e0 f8 2e 08 3f 17 86 58 3e 52 a8 14 bc 4f 7d 1e 3e
       0.5319667 0.21144901 -0.009073334 0.15477489
0001f0 2e c2 9b 3e 44 cd 72 be c1 a0 28 be 68 59 2c 3e
       0.30421585 -0.23711115 -0.16467573 0.16830981
000200 f8 fe 56 be fc 27 12 be 2f 3f bf bd d0 b8 41 3e
       -0.209957 -0.14273065 -0.09338223 0.18918157
000210 10 c2 37 be bb b9 68 be 47 41 9d 3d 45 a1 5c 3e
       -0.17945123 -0.227271 0.07678466 0.21545894
000220 f1 9e 24 3e 57 60 40 be e4 33 a9 3e 8e f0 5c be
       0.16076256 -0.1878675 0.33047402 -0.2157614
000230 e3 27 e4 bd 2b be 91 be e1 5f 07 be 2a c1 fe 3c
       -0.1114042 -0.284654 -0.13220169 0.031097967
000240 c4 5c f2 3d 3b 04 3a 3e c8 8e d1 be c9 44 33 3e
       0.118341 0.18165676 -0.40929246 0.17506708
000250 a5 a7 96 3e 67 38 54 be 3b 88 de bc 22 41 b5 bd
       0.29424778 -0.20724641 -0.02716457 -0.08850314
000260 95 28 cb be c7 64 9f 3d dd d0 73 be 94 34 4b be
       -0.396794 0.07782894 -0.23810144 -0.19844276
000270 9e de f6 bd 1a 5f e6 3d b5 a8 7a 3e e0 9d 8d 3b
       -0.120541796 0.11248608 0.24478419 0.0043217987
000280 50 bb 74 be bf 1e 23 3e 70 4a 6d ba dc 53 86 be
       -0.23899579 0.15929697 -0.00090519246 -0.26235855
000290 e3 31 0b 3e 92 2b ab 3e a0 f9 9d bd a6 fa 8c 3d
       0.13593249 0.3343168 -0.07713628 0.06883745
0002a0 40 0c f2 bd 97 df a8 bd 1e cf 42 be f6 7b 99 bd
       -0.11818743 -0.082457714 -0.19024321 -0.07494347
0002b0 63 a7 02 3e 92 a3 81 bd 33 8a b5 be 4d 83 51 3c
       0.12759165 -0.06330027 -0.35457 0.012787652
0002c0 cf 45 8a be 34 ab 93 3d 21 f8 8a 3e 85 c9 de 3d
       -0.27006385 0.07210389 0.27142432 0.108782806
0002d0 ae aa e0 be 34 0e 8c be fe 43 56 3d b9 b9 08 3d
       -0.43880218 -0.27354586 0.052310936 0.033380244
0002e0 e2 58 20 bf 8d ef 52 be 82 d5 f0 bd be e8 bb 3d
       -0.62635624 -0.20599194 -0.117594734 0.091752514
0002f0 e3 c8 7d 3e 22 0d d2 3b 5c 5c 39 3e d3 84 d9 be
       0.24783663 0.006410257 0.18101639 -0.4248415
000300 87 58 04 3e 12 b1 b2 3d a9 a9 7b be 7b b7 d7 bd
       0.12924396 0.0872518 -0.24576439 -0.10533043
000310 ea 75 1c 3e 1f 46 0d be b1 29 88 3d ff 8f b5 3d
       0.15279356 -0.1379628 0.06648577 0.08865356
000320 12 6a 4b be 49 79 30 be 19 7b 7a bd 9c 55 81 be
       -0.19864681 -0.17233767 -0.06115255 -0.25260627
000330 b8 5a 5a 3d c6 6b 79 3e 8e bd 16 3e d5 60 87 bd
       0.053309172 0.24357519 0.14720747 -0.06610266
000340 0b 33 9f 3d 2a aa 03 3e 8c c4 0d bf 38 de ce be
       0.077734075 0.12857881 -0.5537803 -0.40403914
000350 52 22 15 be ee 0c 23 be a3 9b f3 be d5 9b 19 3e
       -0.14563873 -0.15922901 -0.4757968 0.15000851
000360 f9 21 5b 3d 74 4a 00 be 3d 21 d7 3d 36 f8 a4 3e
       0.053499196 -0.12528402 0.105043866 0.3222062
000370 9c 93 97 3e ec 75 be be 8c e0 c4 3e 9d ff 16 3e
       0.29604805 -0.37199342 0.38452566 0.14745946
000380 3e 6d 48 bc 47 98 6f be 7b 63 68 be 1b 69 66 3e
       -0.012233077 -0.23397933 -0.22694199 0.22501032
000390 9e c4 f9 3d 45 48 8b be 42 a9 c4 3c 94 87 e9 3d
       0.12195705 -0.27203575 0.02400649 0.114028126
0003a0 76 94 52 3e 3b 65 ad 3c 6e a4 07 be fa 10 30 3d
       0.20564446 0.021166435 -0.13246319 0.04298494
0003b0 75 3a 15 bc 55 d1 f6 bc 76 07 b9 bd 13 95 e6 3b
       -0.0091081755 -0.030129114 -0.09034626 0.007036814
0003c0 71 b7 3c bd 35 4b 28 3f 25 e3 cb be a0 71 c3 be
       -0.04607338 0.65739757 -0.39821735 -0.38172626
0003d0 21 cd 50 3f 96 61 81 3e 2d b9 00 3e 62 23 c7 3d
       0.81563 0.25269765 0.12570639 0.097235456
0003e0 a8 7c 35 bd a7 63 59 bd 19 e1 92 be a1 7b a3 3d
       -0.044308335 -0.05307355 -0.2868736 0.07982565
0003f0 8c 9d ec 3d f9 f7 cd be 5b 86 60 be 43 47 91 3e
       0.11553487 -0.4022825 -0.21926253 0.2837468

invertible_encoder.bijectors.0.net.0.bias f4 [256]
000000 00 16 fa bd 02 66 3f be a4 fd 12 bc 2d 55 8f 3c
       -0.122112274 -0.18691257 -0.008971605 0.01749667
000010 54 f3 40 bd 45 d4 d8 3c 0c 51 07 bd de 5c 62 3d
       -0.047107056 0.026468406 -0.033036277 0.055264346
000020 29 8f 37 bc 09 5d 80 3a 36 82 c0 bc 01 74 3d bd
       -0.011203566 0.0009793352 -0.02349959 -0.046253208
000030 c8 c6 92 bd 34 c1 da bd cc 04 c6 bd e6 68 75 bc
       -0.07166821 -0.10681382 -0.09668884 -0.014978623
000040 26 ae 07 bd 0f 71 64 bd 84 d5 92 3c 5d 3b 63 bc
       -0.033125065 -0.055771884 0.017924078 -0.013869134
000050 e1 7f 97 bd f8 de ef 3c c8 1b 74 bd a8 71 34 bc
       -0.07397438 0.029281124 -0.059596807 -0.011013426
000060 a5 27 35 be 90 f6 13 be a3 e0 ff bc 70 1f d9 3c
       -0.17690904 -0.14449525 -0.031235045 0.026504248
000070 fc d8 e0 bc 61 fd dc bb 65 ea a5 bd 6c 93 1a 3d
       -0.027447216 -0.0067440723 -0.08101348 0.03773825
000080 a4 2c aa 3d 4c 30 b7 bc be a9 bd bd 31 1a 29 bd
       0.08309296 -0.022361897 -0.092608914 -0.041284744
000090 f8 09 34 bc d3 02 2e bd 3c 2b e0 3c b3 8c 9d bb
       -0.010988705 -0.042483162 0.027364366 -0.0048080324
0000a0 de 86 01 be f6 f0 e0 3c dc 84 a4 bb 24 d8 cb 3d
       -0.12649104 0.02745865 -0.005020721 0.09953335
0000b0 88 23 de b9 8e cb ad bc cf 8f b8 bc d7 39 2b 3c
       -0.00042369612 -0.021215227 -0.02252951 0.010450802
0000c0 d3 18 4d be 4c 9f 17 37 df e4 57 3b a8 f9 04 be
       -0.20029001 9.037391e-06 0.0032942814 -0.12985861
0000d0 57 87 b9 bd 49 05 03 3d c2 c4 12 bc 43 2c 8a bc
       -0.09059017 0.031987462 -0.0089580435 -0.016866809
0000e0 e6 bd b9 bc 1b bf 78 bd da 0d b6 bb 64 54 4a be
       -0.022673558 -0.060729127 -0.0055558505 -0.19758755
0000f0 cc ac 82 bc 1c a2 0b bd 80 e2 71 bd dc 7d 96 bc
       -0.015951537 -0.034090146 -0.059053898 -0.018370561
000100 dd e4 d9 bc 34 47 95 bd f9 d8 3e bd a8 ba e5 bc
       -0.026598388 -0.072889715 -0.04659364 -0.028043106
000110 05 ba 7b bc ad 76 ae bd e0 f9 a2 3c cf be ec bc
       -0.015364175 -0.08518729 0.01989454 -0.028899578
000120 cd 47 ad bb e5 c3 08 3e 79 26 ae 3d 6f e7 80 3c
       -0.0052881003 0.13355978 0.08503432 0.015735356
000130 be f4 ed bc 8b 8c 34 be 10 89 77 bc 13 32 0b bd
       -0.029047366 -0.17631738 -0.015108362 -0.0339833
000140 57 5c af 3d 63 a8 3d bc a3 e4 f2 bc ce ba 97 3d
       0.08562534 -0.011575791 -0.029650038 0.07408677
000150 76 60 cf 3c a4 be a1 bc 8a 3b 84 3d 96 14 87 bb
       0.02531455 -0.019744225 0.06456669 -0.004122327
000160 f2 15 99 bd ce 41 53 bc f4 3b 1f 3c e7 da 60 bd
       -0.07474889 -0.012894107 0.009718884 -0.05489626
000170 db d2 8f bd 51 ca c1 bd ef ee 49 bd d2 17 0a 3d
       -0.07022639 -0.09462417 -0.04930013 0.033714123
000180 07 d8 23 be 0f da a1 bc d9 ec 05 bd 64 d6 0e bd
       -0.16000377 -0.019757299 -0.03269658 -0.034872428
000190 0a 26 fa 3c f7 87 cb 3d 99 3a e1 bd 06 b8 3e 3c
       0.030535717 0.099380426 -0.10997505 0.011640554
0001a0 13 5d 86 bd e7 46 f3 bc 9e ee 3a bc 71 bf 50 3d
       -0.06560721 -0.029696895 -0.01140943 0.050963823
0001b0 ab d8 49 be c8 57 34 bd bf e8 0f bd 5d 7d 94 bb
       -0.19711559 -0.044029027 -0.035134073 -0.004531546
0001c0 29 20 9c bd 67 50 6d bd 41 22 b0 3b 59 67 94 3c
       -0.076233216 -0.057938006 0.005375177 0.018115686
0001d0 74 38 27 bd 9d 83 71 be 21 91 e4 bc 18 59 13 3c
       -0.040825322 -0.23585363 -0.027901234 0.00899341
0001e0 f8 c5 95 bc ef 77 d2 bd e8 b3 46 3d 72 24 da bb
       -0.018282875 -0.10276782 0.048511416 -0.0066571767
0001f0 9f bd 9a bb 25 90 49 bd e0 92 32 3e 20 d2 22 bc
       -0.0047223116 -0.049209733 0.17438841 -0.009937793
000200 1c bd d0 3c c2 94 a2 bc 8b b0 2b bd 21 68 39 bd
       0.0254808 -0.019846324 -0.04191641 -0.04526532
000210 ea 7a 61 3d 49 99 9b bc cd fd 81 bc f4 d5 2c bc
       0.05504886 -0.01899399 -0.015868092 -0.010549057
000220 06 e9 46 be f2 cc 15 bb 37 28 ce bc 96 c4 a4 3b
       -0.19424829 -0.0022857753 -0.02516566 0.0050283177
000230 6f 0f 4b 3d eb 62 6d bc 1f 65 6a bd 15 65 a5 bc
       0.049575265 -0.014488916 -0.057225343 -0.020189801
000240 22 4e 8c bc eb 29 62 be a5 f6 20 3c cb 1e ad bd
       -0.0171271 -0.22086303 0.00982443 -0.08453139
000250 dc 1a 89 bc 06 cf ac bc 07 2d 38 bd df df 0c 3b
       -0.01673644 -0.02109481 -0.044964816 0.0021495742
000260 1f 7d 33 bd 29 e7 07 bb 81 dc 78 bd f8 74 16 be
       -0.043820497 -0.0020737147 -0.060757164 -0.14693058
000270 45 22 87 bd 0f 54 8d 3c a2 e6 03 be 45 2a 94 bb
       -0.06598333 0.017251996 -0.12880948 -0.0045216405
000280 02 bb e1 3c 5f 0b 3c be 5f ee 9d bb 77 8e 65 bd
       0.027554993 -0.18363713 -0.004819676 -0.05604407
000290 89 2b 00 be 41 36 97 3c b8 5f 71 bc 34 eb b8 bd
       -0.12516607 0.018458487 -0.014732294 -0.090292364
0002a0 43 78 26 3c 59 29 1b bc 25 81 31 bd 5b 08 6a 3e
       0.010160509 -0.009470307 -0.043336052 0.2285475
0002b0 eb f6 06 3c ac 81 03 be 73 73 62 bd 61 38 77 3c
       0.008237581 -0.12842435 -0.055285882 0.015089125
0002c0 43 1f cf bc 01 ae e0 bc c4 7c 09 3d f8 bb 24 be
       -0.025283461 -0.027426722 0.03356625 -0.1608733
0002d0 e8 c6 92 bd 8b 56 c8 3c e9 df 7c 3c 55 f2 61 bd
       -0.071668446 0.02445533 0.015434244 -0.055162746
0002e0 de 79 b2 bc ed ae ef bd bc 03 19 bd 46 d5 0f 3d
       -0.021786626 -0.11703286 -0.037357077 0.035115503
0002f0 bd 7c 23 bd 94 82 b2 3c 13 ab a7 3c dc 90 b7 bc
       -0.03991388 0.02179078 0.020467317 -0.022407942
000300 0b 83 b1 ba 2d 5f fc bb c2 50 eb 3d df bb 40 bd
       -0.0013543082 -0.0077017755 0.11490013 -0.047054168
000310 33 1c 04 bc 7f 0e 13 3c e3 82 1c 3c 60 cc 98 bc
       -0.008063364 0.008975624 0.00955269 -0.018652141
000320 4f b0 a3 3d b5 62 03 3e 38 55 81 bc 06 bf 1e bd
       0.079926126 0.12830622 -0.015787706 -0.038756393
000330 c5 3f 82 3d 03 04 00 bd 4d cf 96 bb e1 c9 a3 bd
       0.06359819 -0.031253826 -0.004602349 -0.0799749
000340 74 2b 12 be e0 30 c3 3d 07 03 a5 bd 7d 8b 88 bd
       -0.14274389 0.095308065 -0.08057218 -0.0666723
000350 99 23 8b bc 6b f7 e4 bc 5a e2 43 bb d0 79 90 3c
       -0.016984748 -0.02795001 -0.0029889555 0.01763621
000360 e0 80 9e bd 67 6c 41 bd 4f aa 32 be 9d 2d 38 3d
       -0.07739425 -0.04722252 -0.1744778 0.044965375
000370 a1 b2 ef bd e7 b9 c5 bc a5 18 a7 bc 8e de 7d bd
       -0.11703993 -0.024136497 -0.020397494 -0.061979823
000380 cc 87 3e bd 88 49 8b 3b d4 69 ae bc 08 3d d6 3c
       -0.046516225 0.004250709 -0.021290697 0.026152149
000390 da 17 c3 b9 53 72 94 bc fa 33 01 bd e4 4f b8 bc
       -0.0003721107 -0.01812092 -0.03154371 -0.022499032
0003a0 4d 5d 12 3e c5 2b 93 bc 03 0c e8 3d 63 3a 98 bc
       0.14293404 -0.017965207 0.11330416 -0.018582528
0003b0 92 b0 16 be 31 9b a0 bc e7 c3 50 bd 6c e0 28 bd
       -0.14715794 -0.019605251 -0.050968077 -0.04122965
0003c0 0e 70 56 3c 71 6b 3f 3b 1d 3a e4 3c e2 89 46 bc
       0.013088239 0.0029208327 0.027859742 -0.012117835
0003d0 b0 97 fd 3d 37 ee 96 bc 74 98 2d 3d d2 98 43 3d
       0.12382448 -0.018424137 0.04238172 0.047753163
0003e0 2b 5c 89 3c 9a ab 75 bd 8b b9 44 3d 5f 69 20 3c
       0.016767582 -0.059978105 0.04802851 0.009790747
0003f0 4e ef 14 3d e1 46 91 3c a5 7f 39 3e 58 6f 01 bc
       0.03636103 0.017733993 0.18115099 -0.007900082

invertible_encoder.bijectors.0.net.2.weight f4 [10, 256]
000000 fd 7a 04 3c 9d 96 90 bc 28 c1 a4 bc 3e 71 b8 bc
       0.008085963 -0.017649943 -0.020111635 -0.022514936
000010 09 df d3 bb da 54 92 3b 8e e5 93 bc 91 5c 47 3d
       -0.006465797 0.0044656815 -0.018053796 0.048672263
000020 82 b5 80 bc 5c 3c bd ba dc 84 91 3a 4a 18 90 bc
       -0.01571155 -0.0014437544 0.0011102217 -0.017589707
000030 00 ca a1 3a 45 eb 58 3d 07 5d ab bc d4 2d a2 bd
       0.0012343526 0.052958746 -0.020918382 -0.07918897
000040 85 58 23 3c 05 b3 9f bd 71 3b 6c bd 72 cd 66 bd
       0.009969835 -0.07797817 -0.057673875 -0.05634827
000050 8b 63 90 3a fd 8d e8 bc b7 af 8b bc 87 54 e6 bc
       0.0011015994 -0.028388018 -0.01705156 -0.028116478
000060 00 26 4e 3d e0 a2 37 3d 61 1b 60 bd a5 58 aa b9
       0.05032921 0.044833064 -0.05471361 -0.00032490972
000070 6a e3 68 3d d4 b4 71 3c bb c4 e0 bc dc 48 ed bc
       0.056857504 0.014752585 -0.027437558 -0.028965406
000080 ba 6c d6 bc 37 00 ed bc db 13 45 bd 1b 5f d7 3c
       -0.026174892 -0.028930767 -0.04811464 0.026290467
000090 2b 2d 76 bd 8c 3e 0a bd d9 ff 15 bd c3 d7 40 3c
       -0.06010167 -0.033751056 -0.03662095 0.011770192
0000a0 b4 c4 0d be fe 31 68 bc 82 2a cd 3b af 77 58 3d
       -0.13844568 -0.014172075 0.006261171 0.052848514
0000b0 57 d2 52 3a 00 17 9f bb ac 51 7f bc db 83 54 bc
       0.00080422073 -0.0048550367 -0.015583437 -0.01297089
0000c0 f1 ba 33 3d e7 fb f4 3b a5 01 b3 bd a2 99 c5 3b
       0.043879453 0.007476318 -0.08740548 0.0060302773
0000d0 6d 72 29 3c 6e 86 e3 bc 47 3a 5d 3c a4 52 52 3c
       0.010342223 -0.027774062 0.013502664 0.012837086
0000e0 0a f8 ca 3c 69 4c 30 3b 3b 74 47 3c db fb ee 3a
       0.024776477 0.0026901013 0.012173708 0.0018233018
0000f0 2b 57 80 bc 95 48 a9 bc 19 74 1d ba 8d 56 55 bc
       -0.015666565 -0.020664493 -0.00060063746 -0.013021124
000100 50 5a 05 3d 41 d7 0e 3c 00 0a 02 bd fe 52 84 ba
       0.03255683 0.008718313 -0.031747818 -0.0010095534
000110 3c 21 f9 ba 77 dc 7f bb 75 64 cc 3c 61 92 1c bc
       -0.0019007097 -0.003904132 0.024950245 -0.009556384
000120 60 72 0c bc fe 1d 47 3b 88 df 39 bd 5c d9 02 bc
       -0.008572191 0.0030382867 -0.04537919 -0.007986393
000130 9c 1a 42 bc 4f ad 19 3d 86 31 fe bb dd 80 4f 3d
       -0.0118471645 0.037518796 -0.0077573685 0.050660003
000140 5c bc 39 3d 14 6a a4 bc 42 11 5b 3c f7 47 af bc
       0.04534565 -0.020070113 0.013370814 -0.02139662
000150 a9 ab 1e bd 6d 4e 33 bc 69 58 41 3c dc 0c 10 bb
       -0.038737927 -0.010943991 0.011800864 -0.002198032
000160 b3 f5 33 3b dc 94 85 bc 2f 1e 2a bd 9d e6 80 bb
       0.002745968 -0.016306333 -0.04153269 -0.0039337412
000170 1b 2b d1 bc 6c 91 a4 3b b0 95 5d 3d 93 8c 04 bd
       -0.02553325 0.0050222185 0.05409783 -0.032360625
000180 7f 23 62 bd 65 ad 02 bb 99 68 b1 3a 86 e1 80 bb
       -0.055209633 -0.0019939777 0.0013535201 -0.0039331345
000190 38 59 0b bc 0c d9 0a be 2e e1 8b 3c 0f ea 97 bc
       -0.008505158 -0.1355936 0.017075147 -0.018544225
0001a0 eb 2b 54 3d 86 3c 85 3c a1 44 85 bd 5d 06 df bc
       0.051799696 0.016264211 -0.065072306 -0.027224714
0001b0 41 db ae 3c c2 a9 08 bd f8 7c 13 bc 57 1f c1 bc
       0.021344783 -0.03336502 -0.009001963 -0.023574514
0001c0 7b 90 87 3d e4 7c 0d 3c ca f2 0d bc 10 ff d6 bc
       0.06619354 0.008635733 -0.008663842 -0.02624467
0001d0 9b e6 c5 bb 92 6f b2 b7 29 ff aa ba 1f e6 e9 bb
       -0.006039453 -2.1271208e-05 -0.0013046014 -0.0071380283
0001e0 ae 3b 0d 3b c7 c6 a8 3c 8b 5b 58 bd 36 48 27 3c
       0.0021550464 0.020602597 -0.052821677 0.0102100875
0001f0 a0 1a 95 bc a0 86 3a bd 24 62 05 bd 0b 29 86 3b
       -0.018201172 -0.045538545 -0.032564297 0.004094248
000200 40 9a a8 bb cf 9f 5e 3c 39 0c cd 3c 77 99 54 3d
       -0.005145341 0.013587906 0.025030242 0.051904168
000210 75 f4 44 3c 10 f6 a2 bc b8 be 88 3c 1f 55 1c 3c
       0.012021174 -0.019892722 0.016692504 0.009541779
000220 bc e6 03 3b 6e 21 7f bc 12 9b e1 bb 54 fe 4e 3b
       0.0020126542 -0.015571935 -0.006884941 0.0031584697
000230 fe 81 69 3c e8 81 b1 3d f5 f9 06 3d 8b 1b 24 be
       0.014252184 0.08667356 0.03295322 -0.16026132
000240 a4 77 ab bc e5 81 7c bc 25 a0 f0 3b b9 51 c4 bb
       -0.020931073 -0.015411829 0.0073433095 -0.0059911874
000250 45 96 2c 3d 69 39 cc b9 40 9c d1 bc 68 75 90 bc
       0.042135496 -0.00038952686 -0.025587201 -0.017634109
000260 d5 34 99 bc f5 05 70 3d ad f7 ac bc c4 1e ef 3b
       -0.01870195 0.05859943 -0.021114195 0.0072973687
000270 1c f2 b1 bc d3 8d f4 3c 11 cb 9a 3d 4b 16 58 bc
       -0.021721892 0.029852783 0.07558263 -0.013188909
000280 50 bb b5 3c b3 5b d0 bb 8f 06 07 bd ae 5d 8e 3c
       0.022184044 -0.0063585876 -0.03296524 0.017378654
000290 e6 ce 60 bc e1 c4 a5 bd 08 e1 55 3b b8 7f 64 3c
       -0.013721203 -0.08094192 0.003263535 0.013946466
0002a0 db 8b 06 bc 70 33 a7 bc 44 2e 1c bc 6f b0 3c bd
       -0.008212055 -0.02041027 -0.009532515 -0.046066698
0002b0 23 93 38 bb 4f 52 f9 3a 82 44 1f 3d 3c b9 05 bc
       -0.0028163872 0.0019021722 0.038883694 -0.008161839
0002c0 6b 9e 83 bb 7c 4b 87 38 1d 28 5e bd bc 1b 66 3c
       -0.0040166876 6.451362e-05 -0.054237474 0.014044698
0002d0 83 20 43 3d af f6 de bc 29 5c 66 bd 98 57 4b bc
       0.047638427 -0.027217237 -0.056240235 -0.012411021
0002e0 21 e9 ad bc d1 b1 82 bd c7 28 e9 3c 03 85 49 3c
       -0.021229329 -0.06381572 0.028461827 0.012299779
0002f0 a0 b7 63 3a f9 90 83 bd 5c 61 11 bd a3 6f 82 bc
       0.0008686725 -0.06424136 -0.03549324 -0.015922373
000300 2a 84 bc 3d 12 16 91 b9 ca 00 75 bd 26 15 8b 3c
       0.09204896 -0.00027673 -0.059815206 0.016977858
000310 3c ab 99 3c f7 af 85 3c 57 54 b3 bc 65 0e 85 bb
       0.018758409 0.016319258 -0.021890802 -0.004060554
000320 e1 92 52 be b8 1b 1c be ba 2b 24 bc bb 97 ea 3b
       -0.20563842 -0.15244949 -0.010020191 0.007159201
000330 4d ac 95 3c d3 71 be bc 04 35 05 3b 5e 38 bf bc
       0.018270636 -0.023247635 0.002032579 -0.023342308
000340 c0 14 7a 3c 24 3f 8c bb 81 de ad bb 00 ea 93 bc
       0.015263736 -0.004279988 -0.0053060655 -0.018055916
000350 ce 4b 1c bd 10 a5 bd bb 1b 68 0c 3b b6 91 91 bc
       -0.03815823 -0.0057874992 0.0021424356 -0.017769676
000360 68 21 b1 3d ec fa 08 bc b8 9e 9d b7 23 4b b6 3d
       0.0864895 -0.008360606 -1.8789768e-05 0.0890105
000370 ef d4 20 3c 90 4d 84 bc e5 04 b3 3c 13 cc 4e bd
       0.009816392 -0.016150266 0.02185292 -0.05048759
000380 41 3a ae 3c af bc 61 bc 9f 9f 08 bd 9b 79 a4 bc
       0.021268012 -0.013777896 -0.03335535 -0.020077517
000390 03 61 d1 bb f5 41 fb bb ec a3 c6 3c 7b 12 61 3b
       -0.0063897385 -0.007667775 0.024248086 0.003434329
0003a0 28 83 80 3c 6c fe 13 3d ec a5 a6 bd 94 c9 9d bc
       0.01568754 0.036131307 -0.08137116 -0.019261159
0003b0 a3 9c 16 bd 3f af 7d bc 06 f4 06 3b 3c 0b 20 bc
       -0.036770474 -0.015483676 0.0020592227 -0.0097683035
0003c0 50 be 94 bc 73 0d 29 bd c8 5e 49 3b 74 73 35 bb
       -0.018157154 -0.04127259 0.003072666 -0.0027687224
0003d0 6b 67 69 bb 21 5a a2 3b 53 3a c6 bd bb 76 0f bd
       -0.003561462 0.004954592 -0.09679093 -0.03502534
0003e0 12 b4 73 bc b3 9d 1e 3c ee 97 9d bb 73 88 bc 3d
       -0.014874475 0.009681153 -0.004809371 0.09205713
0003f0 ed 1b c0 bc de 21 1c be f6 d7 ed bc 85 15 e2 3b
       -0.023450816 -0.15247294 -0.029033642 0.006899538

invertible_encoder.bijectors.0.net.2.bias f4 [10]
000000 79 3e 06 3c 74 6b 00 3d 9b f4 a5 bc e0 4f d8 39
       0.008193606 0.031352475 -0.020258239 0.00041258242
000010 53 93 55 bc b1 81 4c bc bf 75 bc 3c f4 83 63 3b
       -0.013035613 -0.012482093 0.023005364 0.0034716101
000020 78 a8 fd bc 8d 20 5c 3c
       -0.030964121 0.013435495

invertible_encoder.bijectors.1.net.0.weight f4 [256, 10]
000000 e1 80 25 be 76 da ba be af a6 21 3f 0c 78 32 3f
       -0.16162445 -0.36494797 0.63144964 0.69714427
000010 a3 41 6f 3d 72 8a 98 bd 94 5f af be 2b ba 74 be
       0.058412205 -0.07448281 -0.34252608 -0.23899142
000020 e7 25 93 be 01 7c 9c bd 2e 77 2b 3d 7c e1 c1 3d
       -0.28739855 -0.07640839 0.041861705 0.09466836
000030 d9 e9 ca 3d 0c 7c 0d 3e 73 26 d6 3e 06 65 1a 3e
       0.09907884 0.13816851 0.4182621 0.150776
000040 8b 68 69 3e 19 ff 6a be 52 a9 85 3d 5f 92 b3 3e
       0.22793786 -0.22948875 0.06526436 0.3507261
000050 19 29 0d 3f 0f 67 fa 3e 61 90 01 3f 28 0f 94 3e
       0.55140835 0.48906752 0.5061093 0.28917813
000060 fb d1 8b bd bf bb a9 3e a8 90 ab 3c e6 7a 41 3f
       -0.0682716 0.3315105 0.020943 0.75578153
000070 6a ee e7 3e 87 8b 75 3e 3a 23 eb 3e a8 a0 37 3d
       0.45299083 0.23979007 0.45925313 0.044830948
000080 72 f4 ad bd 8a 7b 9c 3d e4 26 ba 3d 3c 3c 06 bf
       -0.0849389 0.07640751 0.09089449 -0.5243566
000090 4e 9b d8 be 0f c4 61 bf 56 4d 49 bf 63 cf 26 be
       -0.42305988 -0.88189787 -0.7863363 -0.16290049
0000a0 78 d0 cd bd a7 cb 83 3e 44 af cc be b5 c4 d2 3e
       -0.10049528 0.25741312 -0.39977467 0.411657
0000b0 e7 e6 2d bf 20 f4 8f be b7 b1 b0 bc e4 ce 6b be
       -0.67930454 -0.2811594 -0.021569116 -0.23028141
0000c0 30 c7 fa 3d 47 9c 87 3e d5 07 01 bf 0d db ee be
       0.12245023 0.26486418 -0.50402576 -0.46651497
0000d0 19 30 db bd 9a ff 0f 3d 8f ab 3b bd 52 c9 04 3f
       -0.10702533 0.03515587 -0.045817908 0.5186969
0000e0 65 ae d3 bd 4b 27 ed bd 41 94 2f 3f 83 71 1d 3f
       -0.103359975 -0.1157976 0.6858559 0.6150133
0000f0 13 80 23 bf f1 d2 e4 3e 2b 5b cb be 4a 6b 4f be
       -0.638673 0.44692186 -0.39717993 -0.20255771
000100 b9 fe b6 bd 1a 3d c2 3d 27 d7 01 bf 57 b8 49 be
       -0.08935303 0.094843104 -0.5071892 -0.19699226
000110 ff 50 14 bf 19 da c9 3e 9e 30 98 bd c1 3f 40 be
       -0.5793609 0.39424208 -0.07431148 -0.1877432
000120 df 1b bb 3e 04 31 60 be e8 f3 49 3f 0d 4f e2 bd
       0.365447 -0.21893698 0.78887796 -0.11050234
000130 e2 1c 2a 3e de 98 6b 3e cc c4 28 3e fb a3 b7 be
       0.1661258 0.23007533 0.16481322 -0.35867295
000140 97 72 26 3f 91 62 fd 3e ac a4 93 3d 20 10 1c 3e
       0.650186 0.49489263 0.07209143 0.15240526
000150 74 bf 88 bf 4a fe a0 bd 21 43 9f bd 9b 99 ff be
       -1.0683427 -0.07861002 -0.07776476 -0.4992188
000160 00 76 df be 47 ff 17 bd 71 fa 5f bf dd 16 15 3e
       -0.43644714 -0.037108686 -0.8749152 0.14559503
000170 8e da 86 3c 25 b1 72 be 99 f9 24 3d 97 0a e8 be
       0.016461637 -0.23700388 0.040277097 -0.4532058
000180 f6 48 3a be de 91 51 3e fa 53 35 bf 8f 89 ea 3e
       -0.18191895 0.204658 -0.70831263 0.45808074
000190 ad 02 0b be 68 e8 f3 be 65 81 cb be 7a 92 18 3e
       -0.1357524 -0.4763825 -0.39747158 0.14899626
0001a0 17 39 e4 be 61 1f e4 3d 0b 00 fb bd 2e 12 54 bf
       -0.44574806 0.111387976 -0.122558676 -0.8284024
0001b0 de f1 86 bf 55 ea 48 3e 97 9b 58 be 4d 9f 10 3d
       -1.0542562 0.1962064 -0.21153103 0.03530817
0001c0 94 e5 e8 be 96 14 0f 3f ba 47 43 bf 7e a3 3c bf
       -0.45487654 0.55890787 -0.7628132 -0.7368697
0001d0 d9 e3 68 be ff 97 42 3d 76 73 06 bf a8 ed b7 3d
       -0.22743167 0.047508236 -0.5251993 0.08980876
0001e0 c1 e1 58 bf 30 c3 ba 3e 62 7a 6c 3c 9c ae 7b 3e
       -0.84719473 0.3647704 0.014433475 0.24578327
0001f0 f4 e5 16 bf 1a eb d5 be 18 0f a8 3e 58 0b 9e bd
       -0.5894463 -0.4178093 0.32824016 -0.077170074
000200 ea bf 83 3f 21 e4 29 bf f8 cb 49 3e 87 76 60 be
       1.0292943 -0.6636372 0.19706714 -0.21920215
000210 34 eb 37 3e a9 8c 3f be d3 47 72 3f 0f fb 46 3e
       0.17960817 -0.18706001 0.94640845 0.19431709
000220 3d 55 95 be 04 ab 5e bf 45 2c 03 be a2 70 8b 3e
       -0.29166594 -0.869797 -0.12809856 0.2723437
000230 8e 0d 7b 3e 57 5e af 3e 87 05 e0 be 45 86 74 be
       0.2451689 0.34251663 -0.43754217 -0.23879345
000240 67 53 9f be 61 cc 17 be 8b ac 18 3e c9 14 8b 3e
       -0.31118318 -0.14824058 0.1490957 0.27164295
000250 00 12 e4 3f e9 78 f4 bd a1 64 ec 3e 61 a7 38 be
       1.7817993 -0.11937124 0.46170524 -0.180326
000260 d4 cb 12 be 00 97 21 3e 9b 54 37 be 8d b2 1d 3d
       -0.14335567 0.15780258 -0.17903368 0.038500357
000270 2b 5c ba 3e 92 88 ce bc cd 4d e1 3e da 87 e2 be
       0.36398444 -0.025211606 0.4400467 -0.44244272
000280 33 36 88 be 9f 38 a2 be 85 a5 56 be 48 2a 21 3e
       -0.2660385 -0.31683823 -0.20961578 0.15738785
000290 2c 3f 5d bf ee 32 d4 bd b5 8b 94 be 7d 7f 9b 3e
       -0.8642452 -0.103612766 -0.29012838 0.30370703
0002a0 7c 0d 42 3d 83 79 7c 3e 49 d8 5d 3c 5c 23 6b be
       0.04737614 0.24655728 0.013540336 -0.22962707
0002b0 78 0a 7a be 2d 6e 64 be 63 73 fa be 1f 0a 62 bf
       -0.24418056 -0.22307654 -0.48916158 -0.88296694
0002c0 69 fc 55 be b2 e8 c2 3e 88 06 e8 3c 6b 4a 6f 3f
       -0.20897068 0.38068157 0.028323427 0.9347293
0002d0 d4 11 4f bf 7c ad 3e 3e 4a 60 74 be 82 90 82 3d
       -0.8088658 0.18620867 -0.23864856 0.06375219
0002e0 19 54 b6 3e 26 34 b8 be 03 2f 27 be d1 a9 82 3d
       0.35611036 -0.35977286 -0.16326527 0.06380046
0002f0 5f ce d1 be 3a 60 c0 3d 8a 2b a9 be 75 44 75 3e
       -0.4097776 0.09393354 -0.3304103 0.23951896
000300 55 82 d7 be d5 9e da 3e d3 b3 8e 3e 51 53 ae be
       -0.42091623 0.42699304 0.2787157 -0.3404794
000310 65 f8 95 be c6 a6 70 3c 22 c4 f6 bd f1 5a be be
       -0.29291072 0.014688199 -0.12049128 -0.37178758
000320 7f 92 82 be 1e 21 09 3f 2b 7c 67 be f5 60 37 3c
       -0.25502393 0.5356616 -0.2260596 0.01119255
000330 27 03 ba 3e 13 cd b7 bd ad 67 12 3e 53 aa da 3e
       0.3633053 -0.08974662 0.14297362 0.42708072
000340 5a 73 b8 bd 80 a1 ba bc 7a 95 49 be 5f 0d 08 bf
       -0.090063766 -0.022782087 -0.19685927 -0.531454
000350 75 5e 46 be ff 7c 0d bc b3 84 cb 3e b8 6a f2 3d
       -0.1937197 -0.008635758 0.3974968 0.11836761
000360 14 b3 df 3d ce 8c d2 bd cc b8 00 3f f5 15 a5 bd
       0.10922828 -0.102807626 0.5028198 -0.080608286
000370 b5 72 07 be 1a f0 27 be ea 64 78 3e e4 1c c9 3e
       -0.13227351 -0.16400185 0.24257246 0.39279854
000380 e2 51 06 bf 87 f6 a1 bd 0a 5a 6e be c7 99 c2 be
       -0.52468693 -0.079083495 -0.23276535 -0.38007948
000390 dd 90 5d 3e 0b ea 95 bd 1f 99 da be b0 a6 d8 3e
       0.21637292 -0.07320031 -0.42694947 0.42314672
0003a0 12 18 63 be 45 8d 9b be 82 a5 c2 be 50 cc 1d bf
       -0.22177151 -0.30381218 -0.38016897 -0.6163988
0003b0 d2 c3 8a bd 7f 80 41 bf 44 03 1d 3f 75 44 6a be
       -0.06775631 -0.75586694 0.6133311 -0.22877677
0003c0 07 3d a0 3e 26 21 86 be f4 bd 69 be 83 ca d9 be
       0.3129656 -0.26197165 -0.22826368 -0.42537317
0003d0 f3 f2 cd 3e 27 17 a5 3e 49 74 03 3e e9 d6 0f be
       0.40224418 0.32244226 0.12837328 -0.14046825
0003e0 fe 1e 92 3e c8 a2 bc 3e 09 f0 0b 3e 7d bb 6c be
       0.2853927 0.36842942 0.13665785 -0.23118396
0003f0 6e 13 0c bd 58 84 58 be 7a c1 1a 3d 45 57 8f 3e
       -0.034198217 -0.21144235 0.03778217 0.2799627

invertible_encoder.bijectors.1.net.0.bias f4 [256]
000000 33 20 4e 3c ce 77 ec bc fe 01 22 bc 20 34 89 ba
       0.012580919 -0.028865721 -0.00988817 -0.0010467805
000010 ea 95 42 bd c8 ab 3a 3d 65 9b a9 bd fc f1 d6 3c
       -0.04750625 0.04557398 -0.08281592 0.026238434
000020 88 7b 8f bd 2e 65 d5 bd 38 75 b2 bc 8d db a1 bd
       -0.070059836 -0.10419689 -0.02178441 -0.07903204
000030 1d ef b6 bc da 49 2b 3d 1e d4 02 bd be eb 7c 3d
       -0.022330815 0.041818477 -0.031940572 0.06174826
000040 b2 3c 28 bb 13 6d 80 bd 71 b4 9f bd 91 50 39 bd
       -0.0025670943 -0.06270804 -0.07798088 -0.04524285
000050 59 73 05 be 1c df 45 3d 52 c6 36 3d 1c 35 72 bc
       -0.13032283 0.048308477 0.044622727 -0.01478317
000060 0b ec ab 3c 50 d6 e0 bc 1f 8a 34 bd f1 7d 38 bd
       0.020986577 -0.027445942 -0.044077035 -0.045041982
000070 b1 30 c0 bc df bb 6e bd d5 f0 02 be 57 c0 7e bd
       -0.023460718 -0.058284637 -0.12787183 -0.06219515
000080 57 4b 19 3d 9f 5e 55 bd be bc 5e bd c3 e3 bd bc
       0.037425365 -0.05209219 -0.054379217 -0.023179894
000090 e5 38 d9 3b 21 1e 21 3d 4b ef 07 bd 12 f4 45 3d
       0.006629097 0.039335374 -0.033187192 0.048328467
0000a0 9d 7f 6b 3d f6 3a 8f bd b7 bf 8e bd 7a 65 b5 3c
       0.05749475 -0.06993668 -0.069701605 0.022143114
0000b0 d2 28 6f 3d 0b 8e 06 bd b3 46 ce 3c 41 0b 19 3d
       0.05838854 -0.032850306 0.025180196 0.03736425
0000c0 f4 f7 b4 bb 6b 5b 18 3d c0 e3 1c bd c7 d8 c9 3d
       -0.0055227224 0.037196558 -0.038303137 0.098558
0000d0 06 72 1f bc 9d 52 3b 3d 36 6b 23 3d 42 2d 09 3d
       -0.009731775 0.045733083 0.039897166 0.033490427
0000e0 5b 96 0f bd aa 6a 41 3d 97 22 25 bd 8b 6a b8 3b
       -0.0350555 0.047220863 -0.04031619 0.0056279353
0000f0 0d 59 6a bd c9 88 88 bd 1e 1b 10 3d 9f ae f2 bc
       -0.05721383 -0.06666715 0.03518211 -0.029624281
000100 d7 eb b8 bd c5 9e 0e 3c 59 b0 2b 3d 0e 45 0c bd
       -0.09029358 0.008704846 0.041916225 -0.034245543
000110 71 70 0a bd d3 6b cc bc 72 c2 8f 3d 26 00 b3 bc
       -0.03379864 -0.024953758 0.070195094 -0.021850657
000120 d1 c4 86 bd 80 8d b8 3d 5f ae 96 3c bf c2 bb 3d
       -0.065805085 0.09011364 0.018393693 0.09168004
000130 4f 8d f8 bc 26 69 2c 3d 71 23 06 3d 4c f7 f1 bc
       -0.030340819 0.042092465 0.032748643 -0.029536866
000140 29 f5 d3 3c 46 d7 48 3d 43 1e 4e bd 18 1f ef 3c
       0.025873737 0.049033426 -0.05032183 0.029189631
000150 a6 7b 8c bc 60 7e 16 bd b4 3c b1 bd c9 32 10 3d
       -0.017148804 -0.036741614 -0.08654156 0.035204682
000160 20 08 41 bc ed 04 b3 bc 93 ef da bd e6 f3 2f 3c
       -0.011781722 -0.021852935 -0.106902264 0.010739302
000170 48 f9 c9 3c 51 3c b2 3d 3d d4 a5 3c 37 8b af 3d
       0.024655 0.08702911 0.020242805 0.08571475
000180 e4 7f c9 bc be 73 10 bd 86 be 63 3a 95 d2 c4 bb
       -0.024597116 -0.03526663 0.0008687753 -0.0060065486
000190 a7 39 ad bd 8a 91 8f 3d 9a 12 b8 3c 2c a6 80 bd
       -0.08458262 0.07010181 0.022469807 -0.06281695
0001a0 b7 02 1b 3d 99 9d d2 3b 7e ef 29 bd d6 3d 1f bd
       0.037844386 0.0064274785 -0.041488163 -0.03887733
0001b0 47 2e 01 bd 07 fb b7 3c e0 d8 b8 bd f9 10 6d 3d
       -0.031538274 0.022458566 -0.090257406 0.057877515
0001c0 53 4a 37 bd 0e bd 5e 3c 3c 7b 01 bd a8 56 b8 bc
       -0.044748615 0.013594879 -0.031611666 -0.022502258
0001d0 14 33 93 bc 16 eb 7b bd 12 ea 5d bd ef 97 d9 bc
       -0.017968692 -0.061503492 -0.054178305 -0.026561705
0001e0 cc bb 72 3c 9a 19 0b 3d 6c b5 f3 39 34 9f 0f bd
       0.014815282 0.033959962 0.00046483742 -0.035063937
0001f0 2c e2 3c be cc 31 b7 3c 81 34 d2 3c 2d e9 ab bb
       -0.18445653 0.022362612 0.025659801 -0.0052463026
000200 54 12 f4 3b 89 a4 c7 3c 6d 77 77 3d e8 42 a3 bd
       0.007448474 0.024370449 0.060416628 -0.07971746
000210 96 cf 09 be 45 a0 2a 3d 33 07 b9 3d 1e ca 50 bd
       -0.13458094 0.04165675 0.09034576 -0.050974004
000220 d9 d8 a7 bd 62 bc b0 3c aa 2c d0 bb b6 74 14 be
       -0.08195657 0.021574203 -0.0063529806 -0.14497647
000230 a3 39 f9 bc 16 a8 60 bd 61 4e 10 bd fb 19 bd 3c
       -0.030422991 -0.0548478 -0.035230998 0.023083678
000240 72 bb 61 3d c9 78 5c 3c 13 cf 04 3b de bc 34 3c
       0.055110402 0.013456532 0.0020265027 0.011031358
000250 f1 3e 3d 3d 00 25 e1 bb 08 6b 97 bd c1 87 b4 3b
       0.046202604 -0.006870866 -0.073934615 0.005509347
000260 ba ea 05 bd cb 8a 13 3d e2 ba 9c bd e6 46 a0 bc
       -0.032694556 0.036021035 -0.076528326 -0.019565057
000270 cf af c3 3c d7 d1 b6 3c a8 c8 17 3d 11 45 22 3d
       0.023887543 0.022316856 0.037056595 0.039616648
000280 84 98 cc bc a0 38 c3 ba 1e 6f 2b 3d 59 38 38 3c
       -0.024975069 -0.0014894195 0.041854016 0.011243903
000290 42 87 f2 3c 62 ef 48 3d fa 93 d4 3c 8a 0a ab bd
       0.029605512 0.04905642 0.025949467 -0.083516195
0002a0 bc c0 ea bd d2 a0 0c 3c 10 f5 c3 bb 70 44 3d bd
       -0.114625424 0.008583264 -0.0059801415 -0.046207845
0002b0 bd d0 5e bd c8 ab 46 bd a2 10 95 3d f8 c6 9c 3d
       -0.054398287 -0.048503667 0.07278563 0.07655138
0002c0 d0 3a 79 ba c8 94 aa 3c 20 e8 50 bd d0 df 8e bc
       -0.000950736 0.020822898 -0.05100262 -0.017440706
0002d0 ac 18 2a 3d a6 96 9b 3c de 11 9d 3b 8b bd 8c 3c
       0.041527435 0.018992733 0.0047933897 0.017180225
0002e0 ff 35 3b 3c 1f 76 e1 bc 57 66 d9 3c 4c 22 a6 bb
       0.011426448 -0.027522145 0.026538057 -0.0050700065
0002f0 f1 24 80 bd 43 be 97 bc f9 e7 0a bd 21 f8 d8 3c
       -0.06257046 -0.018523341 -0.033912633 0.026485505
000300 a8 e0 6f bc 81 b5 ce 3c 37 61 9e 3c 00 4f 03 bc
       -0.014640965 0.025233032 0.019333465 -0.008014441
000310 79 e8 db 3c 89 c5 2a 3d a8 a1 37 bd 66 44 93 bc
       0.02684425 0.04169229 -0.0448319 -0.01797695
000320 2a 71 dc 3c 15 e5 58 bc 54 2c 1c 3c cc 62 77 bb
       0.02690943 -0.013238211 0.009532053 -0.0037748097
000330 70 ac 13 3c 37 58 12 3e 2b 09 54 3d 0d 00 c2 3d
       0.00901328 0.14291464 0.051766556 0.09472666
000340 ea 53 ae bd 8f 8b 08 3c 18 a5 24 3d b9 c7 8e 3c
       -0.08512099 0.008334055 0.04019651 0.01742922
000350 1b 11 8f bc d1 b6 0c 3d 8e 9d 78 3c 81 54 09 3d
       -0.017464211 0.034354035 0.015174283 0.033527855
000360 42 15 b5 b9 f1 a0 be 3c 94 ba ac bc 2c b3 2d 3d
       -0.0003453885 0.023270102 -0.021085061 0.0424072
000370 8e fb 30 3d 55 1e fe 3c e5 e9 4c bd 57 bf e7 3c
       0.04320865 0.031020323 -0.050027747 0.02828948
000380 a1 55 b6 bd fb 3b d3 bd dd 10 fb bc 6d 9e ad bd
       -0.08903051 -0.10314175 -0.03064769 -0.08477483
000390 88 37 06 3d b1 70 16 bd 45 cb 62 bd 1d e2 a1 bc
       0.032767802 -0.036728565 -0.055369634 -0.01976114
0003a0 7d 11 80 bd 8a b2 9f 3c cc 3f 05 3e 01 de 69 3d
       -0.062533356 0.019494314 0.13012618 0.057096485
0003b0 56 37 55 bc 19 a9 65 bd 70 bb 91 bc 8a 7d 8b 3c
       -0.013013681 -0.056069467 -0.017789572 0.017027635
0003c0 9c 6e 0a bc 59 06 52 bc a5 90 24 3b e2 db 04 bd
       -0.008449223 -0.012818896 0.002511063 -0.03243626
0003d0 cc 03 d1 bc c4 73 3d 3c ca 30 d9 3c fa 7c 0c 3c
       -0.025514506 0.011563245 0.026512522 0.008574719
0003e0 99 78 d0 3b 35 c7 63 3d dd 57 49 bd 3e 6d 10 3c
       0.0063620326 0.0556099 -0.04915606 0.008815108
0003f0 db fe a2 ba 78 9c 20 3d dd 11 56 bd 46 e3 0e 3d
       -0.0012435572 0.03921172 -0.05226313 0.034884714

invertible_encoder.bijectors.1.net.2.weight f4 [10, 256]
000000 3b 0e 7f 3d 7c f1 a2 3c 8a 7d 53 be 9c 5b 14 be
       0.06226943 0.01989054 -0.20653358 -0.14488071
000010 1b 64 f8 3c 55 4e a8 bd c5 20 a1 3d be a1 91 3d
       0.030321172 -0.08218066 0.078675784 0.07110928
000020 ec d1 17 3e 14 e5 9c 3c 52 c0 50 be 56 70 20 bd
       0.14826173 0.019152202 -0.20385864 -0.039169632
000030 86 46 51 3d 01 53 44 3d c8 dc 3e be 33 99 97 3d
       0.051092647 0.04793072 -0.18638909 0.07402267
000040 a0 89 c6 bd 73 78 43 be af 15 8b 3c b9 9d 2c 3c
       -0.09694219 -0.19088916 0.016978113 0.010535651
000050 90 ba 57 3b 0e 57 63 3d 09 70 6a bd 3b e2 3e 3c
       0.0032917596 0.055502944 -0.05723575 0.011650617
000060 29 36 9b 3d 4c cf 76 3e bc 01 2e bc b5 d4 81 be
       0.075786896 0.24102515 -0.010620531 -0.25357595
000070 8c 50 b7 3d 9d 08 54 bc 3a ca a7 3d 24 b1 6d 3c
       0.0895091 -0.012941507 0.081928685 0.014507566
000080 e5 2c 13 3e 31 63 f8 3d 66 bf c2 3c cc 49 03 3c
       0.14372595 0.12128294 0.023772907 0.0080132
000090 d6 b1 ad bd 27 27 b7 bd df a4 a9 3b 49 a3 7c bd
       -0.08481185 -0.089430146 0.005177125 -0.06167916
0000a0 65 ec f1 bd ae 34 dd bc 70 f3 d7 3c 41 ed c4 3d
       -0.11812667 -0.027002659 0.026361197 0.09615565
0000b0 79 8a cb 3d 69 7d 70 3d 29 3d c9 bd af bd fe bd
       0.09938521 0.05871335 -0.098261185 -0.12438523
0000c0 21 c2 16 be 28 9e 71 bc 5d 58 1b 3d e2 10 6d bd
       -0.14722492 -0.01474718 0.037926067 -0.05787743
0000d0 46 5a 62 bd f3 9f 84 3d 50 26 9a 3d 9c 99 43 3d
       -0.055261873 0.064758204 0.07526839 0.047753915
0000e0 7f ef 33 3d 51 7f 3f bc 31 16 f6 3d e3 c3 a1 bd
       0.043929573 -0.011688069 0.120159514 -0.078986906
0000f0 eb 68 86 3d c6 ab d6 bd 03 43 83 bd 8b a0 12 be
       0.0656298 -0.10481982 -0.06409266 -0.14319055
000100 05 8b c7 3d 95 ee 2b be d8 8e 6f 3c 77 80 a7 3c
       0.09743313 -0.1679023 0.014621459 0.020446999
000110 1b 6a 9a bb 4d fd ee 3c 50 60 ef 3b 37 a2 f3 bd
       -0.004712356 0.029173518 0.0073051825 -0.118961744
000120 79 dd a5 3d 4c 73 12 bd 5d 09 d4 bc 09 9f 1f bd
       0.08098883 -0.035754487 -0.025883371 -0.038970027
000130 87 61 58 3d bc f6 a7 bd b7 48 33 3e 30 be 5f 3d
       0.052827384 -0.08201358 0.17508207 0.054624736
000140 46 e6 ab b9 53 92 e3 bc ad 0c 63 3b 79 b9 eb 3c
       -0.0003278723 -0.027779734 0.0034645007 0.028774964
000150 4f a3 75 3c 17 e2 91 3a cb 38 c8 3d 7b 7f 20 be
       0.014992549 0.0011130002 0.097764574 -0.1567363
000160 5e 31 9a 3c f4 56 54 bd 89 56 70 3d 2a db 07 be
       0.018822368 -0.051840737 0.058676276 -0.13267198
000170 50 96 c4 bb a4 50 de 3c e0 eb 1b 3e af 76 17 bd
       -0.005999364 0.027138062 0.15226698 -0.03697842
000180 a9 1f 0d bd c4 d0 ba 3e 10 ef d8 bc e6 c0 cf bc
       -0.03445402 0.364874 -0.026481181 -0.025360536
000190 ad 88 8c 3d 72 44 07 3d 9f 6e 44 bc 40 05 bf 3c
       0.06862006 0.03302426 -0.011989265 0.023317933
0001a0 b6 57 b4 bd cf 78 bb 3e 38 a3 09 3e 5b 04 ee 3d
       -0.08805792 0.36615607 0.1344117 0.116219245
0001b0 0b a9 7e 3c 81 e9 c1 bd 1f 6e 00 3d 55 73 1d 3d
       0.015543233 -0.094683655 0.03135502 0.038440067
0001c0 5e 78 8a bb ee e6 3e bd 4b fb d5 39 62 de 8b bc
       -0.0042257747 -0.04660695 0.00040813754 -0.017073814
0001d0 11 a0 84 bc ff 66 88 3d c4 1c af 3d 48 bb 6e 3d
       -0.016189607 0.0666027 0.085504085 0.058284074
0001e0 fc 59 54 3d e2 91 8f 3b 01 79 ed 3c 45 16 a9 3d
       0.05184363 0.0043814043 0.028988363 0.08256201
0001f0 af 12 91 3d 56 02 47 3c 8d ab bb bd 4e 88 9a bd
       0.07083642 0.012146553 -0.0916358 -0.07545529
000200 da 32 0d 3e 1d f6 07 3e df 0a 6f 3d 0e 4e 75 3c
       0.1378893 0.13277479 0.058359977 0.014972223
000210 e9 c4 41 3d 76 30 52 bc 55 23 de bc 44 cf fc bd
       0.04730693 -0.012828937 -0.027116457 -0.1234422
000220 3c 5a 93 bd 7b 86 ba be b0 66 2a 3e c6 a6 fc 3d
       -0.07194945 -0.36430725 0.16640735 0.12336497
000230 be 69 37 3e 4d 54 06 3d 32 4a 09 be 89 3d ba 3c
       0.17911431 0.03279524 -0.1340721 0.02273442
000240 80 f4 9e bc cf 42 e5 bc cf 0a 4e 3c 56 5a b8 3b
       -0.019403696 -0.027985958 0.012575819 0.0056260033
000250 ba 7d 61 3d 45 88 47 bd a6 bf d4 bd 88 57 98 3c
       0.055051543 -0.04871394 -0.103881165 0.018596426
000260 7d ed e6 3c 4a 80 5d 3c 01 e4 c9 3d d2 bd d0 3d
       0.028189415 0.013519356 0.098579414 0.10192455
000270 3b 41 54 3e 83 25 4c be 7a 6b 9c 3d 51 99 58 be
       0.20728008 -0.19936185 0.07637687 -0.21152236
000280 d6 5e b5 bc 76 4a 0c 3d 46 b9 48 be 8b 34 42 bb
       -0.022139948 0.0342507 -0.19601926 -0.0029633369
000290 0b 85 d0 bd 7c 10 08 bd 31 50 77 bd 32 9d 09 3d
       -0.10181626 -0.033218846 -0.06037921 0.03359718
0002a0 a8 49 8f 3d 07 5a 08 bd ab 54 40 3d a4 d7 02 3d
       0.06996471 -0.03328898 0.046955746 0.031943932
0002b0 52 ac 9f bc 46 80 e4 3a 5f 13 7a bd 8d 03 c2 3c
       -0.019491348 0.0017433248 -0.06105363 0.023683334
0002c0 bf ce c4 bd 85 17 5d 3d d2 d1 b1 bd 6b c8 14 3e
       -0.09609746 0.053977508 -0.08682598 0.14529578
0002d0 31 88 31 3d fb 85 99 3c d7 db eb bd 10 ab 9c 3d
       0.043342773 0.018740645 -0.115165405 0.07649815
0002e0 b4 ef 45 bd 26 2e e2 3c f7 b3 9e 3d ce 67 ea bc
       -0.0483243 0.027609896 0.07749169 -0.028613951
0002f0 10 c2 91 bd 2b 78 0b be 9b 65 6e bd 68 98 fe bb
       -0.071170926 -0.13620059 -0.058202367 -0.007769633
000300 b0 5d 0b bd 12 04 0b 3e a1 d7 c0 3c bc 94 8a bc
       -0.034024894 0.13575771 0.02354032 -0.016916625
000310 2a b6 69 bc 01 57 44 be 07 49 a5 be 77 0f 71 3d
       -0.014264623 -0.19173814 -0.32282278 0.05885264
000320 c8 38 a0 bc ea cb 5e 3c b5 75 a0 be d2 4b 96 bd
       -0.019558325 0.013598422 -0.31339803 -0.0733868
000330 dc 0f 4c bd 4b 74 fa bc bf e1 16 bc b7 4e b0 bc
       -0.049819812 -0.030573031 -0.0092090955 -0.02152191
000340 49 93 21 be 8c 5f af bc d2 06 2b be 87 fa ba 3e
       -0.15778841 -0.021407865 -0.1670182 0.36519262
000350 46 27 34 3c a0 b7 09 3e a3 14 70 3e 58 a9 7c 3c
       0.010995692 0.13448954 0.23445372 0.015421234
000360 05 70 07 be 0c ac 9e 3d dd eb 31 bd ff 1c cc bd
       -0.13226326 0.07747659 -0.043437827 -0.09966468
000370 4e 1d 38 3d 1c 19 07 3e 2a 63 a1 3d 05 f6 fc bd
       0.044949822 0.13193172 0.07880242 -0.12351612
000380 7f aa 11 bc c2 96 80 bd ce 24 d9 bb d9 0e 5f 3d
       -0.008890747 -0.06278755 -0.006626702 0.05445752
000390 ab cb e2 bd 73 fd 68 3b 92 49 be 3d 26 81 80 bc
       -0.11074003 0.0035551458 0.09291376 -0.015686583
0003a0 b8 5e 11 bd 3e 85 56 3e 1d 5d a1 bd 9c 75 11 bd
       -0.03549072 0.20949265 -0.07879088 -0.03551255
0003b0 a7 50 9f 3b 69 d1 9f bc 6d d5 25 bd df 31 9b bd
       0.0048619094 -0.019509034 -0.04048674 -0.075778715
0003c0 97 cb b8 bc 88 19 a2 bc 7f 63 f3 3d 41 2f b6 3e
       -0.022558017 -0.019787565 0.11884212 0.35582927
0003d0 73 a0 8f 3d 44 c0 ec 3d 18 8f ed bc d1 09 eb bd
       0.07013025 0.11560109 -0.028998896 -0.11476482
0003e0 51 9f b3 3d a5 cf b8 bc 1e c0 79 3d 9c 92 36 3e
       0.087706216 -0.02255995 0.060974233 0.17829365
0003f0 6a fd 60 bd b2 8f bf bd 7b 57 a7 bc 73 71 75 3c
       -0.054929174 -0.093535796 -0.020427456 0.014980662

invertible_encoder.bijectors.1.net.2.bias f4 [10]
000000 14 cb d0 b9 eb 68 fc bc 2a cd f1 bc 59 fa d5 bd
       -0.00039824157 -0.030811748 -0.029516775 -0.10448141
000010 19 7d 4f bd 10 ab dc bd 26 22 cd bd ab 0f 2b be
       -0.05065641 -0.10774815 -0.10016279 -0.16705196
000020 dd e3 0e be 25 10 ac bd
       -0.1395411 -0.08401517

invertible_encoder.bijectors.2.net.0.weight f4 [256, 10]
000000 d4 f7 41 be 4c c7 5e 3e 03 3e 5c 3e 48 2d 7a 3d
       -0.18942195 0.21755713 0.2150803 0.06107834
000010 aa 39 ed be 9b 7b c0 3d 3d 64 5a be bc 2e 70 3e
       -0.46333057 0.09398576 -0.213273 0.23455328
000020 ec 33 9b be 3a 98 3b bf bf 1b 16 3c 34 f1 13 be
       -0.3031305 -0.73279154 0.009161889 -0.1444748
000030 fa 36 b4 be 3e 4c 48 bd 5a dc 44 bf 5a 4b 3b 3c
       -0.35198194 -0.048900835 -0.7689873 0.011431539
000040 6d d6 69 3e c1 dd bc 3d b1 e6 b3 3d 1e 11 6f 3f
       0.22835703 0.09221984 0.08784235 0.93385494
000050 64 6d 30 bd 04 b4 9d 3e 90 52 af 3e 6d 94 ef 3d
       -0.043073073 0.30801404 0.34242678 0.11698232
000060 43 78 76 3f 94 67 9f be 7e 1a ba be 8b f9 b4 bd
       0.96277255 -0.3113371 -0.36348337 -0.08836659
000070 5b 24 7a be bf aa 21 be ab 47 2f 3f cf 34 4b 3e
       -0.24427931 -0.1578779 0.6846873 0.19844364
000080 e5 87 c1 be 2e 8e 0f be 60 91 fa be 67 8a 61 3e
       -0.37798992 -0.14019081 -0.48939037 0.22025453
000090 aa 30 9f bd 4f b7 97 3d a2 b0 cf 3e 19 b6 06 bf
       -0.07772954 0.0740801 0.40564448 -0.5262161
0000a0 fd b8 87 be 2a 8f 54 3e a4 7b 23 bc 7b 31 98 be
       -0.26508322 0.20757738 -0.009978209 -0.2972525
0000b0 09 f1 a7 bd 26 19 af 3e cd 65 a0 3c 1e 4e e6 3c
       -0.08200271 0.34198874 0.019579792 0.028113421
0000c0 b6 68 1b be 9b f2 62 3f 53 be ae 3e 30 31 3c 3f
       -0.15176663 0.88651437 0.3412958 0.73512554
0000d0 f7 ab 8b bd 2a b2 14 bd dc d1 43 be 1a 42 66 be
       -0.06819909 -0.036302723 -0.19123024 -0.22486153
0000e0 8b 38 bd be 21 30 87 3e e2 0f e1 3e 98 47 bf bf
       -0.369572 0.26403907 0.4395743 -1.4943724
0000f0 ac d4 69 3c c7 10 f4 3e 48 92 bc be 5c e5 4c 3e
       0.014271896 0.4766905 -0.36830354 0.20009369
000100 42 35 25 3f fc a4 10 3e 57 41 cd bd 08 34 88 3c
       0.6453439 0.14125437 -0.10022228 0.016626373
000110 97 bd 16 3e 44 a9 0e 3e 21 bb b5 3e 35 d1 11 3f
       0.1472076 0.13931757 0.3549433 0.5695985
000120 77 9e c1 be e1 2e 99 bd e6 04 f6 3e 54 19 c1 3e
       -0.37816212 -0.074796446 0.48050612 0.37714636
000130 55 65 86 be 24 26 e7 bd a3 d4 5c be c1 b6 20 3f
       -0.26249185 -0.112865716 -0.2156549 0.6277886
000140 cc 24 24 bf 30 78 a4 bd 12 67 3c 3e 4d e4 e6 3d
       -0.6411865 -0.080307364 0.18398693 0.11274014
000150 ff 1d ca bc fb 92 7f bf 03 d3 c9 bd 91 b5 2d bc
       -0.024672506 -0.9983365 -0.098547004 -0.010602371
000160 48 c8 b2 bd c5 1e 0d 3e 88 9f f7 bd 35 3b ca 3e
       -0.08729607 0.13781269 -0.12090975 0.39498296
000170 d4 77 ad 3f 2e 58 c1 bd 99 d5 a4 3e bf 07 97 3c
       1.3552194 -0.09440647 0.32194212 0.01843631
000180 a1 ee 51 bd 11 a6 64 3b 25 2d 82 bd be 9b 34 be
       -0.051252965 0.0034889022 -0.06356267 -0.17637536
000190 05 82 c0 3e b2 53 59 3e d4 96 ec bb 54 4f 39 3d
       0.37599197 0.21223333 -0.0072201286 0.04524167
0001a0 28 7a 05 3f 7e 8a 20 3c 3a 81 cd bd ea fd 09 bd
       0.5213952 0.009798644 -0.10034414 -0.033689417
0001b0 f8 7a b2 bc ab 46 33 be 80 86 cd 3d 92 b7 e3 3d
       -0.021787152 -0.17507426 0.100354195 0.11118998
0001c0 72 de 00 3f 1d a4 96 3c 93 de 37 be d4 af 98 be
       0.50339425 0.018388802 -0.17955999 -0.29821646
0001d0 da 5d 98 be 16 4c a4 3e 02 b0 50 3e ba f9 75 bf
       -0.29759103 0.320893 0.20379642 -0.9608418
0001e0 b3 ab 8f be e9 a6 8f 3e dc 82 54 bd bb 25 3f 3e
       -0.28060684 0.2805703 -0.05188261 0.18666737
0001f0 de 74 34 3f 16 e9 02 bf 92 4b 47 3e 38 4c 49 be
       0.70490825 -0.5113691 0.19462422 -0.19657981
000200 c8 97 80 3d bf 66 0a 3e 4b 8b 11 3e 39 db 81 3e
       0.0627895 0.13515757 0.14213292 0.25362566
000210 b5 3b d4 be 92 33 b6 3e 47 fb ea bd d1 60 83 3e
       -0.41451803 0.3558622 -0.114737086 0.25659803
000220 ee e9 90 3d 57 3c 00 3e b8 5e 2f 3f 05 b7 77 3e
       0.070758685 0.12523018 0.68503904 0.2419091
000230 27 e3 19 bd 2d b3 ef be df e7 14 be 87 a9 36 3d
       -0.037570145 -0.46816388 -0.14541577 0.044595268
000240 29 1b 08 bf 3e 74 7a 3e 6f 79 69 bd ac e6 99 be
       -0.53166443 0.24458405 -0.057000574 -0.300588
000250 92 e4 e2 3e f5 c7 08 be a3 be 83 bf 59 17 60 3e
       0.4431501 -0.13357528 -1.0292553 0.21883906
000260 e1 39 1b 3f 50 e4 ca bc 6e 85 a7 bd ad 7b 47 3e
       0.6063519 -0.024767071 -0.081797466 0.19480772
000270 88 83 56 3d f5 14 9d bd e6 d4 42 3d 69 93 12 bd
       0.05237153 -0.07670013 0.047566317 -0.035785113
000280 0f 1d bd 3e 3c 57 8b bf 8d b2 cf be 05 93 34 be
       0.36936232 -1.0885997 -0.4056591 -0.17634209
000290 b7 7f 2e bf f4 aa 08 3f 5a 6d a2 3e 84 78 82 be
       -0.6816363 0.53385854 0.31724054 -0.2548257
0002a0 a7 27 4c 3f 3d 54 c3 be 99 07 e0 be 10 cf 62 be
       0.79748005 -0.38150206 -0.43755797 -0.221493
0002b0 77 f2 a2 bc be ac 25 be b7 4e 13 3e c6 28 9c be
       -0.019891007 -0.16179177 0.14385496 -0.30499858
0002c0 da 72 91 3e 94 ff d5 bd 60 b3 56 3e f8 6e 67 be
       0.28407937 -0.10449138 0.20966864 -0.22600925
0002d0 55 73 95 be ea 72 ef 3e 1c b3 54 be cd 70 82 bd
       -0.29189554 0.4676736 -0.2077145 -0.06369171
0002e0 9a 13 0a 3f 66 f2 dd 3e 8b 6c b8 3e 1b 5e 31 be
       0.5393616 0.43348998 0.36020312 -0.17321055
0002f0 84 7f 5e bd 78 21 13 bf 93 0f 2e be 13 d3 5b 3e
       -0.054320827 -0.57472944 -0.16998129 0.21467237
000300 f5 28 37 3e 34 e6 54 3e fc 2d 25 bd b2 06 15 3e
       0.17886718 0.2079094 -0.040327057 0.14553335
000310 3c 3e fb bd 03 3d ef bd 9b 6c 83 3e 67 4d 2d bf
       -0.1226773 -0.11681559 0.25668797 -0.6769623
000320 6b 5a 4a bf 13 1b 8d be c3 de 0c 3e a6 97 9a 3e
       -0.79044217 -0.27559718 0.13756852 0.30193824
000330 86 c4 02 3e 8a ed e5 3e b2 60 11 bf d9 16 9b bd
       0.1277028 0.4490779 -0.5678817 -0.07572717
000340 a4 da 34 bd b5 7a a3 3d 66 14 ce 3e 18 8c 86 be
       -0.044153824 0.07982389 0.40249938 -0.26278758
000350 e5 e0 ec bd 8e 09 94 3d 24 75 25 3e ad a5 41 3d
       -0.11566333 0.07228385 0.16157967 0.04727714
000360 4f a8 93 be bb ee d5 3d 70 33 35 3f 21 2d 97 bf
       -0.28839347 0.10445925 0.7078161 -1.1810647
000370 72 22 2c 3f b3 19 59 be d8 a4 c8 be 43 75 6c 3e
       0.6724006 -0.2120121 -0.39188266 0.23091607
000380 32 f7 ae bd 98 7d 2e bf 8e 8b d0 bd 0a 5a b0 bd
       -0.085432425 -0.6816039 -0.10182868 -0.086109236
000390 66 60 96 3e ad 1b 6d 3e 74 9c eb be 65 b8 59 bf
       0.2937042 0.23155089 -0.46017802 -0.8504699
0003a0 bf 1e cb 3e e4 b2 93 3e 28 c8 f7 be 55 bd fc be
       0.39671895 0.2884742 -0.48394895 -0.493632
0003b0 64 16 48 be 73 92 09 be 57 3d be 3e 2c 3b 79 bd
       -0.19539791 -0.13434772 0.37156174 -0.060847446
0003c0 55 85 2a 3f ee 96 e9 be f5 0c 2c 3e 8d ff 14 3d
       0.666097 -0.45622963 0.16801818 0.036376525
0003d0 93 19 e6 be 05 77 28 3e a3 2e 8a 3e 8b cb 53 3e
       -0.44941387 0.16451652 0.26988706 0.20683114
0003e0 d4 bd 50 3e 9f 04 a1 bd 96 6a 51 3c b7 43 c4 be
       0.20384914 -0.078622095 0.01278176 -0.38332912
0003f0 2a 05 26 3e f7 e3 7d 3d 36 cf b1 be f0 aa af be
       0.16212907 0.061984982 -0.34728402 -0.34310102
