Sentinel_model_weights/IKAE_zp/best_model_2.pt (torch, 237326 bytes, 24 tensors)

invertible_encoder.bijectors.0.net.0.weight f4 [256, 18]
0.120176055 -0.07198887 0.07902758 0.0217013 0.14619863 0.11468628 -0.0009064188 -0.14872834
0.07644561 -0.27164537 0.77591807 0.4919204 0.061603446 0.21130656 -0.35230947 -0.0043419166
0.10694795 -0.22704956 -0.098532625 0.32845262 -1.5095868 -0.015966509 -0.11644497 0.11910279
-0.08333006 -0.040033314 0.25196183 -0.05485528 0.9853885 -0.34119228 -2.0943782 0.23552446
2.7024813 -0.3214111 0.0071998527 0.11538016 0.13484882 0.09237857 -0.016295377 -0.100331664
-0.24407728 -0.34931868 0.04937836 0.20210946 0.02514099 0.13636538 1.2566929 -1.4721694
-0.23705351 0.44448084 -1.1529497 0.13285467 -0.29110307 0.41033822 -0.2280303 -0.0599894
-0.20274332 0.068667665 -0.120061986 0.16855831 0.056568984 -0.26119772 -0.0065793567 0.16805625
0.057636682 0.062254112 0.06823571 -0.2618233 0.007076968 0.022116268 -0.16083147 0.26584542
-0.26063055 0.08619128 -0.17171411 0.118808895 0.023730038 -0.16321625 -0.001431956 -0.11145417
0.1642532 -0.15202229 0.25878707 0.27291352 0.15875521 0.0032550122 -0.20879692 0.50437164
0.1574037 -0.5694167 -0.034166384 -0.25971475 0.19827336 0.03365042 0.25262013 0.1594242
-0.17200153 -0.11312566 -0.10367739 0.020474475 -1.6043415 -2.5314333 -4.775731 -0.14955695
2.118547 0.33448353 0.6133195 -0.14036813 0.057071015 0.05905305 0.019556805 -0.0066043832
-0.31730434 0.013447557 -0.10547113 -0.0035464922 -0.04779861 0.12512723 0.21819194 1.6460791
2.1384819 -0.6482517 2.09454 0.6505518 0.24999692 -0.530536 -0.034460817 0.18318461
-0.30337375 -0.04967901 -0.27887538 0.17605579 -0.0014821324 -0.1275019 0.08121135 0.08933344
0.6061324 0.14750472 0.36093724 -0.31509134 -0.37428606 -0.13495283 0.0784692 0.30720258
0.0205748 0.1600994 -0.13257353 0.14710572 0.40001518 -0.13778417 0.05795842 -0.052944273
-0.23503649 0.093031906 0.25496668 -0.11255287 -1.1660306 -0.058329232 3.455127 -0.23805861
-0.45253217 0.2978503 0.15918449 -0.2592633 0.15508981 0.1505769 -0.07687815 0.09240467
-0.05402471 -0.12689477 -0.11147363 0.18206151 0.30543524 0.11557853 -0.36561424 -0.08562752
-0.01411317 -0.14287244 0.054686856 0.09577517 0.16908483 0.09944002 0.17040554 0.103370644
-0.320473 -0.2267495 -0.17517145 0.031433553 0.17950013 0.120754555 4.781372 -1.0706134
-0.67435855 1.8976008 -0.97438043 -0.30381504 -0.8698866 -0.93944395 0.16840316 0.2686127
-0.1388921 -0.16028304 -0.15928648 -0.16904904 0.004206631 0.20184918 0.08051135 -0.068171024
0.40512976 0.08116957 0.37535927 0.13360411 -0.49653307 -0.16483659 0.013064444 0.051894233
0.11610558 -0.03310331 -0.056859005 0.0018726042 0.056474 -0.29095542 0.12482777 0.099172205
0.019917862 -0.11590112 -3.2735848 -1.3889108 -1.8313873 -0.6678826 0.9535248 1.4870998
0.27822348 -0.33315536 0.009065044 0.10248562 0.11088064 -0.12352101 0.044838358 -0.08833925
-0.021435335 0.20403866 -0.0886624 -0.0114650745 -0.020569216 -0.20601718 0.28556067 0.11197917
0.1773444 0.050109312 -0.04968111 0.02690009 0.35548124 -0.17021634 -0.1858696 -0.038852997
00000000: dd1e f63d e76e 93bd 36d9 a13d edc6 b13c
00000010: 18b5 153e a4e0 ea3d bc9c 6dba 3e4c 18be
00000020: 848f 9c3d 1a15 8bbe 91a2 463f fedc fb3e
00000030: e553 7c3d bf60 583e e861 b4be a346 8ebb
00000040: 8707 db3d ae7f 68be 79cb c9bd f12a a83e
00000050: 243a c1bf 32cc 82bc b37a eebd 2aec f33d
00000060: f3a8 aabd f9f9 23bd 2401 813e eeaf 60bd
00000070: 6c42 7c3f c1b0 aebe 4b0a 06c0 532d 713e
00000080: 74f5 2c40 ff8f a4be beec eb3b 6f4c ec3d
00000090: cf15 0a3e fa30 bd3d e27d 85bc b07a cdbd
000000a0: 65ef 79be e6d9 b2be f740 4a3d c8f5 4e3e
000000b0: 7af4 cd3c 5ea3 0b3e 50db a03f 0c70 bcbf
000000c0: 28be 72be fe92 e33e db93 93bf 0e0b 083e
000000d0: 760b 95be da17 d23e c680 69be 72b7 75bd
000000e0: f29b 4fbe a2a1 8c3d 0fe3 f5bd 8d9a 2c3e
000000f0: e1b4 673d b5bb 85be a597 d7bb f016 2c3e
00000100: 7114 6c3d 2bfe 7e3d 2abf 8b3d b40d 86be
00000110: e9e5 e73b 2d2d b53c 01b1 24be e41c 883e
00000120: 5e71 85be 0e85 b03d d3d5 2fbe 1452 f33d
00000130: 7f65 c23c 2922 27be 78b0 bbba 1542 e4bd
00000140: fe31 283e bbab 1bbe bd7f 843e 52bb 8b3e
00000150: ba90 223e 0b52 553b dcce 55be 801e 013f
00000160: 6f2e 213e 4bc5 11bf 0df2 0bbd 55f9 84be
00000170: 2c08 4b3e 06d5 093d 6d57 813e 1940 233e
00000180: 2b21 30be 6dae e7bd d054 d4bd 16ba a73c
00000190: 105b cdbf 0103 22c0 cad2 98c0 7525 19be
000001a0: 4696 0740 6d41 ab3e 8202 1d3f aabc 0fbe
000001b0: 4cc3 693d 9ce1 713d 9835 a03c 9569 d8bb
000001c0: b775 a2be 2453 5c3c 3f01 d8bd 446c 68bb
000001d0: 7ac8 43bd 5a21 003e b56d 5f3e b8b2 d23f
000001e0: e3dc 0840 d3f3 25bf f20c 0640 908a 263f
000001f0: 31ff 7f3e 35d1 07bf c926 0dbd bf94 3b3e
00000200: ce53 9bbe 387c 4bbd c1c8 8ebe f847 343e
00000210: 1c44 c2ba dc8f 02be 2352 a63d 73f4 b63d
00000220: 7e2b 1b3f 7a0b 173e c4cc b83e a753 a1be
00000230: 6ca2 bfbe 1331 0abe 76b4 a03d a849 9d3e
00000240: 7c8c a83c 19f1 233e 5bc1 07be e2a2 163e
00000250: cace cc3e 4b17 0dbe cf65 6d3d 18dc 58bd
00000260: 68ad 70be 8387 be3d fe8a 823e 1e82 e6bd
00000270: 7e40 95bf a2ea 6ebd cd20 5d40 a3c5 73be
00000280: 4cb2 e7be d67f 983e 4201 233e 29be 84be
00000290: ddcf 1e3e d530 1a3e 4b72 9dbd a93e bd3d
000002a0: 0449 5dbd b4f0 01be 494c e4bd 556e 3a3e
000002b0: 0262 9c3e 70b4 ec3d ca31 bbbe 7b5d afbd
000002c0: ed3a 67bc 274d 12be 53ff 5f3d c625 c43d
000002d0: 9324 2d3e 36a7 cb3d ca7e 2e3e fdb3 d33d
000002e0: 0915 a4be 0531 68be 2560 33be 78c0 003d
000002f0: e2ce 373e 2a4e f73d 0001 9940 dc09 89bf
00000300: c3a2 2cbf 95e4 f23f ff70 79bf a58d 9bbe
00000310: e3b0 5ebf 667f 70bf e171 2c3e 9b87 893e
00000320: bb39 0ebe 3d21 24be ff1b 23be 311b 2dbe
00000330: c7d7 893b 8db1 4e3e 22e3 a43d 409d 8bbd
00000340: 2b6d cf3e 3b3c a63d 172f c03e 84cf 083e
00000350: 9539 febe ecca 28be 400c 563c 0c8f 543d
00000360: c3c8 ed3d 5697 07bd fde4 68bd 2c72 f53a
00000370: 4851 673d 1cf8 94be b4a5 ff3d cc1a cb3d
00000380: c92a a33c 915d edbd 6a82 51c0 d4c7 b1bf
00000390: e66a eabf 5bfa 2abf 341a 743f 4959 be3f
000003a0: 4f73 8e3e 5793 aabe 8d85 143c fbe3 d13d
000003b0: 6415 e33d 95f8 fcbd 6da8 373d 35eb b4bd
000003c0: 2899 afbc 83ef 503e a294 b5bd 02d8 3bbc
000003d0: c680 a8bc 2bf6 52be 0235 923e 5655 e53d
000003e0: c599 353e 6c3f 4d3d 6b7e 4bbd 945d dc3c
000003f0: a301 b63e 314d 2ebe 9a54 3ebe 5224 1fbd

invertible_encoder.bijectors.0.net.0.bias f4 [256]
-0.012793938 0.017424524 0.019073589 0.015274245 -0.009917043 0.040564016 0.0153037375 0.007855664
-0.0008502223 -0.032192446 -0.047623083 -0.013687423 -0.0016820243 -0.021585671 -0.055726543 0.032262895
0.022657102 0.023710007 -0.011359389 -0.029771596 0.01707659 -0.0075625936 -0.0059865844 0.052957326
0.00040776347 -0.001647544 0.022552121 0.03659174 0.068641104 0.039737895 -0.041684106 -0.121115394
0.0196647 -0.09261688 -0.045523874 -0.054478664 -0.049349323 0.030315345 0.0026897718 0.06936317
0.012651235 0.0042410675 -0.019761376 0.015236514 0.083058536 0.007887013 0.035834923 -0.08590209
0.09040698 -0.052959733 0.00451707 -0.03769441 0.010767288 0.00690381 -0.0128987795 -0.04552267
-0.04348017 -0.015238971 -0.059833135 -0.013444997 -0.07101208 -0.033930406 0.014960138 -0.009735076
-0.0029523042 0.013075995 -0.07578356 0.014488631 0.03494266 -0.04995761 0.0065190466 0.10599612
0.023050923 0.04577125 -0.024770096 -0.017765252 0.011593618 0.012171667 0.058353014 -0.08428097
-0.13947406 -0.0039459625 -0.062043 0.041652467 -0.0059627006 -0.0688337 0.032824915 0.035802316
-0.023085961 -0.014202182 0.01529717 -0.099855445 -0.03648358 -0.038315933 0.01882359 -0.015044167
-0.005927677 -0.037084352 -0.03434956 0.05177581 0.020851567 -0.09322653 -0.004438847 0.0094125215
-0.021531055 0.010940337 0.0052391244 -0.014168841 0.043908387 0.021923807 0.0046389536 0.019694595
0.049653452 -0.041140508 0.007971764 -0.21112977 -0.0038639365 0.066807605 0.008074262 -0.07604008
-0.0153222615 -0.014216575 0.03230473 0.015822457 -0.0052568642 -0.08059319 0.02601794 -0.057859935
-0.009904165 0.013394333 -0.03039863 -0.12439598 -0.09364832 -0.027276555 -0.056759037 0.08379999
-0.078319564 0.120967075 -0.044532813 0.07497914 0.00011293872 -0.02247882 0.065937184 0.02445179
-0.0211609 0.017451659 -0.13955367 -0.026799776 -0.019149229 0.029316673 0.011739778 -0.0118590845
-0.03649545 -0.03227146 -0.0020370376 0.06288316 -0.0023498894 0.015379213 -0.00016098145 0.05362212
0.0025598258 0.0041753044 -0.039254475 0.0104294075 0.05267233 -0.009891119 0.005520816 0.08513815
0.011583826 0.009423469 -0.09656645 0.012952763 0.05327167 0.032707337 -0.093964286 -0.14689048
0.0034981074 0.008316824 -0.018709188 -0.018983504 -0.027687144 -0.09086555 0.02249336 -0.011885097
-0.018406533 -0.014664945 -0.06738494 0.007682529 -0.012333361 0.02973002 0.012501981 -0.01388877
-0.013376916 -0.063618034 -0.019418858 -0.03486177 -0.021538084 -0.019105101 0.007082411 0.010152806
-0.017049205 0.02060138 -3.2687443e-05 0.055958655 -0.06510009 0.030743742 -0.052789737 0.08770573
0.021138364 -0.022091951 -0.0040238686 -0.015785815 -0.0070207063 0.012933715 -0.03541497 0.0029356848
-0.012800112 -0.013798593 -0.016160496 -0.004416109 -0.02360708 -0.081296794 -0.029327616 0.0388664
0.0012678606 0.055033665 0.0017319709 -0.008383062 -0.03809918 -0.03247332 -0.051276725 0.0410676
-0.08361474 -0.12078497 -0.038184337 -0.018789131 -0.01848649 0.026837874 -0.018872477 -0.006439289
0.0033100047 -0.008234468 0.05059514 0.026232312 0.01449179 0.0023676234 -0.007758842 -0.06717681
-0.15934971 0.0047024777 0.13327244 0.0035726298 -0.06833563 0.023768926 0.068691365 0.008906583
00000000: aa9d 51bc e0bd 8e3c 3740 9c3c d440 7a3c
00000010: 187b 22bc 7426 263d 87bc 7a3c 0bb5 003c
00000020: 74e1 5eba 3adc 03bd 6c10 43bd 3741 60bc
00000030: 5f77 dcba 6fd4 b0bc 8441 64bd 1926 043d
00000040: 639b b93c 7d3b c23c bb1c 3abc 90e3 f3bc
00000050: 34e4 8b3c a2cf f7bb 1c2b c4bb c8e9 583d
00000060: 16c9 d539 67f2 d7ba 3abf b83c 38e1 153d
00000070: b593 8c3d 34c4 223d f4bc 2abd 590b f8bd
00000080: dd17 a13c ebad bdbd 3e77 3abd 0525 5fbd
00000090: 8422 4abd e357 f83c e246 303b 470e 8e3d
000000a0: 2047 4f3c a7f8 8a3b 9ce2 a1bc 92a2 793c
000000b0: 981a aa3d 8838 013c a4c7 123d 6fed afbd
000000c0: 4b27 b93d 4eec 58bd ee03 943b 7465 1abd
000000d0: 4769 303c 5b39 e23b 6755 53bc fb75 3abd
000000e0: 4318 32bd e1ac 79bc 9713 75bd 6848 5cbc
000000f0: c86e 91bd 9cfa 0abd 5e1b 753c de7f 1fbc
00000100: 727b 41bb b33c 563c 6934 9bbd b961 6d3c
00000110: 0920 0f3d 5aa0 4cbd ba9d d53b 7e14 d93d
00000120: 4ad5 bc3c a27a 3b3d a8ea cabc 6f88 91bc
00000130: 29f3 3d3c ac6b 473c 9203 6f3d 809b acbd
00000140: 4ad2 0ebe 224d 81bb cd20 7ebd c79b 2a3d
00000150: c262 c3bb aff8 8cbd 6b73 063d 73a5 123d
00000160: c51e bdbc 45b0 68bc fba0 7a3c 0381 ccbd
00000170: ce6f 15bd 2bf1 1cbd ee33 9a3c cf7b 76bc
00000180: f53c c2bb c3e5 17bd 20b2 0cbd df12 543d
00000190: e8d0 aa3c 8ded bebd bf73 91bb fa36 1a3c
000001a0: e561 b0bc 193f 333c f6ac ab3b 6d24 68bc
000001b0: 48d9 333d 8e99 b33c 5d02 983b 8f56 a13c
000001c0: 6b61 4b3d f382 28bd 009c 023c 6732 58be
000001d0: 193a 7dbb 6dd2 883d e949 043c e7ba 9bbd
000001e0: 390a 7bbc a3ec 68bc f751 043d 199e 813c
000001f0: c641 acbb 0b0e a5bd 9323 d53c 8afe 6cbd
00000200: 1445 22bc e873 5b3c 8c06 f9bc 52c3 febd
00000210: b1ca bfbd 1573 dfbc 2a7c 68bd 549f ab3d
00000220: 0266 a0bd 96bd f73d 0a68 36bd aa8e 993d
00000230: 83d9 ec38 8125 b8bc 130a 873d 1f4f c83c
00000240: a059 adbc c8f6 8e3c 28e7 0ebe 348b dbbc
00000250: d8de 9cbc 8529 f03c 3358 403c 9b4c 42bc
00000260: 417c 15bd 142f 04bd d27f 05bb e3c8 803d
00000270: 9a00 1abb 18f9 7b3c 21cd 28b9 dea2 5b3d
00000280: c0c2 273b fed0 883b 4dc9 20bd 1be0 2a3c
00000290: f1be 573d 5c0e 22bc f6e7 b43b e95c ae3d
000002a0: 16ca 3d3c e564 1a3c a2c4 c5bd d337 543c
000002b0: 6533 5a3d 21f8 053d 5970 c0bd 756a 16be
000002c0: 8140 653b 4a43 083c 0344 99bc 4b83 9bbc
000002d0: 26d0 e2bc b817 babd ff43 b83c b6b9 42bc
000002e0: 4cc9 96bc 3d45 70bc 1e01 8abd b9bd fb3b
000002f0: de11 4abc 5f8c f33c 1cd5 4c3c b98d 63bc
00000300: da2a 5bbc 2c4a 82bd 4c14 9fbc 37cb 0ebd
00000310: a370 b0bc 4d82 9cbc 9213 e83b f457 263c
00000320: c6aa 8bbc 3ac4 a83c e019 09b8 e734 653d
00000330: 3253 85bd 4dda fb3c 0d3a 58bd 109f b33d
00000340: 5d2a ad3c 2efa b4bc a8da 83bb 4151 81bc
00000350: f40d e6bb efe7 533c 4a0f 11bd 9e64 403b
00000360: 90b7 51bc 7e13 62bc 0463 84bc 02b5 90bb
00000370: a363 c1bc ef7e a6bd 7840 f0bc 6032 1f3d
00000380: 582e a63a fb6a 613d 4d03 e33a 1c59 09bc
00000390: e30d 1cbd be02 05bd 8b07 52bd 8036 283d
000003a0: 343e abbd 1c5e f7bd 2e67 1cbd aaeb 99bc
000003b0: fb70 97bc 1adb db3c 749a 9abc ac00 d3bb
000003c0: aaec 583b dde9 06bc d93c 4f3d 25e5 d63c
000003d0: f96e 6d3c 212a 1b3b e23d febb ff93 89bd
000003e0: 922c 23be 3e17 9a3b 9278 083e c822 6a3b
000003f0: 8df3 8bbd 0db7 c23c 0fae 8c3d ebec 113c

invertible_encoder.bijectors.0.net.2.weight f4 [18, 256]
0.0048221033 -0.0007346591 0.00042376862 -0.001690792 -0.0059007374 0.041378107 -0.012752057 0.008024831
-0.02060226 -0.00045630426 0.005931595 0.0021524308 -0.00084869104 -0.005157472 0.0062877066 -0.008099636
0.0040144413 -0.0042454177 0.0037344072 0.0016759705 0.065194845 -0.0051465 0.006636755 0.008380026
0.01446702 0.08462966 0.0035887924 0.010623681 0.005594722 0.004699472 -0.0059971656 -0.0038833863
0.005739713 0.011696073 -0.0014637875 -0.015005942 0.0023537648 0.009154339 0.016369974 0.00499576
-0.008678904 0.0040245797 -0.021027263 -0.013903485 0.009215948 0.0056178537 0.0047144135 0.009494436
0.0082380045 -0.11970477 0.021042382 -0.015733665 0.0033243732 -0.0022697048 0.004984938 0.003561502
-0.0031950993 -0.0047187973 -0.0012337571 0.003962446 -0.0030946613 -0.01211188 -0.0022487133 0.0017222387
-0.0028342074 0.0047845654 -0.008802704 0.017082935 -0.0063635763 -0.0052325786 -0.0026555427 0.000155538
0.006730817 -0.00050057366 -0.0129454695 -0.013500869 -0.0014128878 -0.040439736 -6.6576367e-06 0.077416115
-0.005148023 -0.00074531237 0.0022562516 0.006327236 0.0057802093 0.016152848 0.009911575 -0.002452119
0.007882561 -0.011860469 0.0071742036 0.005390286 0.011889804 -0.009726242 0.013945294 0.07012981
-0.003914208 0.010254442 0.0022064496 0.024038322 -0.0007262878 -0.011826885 0.004864649 -0.00696685
-0.0032395967 0.0033663718 0.003057025 0.024654647 0.0022890097 0.004299202 0.010850338 -0.016799705
-0.0014323471 0.0034740597 -0.006115759 0.0033380992 -0.003051147 -0.013108887 -0.010320051 -0.0041551213
-0.028341303 0.04961132 -0.0014812906 0.15419869 0.008263217 0.0010200306 -0.01176762 -0.015085041
-0.0018941337 -0.004194331 0.0008172704 0.04024338 -0.009771439 -0.0039293207 0.0071975873 0.014370482
-0.044744052 0.034313682 -0.0025022347 0.045800015 0.004765635 0.012435088 -0.0021480806 -0.0056735054
0.005443384 0.004326844 -0.05940095 -0.0021457975 0.0101912245 0.0016772529 0.032959122 0.002752576
0.010474131 -0.012731187 0.004727188 -0.017627873 0.0018646052 2.3410277e-05 0.010125668 -0.0049113724
0.0014041652 0.016846439 0.0074947025 0.0026551476 -0.018308137 0.005719717 0.008321593 0.012914765
-0.026833812 -0.011814404 -0.045667734 0.023587907 -0.03140977 0.052979447 -0.006949047 -0.016001439
-0.00012764339 0.008381565 -0.0041554817 0.013326136 0.011325319 -0.012585082 -0.0115730055 0.011099933
-0.0012836962 0.017246038 -0.009331091 0.0047982526 0.08779988 0.014238688 0.0035495453 -0.0059679486
-0.0036509652 -0.0050963527 -0.010861203 0.017764537 -0.0040261713 -0.01147699 -0.05614982 -0.009159416
0.014829934 -0.005057274 -0.014023778 0.0083740605 -0.00056605675 0.0041352557 0.00267137 -0.000460487
-0.0018320791 0.0050726477 -0.004712968 -2.4432462e-05 -0.0045309737 -0.0023481518 0.012468147 -0.00063178275
-0.006746192 0.0017630511 0.0049009155 0.013043083 -0.032711722 -0.00222917 -0.0042809034 0.003411072
0.008077012 0.0008969647 0.0051346626 0.011385193 0.0027541346 0.017063241 0.08344887 0.0061416035
-0.0073028426 0.000102402475 -0.0024338365 0.0030182274 -0.0069963294 0.0081119165 -0.025953187 -0.040193282
0.0023210882 0.006894262 -0.04361348 9.646381e-05 0.0024908371 0.014207632 -0.024761373 -0.13267994
-0.0055524674 -0.027244192 -0.012556623 0.006986217 0.0033915278 0.0022059618 -0.007535153 0.0010727134
00000000: bc02 9e3b 2396 40ba 432d de39 919d ddba
00000010: f95a c1bb 177c 293d 01ee 50bc 957a 033c
00000020: 12c6 a8bc 1f3c efb9 d35d c23b cc0f 0d3b
00000030: b17a 5eba 0300 a9bb 1b09 ce3b 56b4 04bc
00000040: 938b 833b 251d 8bbb f5bc 743b 3dac db3a
00000050: e084 853d f9a3 a8bb 2379 d93b 604c 093c
00000060: 1407 6d3c 5152 ad3d f231 6b3b f30e 2e3c
00000070: ee53 b73b 07fe 993b df83 c4bb 6980 7ebb
00000080: 3414 bc3b e3a0 3f3c 8fdc bfba 7cdb 75bc
00000090: 9f41 1a3b 15fc 153c 531a 863c 79b3 a33b
000000a0: f631 0ebc 9fe0 833b 5e41 acbc 71cb 63bc
000000b0: 7dfe 163c f915 b83b 5e7b 9a3b 8d8e 1b3c
000000c0: b2f8 063c c627 f5bd 1361 ac3c e3e3 80bc
000000d0: badd 593b 54bf 14bb b158 a33b 1768 693b
000000e0: df64 51bb 24a0 9abb 05b6 a1ba 68d7 813b
000000f0: cdcf 4abb e870 46bc 265f 13bb bebc e13a
00000100: 1cbe 39bb d8c7 9c3b 3739 10bc 83f1 8b3c
00000110: 8c85 d0bb 0d76 abbb 9d08 2ebb ea17 2339
00000120: 2f8e dc3b ee38 03ba 3c19 54bc c032 5dbc
00000130: a630 b9ba 23a4 25bd aa64 dfb6 578c 9e3d
00000140: bfb0 a8bb 1161 43ba 9fdd 133b b454 cf3b
00000150: e967 bd3b fa52 843c 2964 223c bbb3 20bb
00000160: db25 013c 6a52 42bc 9515 eb3b ffa0 b03b
00000170: 74cd 423c d15a 1fbc cd7a 643c 38a0 8f3d
00000180: c242 80bb 3f02 283c 159a 103b 04ec c43c
00000190: 5964 3eba 8dc5 41bc a267 9f3b 2c4a e4bb
000001a0: 6a4f 54bb 599e 5c3b 5e58 483b 8bf8 c93c
000001b0: 3603 163b 52e0 8c3b 9ec5 313c 899f 89bc
000001c0: 98bd bbba 0dad 633b b466 c8bb 03c4 5a3b
000001d0: c1f5 47bb a8c6 56bc 6e15 29bc af27 88bb
000001e0: 052c e8bc 3d35 4b3d dd27 c2ba 43e6 1d3e
000001f0: 7262 073c 8cb2 853a facc 40bc 3f27 77bc
00000200: 9544 f8ba 9970 89bb 173e 563a 3ed6 243d
00000210: 6318 20bc 88c1 80bb bdd9 eb3b 2c72 6b3c
00000220: 8a45 37bd 818c 0c3d 88fc 23bb cc98 3b3d
00000230: 0b29 9c3b 8abc 4b3c d0c6 0cbb d0e8 b9bb
00000240: 6a5e b23b 33c8 8d3b 694e 73bd 82a0 0cbb
00000250: 18f9 263c 45d7 db3a 2500 073d 9064 343b
00000260: b19b 2b3c 7896 50bc 87e6 9a3b 5468 90bc
00000270: c565 f43a 3061 c437 21e6 253c 94ef a0bb
00000280: f70b b83a 8b01 8a3c 1f96 f53b fc01 2e3b
00000290: f2fa 95bc 776c bb3b 4a57 083c 7398 533c
000002a0: 95d2 dbbc 3491 41bc 170e 3bbd 6d3b c13c
000002b0: 88a7 00bd fa00 593d d5b4 e3bb 7315 83bc
000002c0: 03d8 05b9 d552 093c b52a 88bb de55 5a3c
000002d0: d58d 393c a931 4ebc b49c 3dbc 7edc 353c
000002e0: b241 a8ba 9047 8d3c 6fe1 18bc a93a 9d3b
000002f0: 6cd0 b33d 6349 693c 7d9f 683b c88e c3bb
00000300: 0845 6fbb 4eff a6bb 30f3 31bc ef86 913c
00000310: f9ed 83bb fc09 3cbc 5bfd 65bd 6011 16bc
00000320: 40f9 723c 7db7 a5bb fdc3 65bc 5b33 093c
00000330: 6d63 14ba 0a81 873b 2712 2f3b 856d f1b9
00000340: 6022 f0ba 7438 a63b 3e6f 9abb 50f4 ccb7
00000350: 9078 94bb 73e3 19bb 3347 4c3c 399e 25ba
00000360: 290f ddbb 2e16 e73a dc97 a03b a8b2 553c
00000370: bafc 05bd 4417 12bb d246 8cbb 4b8c 5f3b
00000380: 7255 043c 4822 6b3a ac40 a83b f688 3a3c
00000390: b67e 343b 36c8 8b3c 3ee7 aa3d 813f c93b
000003a0: af4c efbb e9c0 d638 0081 1fbb 74cd 453b
000003b0: 7741 e5bb d8e7 043c c79b d4bc b6a1 24bd
000003c0: 661d 183b 43e9 e13b 0ca4 32bd 9d4c ca38
000003d0: 503d 233b 21c7 683c 5dd8 cabc 40dd 07be
000003e0: 79f1 b5bb 362f dfbc 4bba 4dbc a3ec e43b
000003f0: 6544 5e3b e691 103b 72e9 f6bb 4a9a 8c3a

invertible_encoder.bijectors.0.net.2.bias f4 [18]
0.0037178032 0.0031425282 0.0023129787 0.010561231 -0.0035702875 -0.006173351 0.0031724868 0.017698342
0.0019064582 0.007365856 -0.003918819 -0.002169783 0.0008555912 -0.00089134736 -0.005544882 -0.0066499473
0.0005694113 -0.004355533
00000000: 63a6 733b e0f2 4d3b 5895 173b 0309 2d3c
00000010: 7cfb 69bb d249 cabb 7fe9 4f3b 1dfc 903c
00000020: 1fe2 f93a 475d f13b 7069 80bb eb32 0ebb
00000030: c149 603a 4fa9 69ba d7b1 b5bb cde7 d9bb
00000040: 8c44 153a dcb8 8ebb

invertible_encoder.bijectors.1.net.0.weight f4 [256, 18]
-0.4104941 0.49749935 -0.21915123 0.10462912 -0.11172379 -0.27373978 0.07738458 -0.21680205
-0.19909646 -0.09537007 -0.3033399 -0.55241513 -0.12568563 0.3811232 0.2837381 -0.35276216
-0.50973225 -0.15847933 1.7017148 0.5828726 0.06252639 -0.21945369 0.11521495 -0.17774144
-0.22862336 0.35614395 0.18875486 -0.012976781 -0.09920683 0.1611578 0.011974617 0.09320691
0.29200792 -0.121093385 -0.07390403 -0.09633082 0.3892458 -0.043114193 -0.038688853 -0.25545657
0.06267287 -0.12645976 0.024243398 0.009734179 -0.011362486 0.055236556 -0.06506689 0.25327444
0.1310676 -0.10059972 -0.08052388 -0.029286193 -0.25684363 0.2789862 -1.6528385 0.02098423
0.53435344 0.47353128 0.87836134 0.2536637 0.03873778 0.13224782 -0.08534104 -0.0693807
-0.28376424 0.47815174 0.1296914 0.3219352 0.15248805 -0.38045382 0.65474206 0.31256145
-1.111641 -0.41895863 0.54998285 -0.0006041527 0.0772924 0.15237147 -0.10812347 0.06595778
0.47455758 -0.30084133 0.053572774 -0.28585902 -0.11149398 -0.024184542 -0.019043718 -0.39952245
0.039556634 0.021090439 0.02396022 0.16440837 0.32300025 0.076916344 -0.29627022 -0.30437577
-0.056812495 -0.06813481 0.18194583 0.15987235 -0.04395661 -0.09237865 -0.4027933 -0.14741524
0.13018933 0.22238338 0.47349498 0.32226425 -0.28042695 0.14643006 -0.06555501 -0.098256886
0.3872497 0.05208001 -0.119481884 0.04405506 0.6124187 0.47073343 -0.21277232 -0.54758066
0.24774423 0.7037061 -0.55354774 0.47482648 -0.049202025 -0.81107116 0.3174151 -1.3187029
0.13052045 -0.0012713965 0.22601072 1.012036 -0.5612379 -0.16163456 0.043682013 -0.2555448
-0.085750304 0.117936954 -0.2647985 -0.16779745 -0.32453158 0.2321939 -0.7676787 0.049778115
-0.4824394 -0.87536865 0.15607885 -0.041622605 0.46947145 -0.16285333 -0.068104334 -0.28758055
0.45253292 0.17241487 0.015926199 -0.0059555285 0.28801644 0.38600817 0.50821334 0.14627393
0.36149648 0.49919766 -0.50107986 -0.3880492 -0.20449565 0.15288778 -0.0638938 0.061227597
-0.21304442 -0.0073110308 -0.027528476 -0.1978512 -0.27181014 0.27333793 0.21016894 -0.19439536
0.28880847 0.010328751 -0.45871902 0.2105306 0.124419235 0.61277086 -0.096219905 0.45540938
0.02258483 -0.2365811 -0.39107704 0.14208572 0.041945737 -0.06416342 0.32967946 -0.18349583
0.25799447 -0.020148138 -0.09116485 0.23790687 0.0413662 -0.50046146 -0.8063981 0.2961254
-0.49141577 0.34653592 0.3952781 -0.12526932 -0.34470072 0.2648208 0.09661426 0.34014642
0.09777093 -0.3592062 -0.041125752 -0.029459435 -0.29642448 0.16750786 0.35862905 0.2503082
0.17285983 0.50410855 0.08739863 0.070324495 0.32415915 0.00480176 -0.2760041 -0.22340247
-0.24961728 -1.2350775 0.071237974 -0.044660833 -0.094885156 -0.30766076 0.26079303 -0.1840042
-0.40626898 -0.44186518 0.38828543 0.1953261 0.14913571 -0.04493809 -0.17271161 -0.078730784
-0.025325954 0.0014525027 -0.13916257 0.040790625 0.019174188 0.009026694 0.21820244 0.2197714
0.23495537 0.024750901 0.22887589 -0.07360853 -0.293935 -0.8951363 -0.24805762 -0.7891026
00000000: 482c d2be 3cb8 fe3e 2e69 60be cb47 d63d
00000010: 71cf e4bd 9f27 8cbe cf7b 9e3d 5b01 5ebe
00000020: f1df 4bbe 6251 c3bd 5e4f 9bbe 146b 0dbf
00000030: bcb3 00be 9422 c33e 1f46 913e 3e9d b4be
00000040: d07d 02bf 6848 22be cad1 d93f 2437 153f
00000050: d60d 803d 78b8 60be d1f5 eb3d da01 36be
00000060: 3e1c 6abe 8058 b63e f448 413e 919c 54bc
00000070: f32c cbbd 8d06 253e 2f31 443c 44e3 be3d
00000080: 1082 953e cfff f7bd ff5a 97bd 1849 c5bd
00000090: 3a4b c73e 8298 30bd 3478 1ebd 34cb 82be
000000a0: a25a 803d ab7e 01be 179a c63c 1b7c 1f3c
000000b0: b829 3abc ba3f 623d ca41 85bd 30ad 813e
000000c0: 9636 063e 3a07 cebd b4e9 a4bd 99e9 efbc
000000d0: 0281 83be 47d7 8e3e 3690 d3bf 1fe7 ab3c
000000e0: 63cb 083f b172 f23e 4adc 603f 35e0 813e
000000f0: 82ab 1e3d f96b 073e 48c7 aebd 7817 8ebd
00000100: 8c49 91be 4ed0 f43e d3cd 043e b1d4 a43e
00000110: d425 1c3e d8ca c2be 2d9d 273f 0e08 a03e
00000120: 414a 8ebf bf81 d6be adcb 0c3f 0060 1eba
00000130: 7a4b 9e3d 4407 1c3e d66f ddbd df14 873d
00000140: 36f9 f23e e007 9abe 206f 5b3d 1d5c 92be
00000150: f556 e4bd a91e c6bc 9201 9cbc 358e ccbe
00000160: 2306 223d dbc5 ac3c 3948 c43c ab5a 283e
00000170: 4a60 a53e 5186 9d3d bbb0 97be 24d7 9bbe
00000180: 38b4 68bd 438a 8bbd 0250 3a3e 94b5 233e
00000190: d90b 34bd 0531 bdbd ec3a cebe 05f4 16be
000001a0: 5a50 053e 78b8 633e ef6d f23e d2ff a43e
000001b0: 1f94 8fbe c3f1 153e b541 86bd e83a c9bd
000001c0: 9845 c63e d951 553d ebb2 f4bd 1473 343d
000001d0: 79c7 1c3f f903 f13e fde0 59be 3f2e 0cbf
000001e0: aab0 7d3e 1526 343f 4eb5 0dbf 751c f33e
000001f0: 1088 49bd 5ca2 4fbf 3b84 a23e 42cb a8bf
00000200: 27a7 053e fda4 a6ba 5b6f 673e 658a 813f
00000210: 49ad 0fbf 8883 25be e9eb 323d c5d6 82be
00000220: db9d afbd ee88 f13d ab93 87be 18d3 2bbe
00000230: 0129 a6be 3dc4 6d3e 9786 44bf 23e4 4b3d
00000240: 4c02 f7be 2918 60bf 22d3 1f3e 777c 2abd
00000250: 905e f03e 06c3 26be 497a 8bbd c23d 93be
00000260: 65b2 e73e 868d 303e a977 823c 9826 c3bb
00000270: e476 933e dda2 c53e 451a 023f d5c8 153e
00000280: 1116 b93e d696 ff3e c546 00bf 62ae c6be
00000290: 4f67 51be 9d8e 1c3e c1da 82bd cac9 7a3d
000002a0: 5128 5abe 5f91 efbb 6683 e1bc 8199 4abe
000002b0: b32a 8bbe f3f2 8b3e 8736 573e 940f 47be
000002c0: b4de 933e ec39 293c 38dd eabe 5595 573e
000002d0: 83cf fe3d 8dde 1c3f f10e c5bd 6b2b e93e
000002e0: d203 b93c 5142 72be 403b c8be eb7e 113e
000002f0: 4bcf 2b3d 1c68 83bd bfcb a83e 55e6 3bbe
00000300: da17 843e b50d a5bc a3b4 babd dc9d 733e
00000310: 9b6f 293d 3e1e 00bf 1b70 4ebf c09d 973e
00000320: d99a fbbe 286d b13e e461 ca3e 9a46 00be
00000330: 9d7c b0be 9896 873e b2dd c53d ac27 ae3e
00000340: 203c c83d e0e9 b7be 7a73 28bd ea54 f1bc
00000350: f3c4 97be 2e87 2b3e 3a9e b73e 6528 803e
00000360: 2b02 313e 420d 013f 0efe b23d 4a06 903d
00000370: 30f8 a53e 1558 9d3b 6950 8dbe 9ec3 64be
00000380: ac9b 7fbe 0517 9ebf 37e5 913d 47ee 36bd
00000390: 2653 c2bd b685 9dbe aa86 853e 996b 3cbe
000003a0: 7d02 d0be 273c e2be 59cd c63e 9103 483e
000003b0: 08b7 183e 0111 38bd 50db 30be 9b3d a1bd
000003c0: 6078 cfbc e761 be3a a280 0ebe 1214 273d
000003d0: 3013 9d3c b3e4 133c 7670 5f3e c10b 613e
000003e0: 2498 703e 67c2 ca3c 715e 6a3e 12c0 96bd
000003f0: a67e 96be a727 65bf d102 7ebe a102 4abf

invertible_encoder.bijectors.1.net.0.bias f4 [256]
-0.0066046882 -0.012199329 -0.019717775 -0.011889313 0.007022688 0.0049055465 -0.022485798 -0.019523801
0.006180734 0.011788307 0.0036045096 0.05755827 -0.16295104 -0.024375975 -0.05306562 -0.016768029
-0.010704001 -0.016403215 0.007175298 -0.012050107 -0.06579664 -0.010312059 -0.032291755 -0.022444861
-0.009013788 -0.002645258 -0.019950528 -0.02552378 -0.00037689036 -0.029180007 -0.0413543 -0.046267495
-0.047797527 0.0008865184 0.00064776244 0.009055871 -0.012269546 -0.053411894 -0.006262845 0.00999089
-0.011213495 -0.0056910785 -0.0012191059 -0.014410261 -0.043025993 -0.04602448 -0.04517462 -0.026469788
-0.0024542722 0.003606506 -0.02964776 -0.0237594 -0.027701193 -0.0055742236 0.003975059 0.01554691
-0.03542569 -0.06000027 0.0062867976 -0.022458842 -0.0011776282 0.0023106923 0.0028151826 0.06707551
0.0030629754 -0.021631794 -0.032720644 -0.0016031413 -0.03723755 -0.032374907 0.0005933071 -0.012320639
-0.03496712 -0.023284594 -0.042961083 -0.0014226292 -0.036415584 0.026772097 -0.034576505 -0.023500405
0.0030799482 0.0019037671 5.8590893e-05 -0.019568533 -0.029716816 0.011740316 0.0032177304 0.0052922904
0.0009067912 -0.0051575135 -0.043031745 -0.0018862739 -0.03530402 -0.057118323 -0.04358922 -0.040877704
-0.03850676 -0.022926997 0.01394698 -0.029351478 -0.007104848 -0.04085961 0.013412942 -0.0051636817
-0.039238166 -0.032555435 -0.008893798 -0.029158112 -0.027616931 -0.01727063 -0.029102154 -0.00034477608
-0.04069194 -0.051746365 -0.021847032 0.009679149 -0.051374577 -0.009880626 -0.03443085 -0.02398644
0.08962947 0.0005291218 -0.008221973 -0.023011178 -0.0065561947 -0.034377098 0.001934782 -0.03348677
-0.06970944 -0.0048048645 -0.005644425 0.017776338 -0.018590637 0.016355842 -0.016551245 -0.028789109
-0.0053765834 0.0002945319 0.009706657 -0.035020232 -0.024844209 0.01109964 -0.059788283 0.06518847
0.0031788507 -0.030028196 0.010472506 -0.0013395607 -0.0056883907 0.007851564 -0.024663767 0.004051529
-0.03109846 -0.030602999 -0.018092245 -0.016485808 -0.007787832 0.04342079 -0.027992671 -0.02776944
-0.021225234 -0.010344991 0.0036504897 -0.009529137 -0.031895537 -0.00067458587 -0.009438861 -0.0520769
-0.023644356 -0.017214295 -0.030923719 -0.02863931 0.040237263 0.0008182389 -0.051639356 -0.010329383
-0.042207476 -0.039592713 -0.035804886 -0.02064946 -0.045789447 -0.024633262 -0.020344952 -0.11027595
-0.036088213 0.0007715374 -0.028051112 -0.053704973 -0.015278485 -0.037855946 -0.019306023 -0.0018734665
-0.05110882 0.007619651 -0.028281191 0.0041478113 0.009676439 -0.04136772 -0.047578014 0.013785024
0.0118270675 0.009066872 -0.029979873 0.00302407 0.028503815 -0.03969057 0.0014095658 0.006545433
-0.032353487 0.009010117 -0.029457897 -0.04518537 -0.02057471 -0.0066578714 -0.023334665 -0.037287507
-0.020323914 0.024620643 0.0016719088 0.0027896606 -0.020875774 0.008821795 -0.038145054 -0.019537969
0.003003231 -0.026094748 -0.020293495 -0.009150681 -0.03138324 0.0131491525 -0.005003182 -0.034296554
-0.020410374 -0.031462062 -0.010593564 -0.009200234 -0.036001056 -0.03312076 0.011133395 -0.039218925
-0.054144688 0.02298031 -0.01789404 -0.060195763 0.004846985 -0.0034854796 -0.005759823 -0.02903158
-0.08601349 0.0068294453 -0.013556205 0.0028861046 -0.021085886 -0.034233812 -0.01567717 -0.0028088242
00000000: 246c d8bb b2df 47bc 2c87 a1bc 65cb 42bc
00000010: 941e e63b b5be a03b 2334 b8bc 61f0 9fbc
00000020: c187 ca3b be23 413c a339 6c3b 38c2 6b3d
00000030: a3dc 26be 20b0 c7bc 565b 59bd 1b5d 89bc
00000040: d65f 2fbc 0960 86bc c31e eb3b d06d 45bc
00000050: 64c0 86bd e9f3 28bc 5c44 04bd 49de b7bc
00000060: 91ae 13bc 115c 2dbb 4a6f a3bc 3f17 d1bc
00000070: 5e99 c5b9 e90a efbc 2063 29bd fc82 3dbd
00000080: 57c7 43bd 3e65 683a 9ace 293a 135f 143c
00000090: 3506 49bc 6ec6 5abd 8d38 cdbb d4b0 233c
000000a0: cfb8 37bc 3a7c babb 68ca 9fba 0419 6cbc
000000b0: 063c 30bd 2a84 3cbd 0609 39bd 2bd7 d8bc
000000c0: dbd7 20bb 215b 6c3b dcdf f2bc 13a3 c2bc
000000d0: 9ded e2bc faa7 b6bb 3641 823b 78b8 7e3c
000000e0: 871a 11bd d8c2 75bd 7b01 ce3b 9bfb b7bc
000000f0: a55a 9aba fc6e 173b ed7e 383b e35e 893d
00000100: 33bc 483b 2935 b1bc 1506 06bd 7f20 d2ba
00000110: 6786 18bd 8d9b 04bd 2a88 1b3a 81dc 49bc
00000120: af39 0fbd 55bf bebc f6f7 2fbd 8477 baba
00000130: 8228 15bd 2851 db3c 18a0 0dbd ec83 c0bc
00000140: f5d8 493b d387 f93a 7ebf 7538 304e a0bc
00000150: ae70 f3bc 745a 403c 8fe0 523b f36a ad3b
00000160: bab5 6d3a 5c00 a9bb 0e42 30bd d93c f7ba
00000170: f39a 10bd e7f4 69bd 9c8a 32bd 616f 27bd
00000180: 44b9 1dbd 66d1 bbbc e081 643c 8372 f0bc
00000190: c9cf e8bb 685c 27bd f5c1 5b3c 1a34 a9bb
000001a0: 33b8 20bd d958 05bd 4bb7 11bc fedc eebc
000001b0: e73c e2bc 237b 8dbc a467 eebc 10c3 b4b9
000001c0: 97ac 26bd fff3 53bd 8cf8 b2bc 4b95 1e3c
000001d0: 266e 52bd 59e2 21bc 5d07 0dbd 367f c4bc
000001e0: a88f b73d c3b4 0a3a 74b5 06bc f081 bcbc
000001f0: 59d5 d6bb 00cf 0cbd 8398 fd3a 6c29 09bd
00000200: d3c3 8ebd 2072 9dbb def4 b8bb af9f 913c
00000210: 644b 98bc b0fc 853c 7a96 87bc 23d7 ebbc
00000220: 0d2e b0bb 676b 9a39 ac08 1f3c 6071 0fbd
00000230: 1586 cbbc 44db 353c 8fe4 74bd 8881 853d
00000240: 4454 503b b1fd f5bc e094 2b3c 3394 afba
00000250: ae65 babb d9a3 003c ab0b cabc b0c2 843b
00000260: 33c2 febc 24b3 fabc 3036 94bc 3f0d 87bc
00000270: 1231 ffbb 00da 313d e350 e5bc bd7c e3bc
00000280: 8be0 adbc 0a7e 29bc 0e3d 6f3b 1920 1cbc
00000290: e5a4 02bd b1d6 30ba 74a5 1abc 964e 55bd
000002a0: cfb1 c1bc fe04 8dbc bd53 fdbc fc9c eabc
000002b0: d4cf 243d 157f 563a ca83 53bd 933c 29bc
000002c0: bfe1 2cbd f82b 22bd 25a8 12bd 0e29 a9bc
000002d0: b78d 3bbd b2cb c9bc 75aa a6bc 5bd8 e1bd
000002e0: 3cd1 13bd 0041 4a3a 72cb e5bc bff9 5bbd
000002f0: 9c52 7abc d60e 1bbd aa27 9ebc 1b8f f5ba
00000300: 7b57 51bd 44ae f93b f5ad e7bc 5dea 873b
00000310: ed89 1e3c 3371 29bd 2ae1 42bd 95da 613c
00000320: 51c6 413c 388d 143c 5a98 f5bc 7a2f 463b
00000330: d580 e93c 9492 22bd 2ec1 b83a 127b d63b
00000340: 1785 04bd 2b9f 133c b051 f1bc 4b14 39bd
00000350: 4b8c a8bc 462a dabb 5728 bfbc c9ba 18bd
00000360: 567e a6bc 3bb1 c93c f323 db3a bdd2 363b
00000370: ac03 abbc 4a89 103c fd3d 1cbd 170e a0bc
00000380: dbd1 443b a7c4 d5bc 8b3e a6bc bdec 15bc
00000390: b68b 00bd 8b6f 573c bcf1 a3bb 8b7a 0cbd
000003a0: a833 a7bc 5dde 00bd a190 2dbc 94bc 16bc
000003b0: d875 13bd a2a9 07bd d868 363c 06a4 20bd
000003c0: d2c6 5dbd 3441 bc3c 8696 92bc d58f 76bd
000003d0: 75d3 9e3b a56c 64bb e6bc bcbb a3d3 edbc
000003e0: d727 b0bd 8ac9 df3b d81a 5ebc cd24 3d3b
000003f0: 4fbc acbc c138 0cbd 696d 80bc 4014 38bb

invertible_encoder.bijectors.1.net.2.weight f4 [18, 256]
-0.010931951 -0.42602718 -0.0046686116 -0.07037032 -0.06416489 -0.057022173 0.00031009468 0.08251926
-0.069024414 -0.009092266 0.037261896 0.024672017 0.03018268 -0.024465356 -0.18507528 0.05081281
0.0017076853 0.018733414 -0.10700451 0.21320166 0.032377545 0.0065912534 -0.0012639964 -0.005422164
-0.02380747 -0.067701764 0.075223945 -0.024673158 0.0076101515 -0.011217408 0.050388534 -0.039833672
-0.026319316 0.0012310323 -0.12575446 -0.22196366 0.002524496 0.0035318905 0.10474685 -0.09092633
-0.17952445 -0.09180766 0.09982103 -0.017324282 -0.15111274 0.032133624 0.19738555 0.009825046
-0.058198925 0.01976768 -0.0023101687 -0.12396535 0.14220941 -0.07577333 -0.06368269 0.0045598117
0.08786486 -0.017518336 -0.06542913 0.3344329 -0.052490048 -0.17646344 -0.032738376 -0.05981302
-0.058848187 0.13575183 0.14695133 -0.0007319719 0.04877779 -0.049665704 0.036030058 0.0054838667
0.029118013 -0.008012604 0.079899564 0.036765296 -0.065573126 -0.019700404 0.009618585 -0.011234124
-0.06652005 -0.18015867 0.09565813 -0.30515817 0.18535276 -0.02831858 0.005725379 0.06520923
-0.020203982 -0.003284698 0.042713568 -0.013207116 0.016517866 -0.083258025 0.08168972 0.04488899
-0.12205132 0.020413328 0.0019234217 0.033160653 -0.016735854 0.09676613 -0.11861696 -0.0924252
-0.11059549 -0.03760054 0.023014776 0.045122627 0.06534956 -0.0838372 -0.078394674 0.006604299
-0.07984067 0.06757235 0.07996848 -0.0624757 0.026513452 -0.021092711 0.068970874 -0.07616359
-0.033356495 -0.01795948 0.008368288 -0.032244533 0.047199514 0.018115131 0.022387285 0.035395995
0.07019967 0.07862554 -0.047748093 0.19966407 -0.0124311065 0.06598793 -0.028390273 -0.0260096
0.1482135 0.23620887 0.011810137 0.115849584 0.014721437 -0.011026617 -0.087647535 -0.03203243
-0.03635536 0.1554722 -0.16868491 -0.069056995 0.04321036 0.11983123 0.09259234 0.104724094
0.01411078 -0.19194773 0.027445558 -0.13860187 -0.013217343 -0.03697895 -0.001025662 0.0115021
0.024884129 -0.05268574 0.04007019 -0.05208487 0.121852435 -0.029081209 -0.0068826983 -0.24794959
-0.046993542 0.058525983 -0.012270977 -0.01331366 -0.013921344 0.014494399 0.078460395 -0.011034156
-0.019176884 -0.025800407 -0.019499533 0.012709765 -0.20971268 0.013382608 -0.017284188 0.10011428
0.06843436 -0.067010425 0.0013235663 0.06393981 0.0067464374 0.12510316 0.027940728 -0.12560338
0.11978061 -0.003944938 0.05624675 -0.021620432 0.002232682 -0.030982718 -0.07646571 0.021440051
-0.035144947 -0.11328463 -0.028621228 -0.044761684 -0.056792874 0.039114695 0.17264712 0.06646846
-0.004265999 0.087478414 -0.012452774 0.04625318 0.02090814 0.0049062865 0.063781 0.034801856
0.03500156 0.0042179776 0.015215098 -0.029167645 0.002476948 0.067806296 0.024297222 0.09326006
0.038799703 0.02229436 -0.14072858 -0.12461618 -0.0041442113 0.057117254 0.053549267 -0.09275517
0.0048630014 0.02592058 0.027621385 0.08987926 -0.04874529 0.014668138 0.050664052 -0.031563863
-0.041242972 -0.019418865 0.0752214 0.06686137 0.010679162 0.07309845 0.039889228 0.009400982
-0.12769458 0.09767339 0.043605156 -0.058145415 0.2629861 -0.022837687 0.00028903928 -0.21101008
00000000: ed1b 33bc 3c20 dabe 27fb 98bb 501e 90bd
00000010: e268 83bd 1590 69bd 3494 a239 dcff a83d
00000020: ac5c 8dbd baf7 14bc ee9f 183d f81c ca3c
00000030: ab41 f73c 926b c8bc 6084 3dbe 1821 503d
00000040: 69d4 df3a d176 993c 2e25 dbbd 8951 5a3e
00000050: 519e 043d 71fb d73b aeac a5ba 69ac b1bb
00000060: e207 c3bc 39a7 8abd 030f 9a3d 5d1f cabc
00000070: 945e f93b 38c9 37bc 3564 4e3d a228 23bd
00000080: 9b9b d7bc 975a a13a c7c5 00be 714a 63be
00000090: 0472 253b 4a77 673b 8485 d63d 9537 babd
000000a0: 42d5 37be a805 bcbd f86e cc3d a7eb 8dbc
000000b0: 4cbd 1abe 8c9e 033d 701f 4a3e 3bf9 203c
000000c0: ff61 6ebd d4ef a13c 3366 17bb 8ce1 fdbd
000000d0: 589f 113e 0c2f 9bbd 126c 82bd 796a 953b
000000e0: 7ef2 b33d 9d82 8fbc b5ff 85bd ca3a ab3e
000000f0: ceff 56bd d5b2 34be ad18 06bd 7ffe 74bd
00000100: cc0a 71bd 8702 0b3e 697a 163e cde1 3fba
00000110: 38cb 473d 446e 4bbd 4194 133d 02b2 b33b
00000120: e688 ee3c 4c47 03bc 62a2 a33d 3597 163d
00000130: 344b 86bd be62 a1bc 4597 1d3c 550f 38bc
00000140: aa3b 88bd 847b 38be 69e8 c33d b13d 9cbe
00000150: 1dcd 3d3e 5efc e7bc f69b bb3b 6b8c 853d
00000160: d282 a5bc 1644 57bb 6cf4 2e3d a962 58bc
00000170: 7a50 873c 2f83 aabd f14c a73d 85dd 373d
00000180: 0bf6 f9bd da39 a73c 531b fc3a 77d3 073d
00000190: a119 89bc 522d c63d 73ed f2bd 6c49 bdbd
000001a0: e37f e2bd 0603 1abd 7c89 bc3c 81d2 383d
000001b0: fdd5 853d d7b2 abbd 638d a0bd e068 d83b
000001c0: 8183 a3bd 5f63 8a3d 84c6 a33d 85e6 7fbd
000001d0: bd32 d93c 9fca acbc 9a40 8d3d a8fb 9bbd
000001e0: d2a0 08bd c21f 93bc 251b 093c d812 04bd
000001f0: 4754 413d 2f66 943c 8a65 b73c 64fb 103d
00000200: d8c4 8f3d 6d06 a13d 8193 43bd bd74 4c3e
00000210: d7ab 4bbc ae24 873d b892 e8bc 1612 d5bc
00000220: 48c5 173e bde0 713e 4e7f 413c 8c42 ed3d
00000230: 2f32 713c fca8 34bc 8d80 b3bd 7034 03bd
00000240: 5ce9 14bd 1b34 1f3e bdbb 2cbe c16d 8dbd
00000250: 59fd 303d 136a f53d 0ea1 bd3d 9679 d63d
00000260: e730 673c f28d 44be 82d5 e03c a6ed 0dbe
00000270: 8e8d 58bc 3d77 17bd 816f 86ba 4e73 3c3c
00000280: cdd9 cb3c 01cd 57bd a420 243d f256 55bd
00000290: c58d f93d b73b eebc 4288 e1bb 7fe6 7dbe
000002a0: 4d7c 40bd f1b8 6f3d 350c 49bc 8a21 5abc
000002b0: 5916 64bc ea79 6d3c d8af a03d 9bc8 34bc
000002c0: d718 9dbc 605b d3bc 7cbd 9fbc 9e3c 503c
000002d0: ecbe 56be ba42 5b3c 9297 8dbc b708 cd3d
000002e0: 5027 8c3d c33c 89bd 847b ad3a e0f2 823d
000002f0: 3811 dd3b 0b1b 003e f4e3 e43c 2c9e 00be
00000300: 894f f53d 8a44 81bb fe62 663d 551d b1bc
00000310: 3052 123b 78cf fdbc 0e9a 9cbd 0ca3 af3c
00000320: 26f4 0fbd c601 e8bd 1177 eabc 0758 37bd
00000330: a59f 68bd bb36 203d 68ca 303e 9e20 883d
00000340: cbc9 8bbb e227 b33d b806 4cbc f973 3d3d
00000350: 8c47 ab3c eac4 a03b 9d9f 823d 648c 0e3d
00000360: cc5d 0f3d f636 8a3b bf48 793c fcf0 eebc
00000370: 4b54 223b 07de 8a3d f80a c73c 21ff be3d
00000380: 70ec 1e3d a9a2 b63c 271b 10be c536 ffbd
00000390: 2acc 87bb c8f3 693d 7a56 5b3d 6cf6 bdbd
000003a0: d059 9f3b 6557 d43c 3e46 e23c 9e12 b83d
000003b0: 24a9 47bd a152 703c 1c85 4f3d 1c49 01bd
000003c0: 64ee 28bd 5014 9fbc ad0d 9a3d 9dee 883d
000003d0: a7f7 2e3c a4b4 953d e362 233d 9406 1a3c
000003e0: 5ec2 02be fc08 c83d 529b 323d e329 6ebd
000003f0: 1da6 863e 1a16 bbbc 328a 9739 0713 58be

invertible_encoder.bijectors.1.net.2.bias f4 [18]
-0.03201971 -0.05959852 -0.05155059 -0.17913862 -0.07928744 -0.17208175 -0.2036593 -0.22548006
-0.18010832 -0.09806796 0.0110667115 -0.011519308 4.255832e-05 -0.009535788 0.017183727 0.02236357
-0.00094556453 -0.0002525576
00000000: 1927 03bd 941d 74bd b626 53bd 1d70 37be
00000010: 7461 a2bd 3336 30be 108c 50be 3fe4 66be
00000020: 516e 38be dbd7 c8bd 2751 353c 7bbb 3cbc
00000030: a680 3238 fe3b 1cbc e3c4 8c3c ce33 b73c
00000040: c3df 77ba b569 84b9

invertible_encoder.bijectors.2.net.0.weight f4 [256, 18]
0.08822736 0.12130794 0.04754955 0.11101947 0.0014690328 0.07081483 0.30287623 0.09535418
-0.11040623 0.32705605 -0.8561728 0.8512515 0.73206884 -0.12069248 -0.2688101 -0.66236544
0.06026792 0.3390604 0.48658368 0.2219964 -0.10810056 -0.34762636 -0.13503158 -0.25010768
0.013497808 -0.3071095 0.24629575 -0.31136048 -1.1145382 0.34925237 0.104920276 -0.98270017
0.2552746 0.87725365 0.3191364 0.17720456 0.016182939 -0.04879127 0.6181535 -0.30589524
0.3180424 -0.31044117 0.28285357 -0.13216466 0.08093238 0.22718441 0.5588337 0.06941844
0.6554484 -0.2829444 0.7093717 -0.30294576 -0.52279943 0.07429997 0.3866785 0.43779314
-0.2762349 -0.049142823 -0.129755 0.014791229 -0.25860298 -0.2514025 0.14489576 -0.25055522
-0.27363476 0.472658 0.016368581 -0.31842226 0.7444367 -0.17251681 -0.19489972 0.5103595
0.37106523 0.35930267 0.23147582 0.1156288 0.36301434 -0.22789381 -0.14532703 -0.15132819
0.005792033 -0.44926456 -0.7774993 -1.6138037 0.5173165 0.07722008 -0.54374427 -0.80270296
-0.4500497 0.16162552 0.09460702 0.7581036 -0.21107098 0.090793416 -0.1436289 -0.056481928
0.11836677 0.113642536 -0.10743142 0.09944055 -0.16300407 0.6277833 0.6934076 -0.14165756
1.0834799 -0.5945105 -0.35373756 0.6614492 -0.067128435 -0.010630713 -0.16991918 -0.019799793
0.7055905 -0.28933772 -0.22912109 -0.03027077 -0.3052989 -0.91332 0.6085148 0.15813069
0.28227413 0.13572681 0.012494179 -1.0154138 0.19814177 0.32494196 0.6769473 0.6739839
-0.97539115 0.06802552 -0.25475097 0.17277691 -0.2221728 -0.07046646 -0.312874 0.22171222
0.41764638 -0.37629417 -0.1789629 -0.67183286 0.644109 0.38198644 0.37496147 0.33044472
-0.26952222 -0.1293557 0.00528984 0.15587774 0.07133747 0.12335771 -0.1191503 -0.09287762
0.30859378 -0.22128063 0.35623205 0.04034014 0.067479186 0.28370702 0.62399757 -0.49027237
0.27066228 -0.12151366 -0.3274832 0.33726442 -0.08933568 -0.043308474 0.11073494 -0.28583038
0.08691081 -0.067233466 -0.021010634 0.25257212 0.62329894 -0.013613396 0.14733043 -0.15441719
-0.0048220046 0.3866422 -0.07546846 -0.2509695 0.46791637 -0.04128339 0.1127123 0.05884169
-0.27862057 -0.33787215 0.0044921027 0.12399293 -0.17881343 0.19776994 0.00789615 -0.22578424
0.14628053 0.22303757 0.118592344 -0.10401749 -0.13364269 0.5678287 -0.16036431 0.08571014
0.2297703 -0.08594965 -0.56462383 0.18138143 0.15018977 -0.050919347 -0.14086923 0.6263159
1.1300159 0.14310084 0.34826285 -0.025531441 -0.08044632 -1.1084735 0.7390652 -0.68079865
-0.5503236 -0.102356836 0.43498144 0.116937354 0.19253688 0.22914739 -0.02324703 -0.19179246
0.26592448 0.29465905 0.16437568 0.40759042 1.5332358 -0.25379074 0.57912576 -0.77531385
-0.07420855 -0.33455664 -0.18284456 0.30849308 -0.047273174 0.07742977 0.20505446 -0.25715497
-0.3666221 0.32233155 0.08538026 -0.42179236 -0.051894877 0.4284848 0.6034417 -0.5231163
0.6295562 0.14728709 -0.42223993 0.5577767 0.10651659 0.07209302 -0.14646168 -0.012960623
00000000: 8cb0 b43d 4c70 f83d 51c3 423d 2d5e e33d
00000010: 908c c03a 5e07 913d 9812 9b3e 0d49 c33d
00000020: a91c e2bd e473 a73e 242e 5bbf 9eeb 593f
00000030: dd68 3b3f 9e2d f7bd 7aa1 89be c890 29bf
00000040: 7fdb 763d 5399 ad3e 7f21 f93e 0653 633e
00000050: d463 ddbd 15fc b1be b845 0abe 1d0e 80be
00000060: e925 5d3c 753d 9dbe f434 7c3e a46a 9fbe
00000070: 30a9 8ebf 35d1 b23e 71e0 d63d 3d92 7bbf
00000080: 5ab3 823e b293 603f d965 a33e 1d75 353e
00000090: 1592 843c 5bd9 47bd 4f3f 1e3f 4d9e 9cbe
000000a0: 74d6 a23e 25f2 9ebe 2fd2 903e 2c56 07be
000000b0: e0bf a53d 08a3 683e ba0f 0f3f 412b 8e3d
000000c0: 77cb 273f 17de 90be 6299 353f b51b 9bbe
000000d0: 2fd6 05bf 952a 983d b9fa c53e 6c26 e03e
000000e0: a96e 8dbe fc49 49bd 7fde 04be e956 723c
000000f0: 9c67 84be d4b7 80be 8e5f 143e c648 80be
00000100: db19 8cbe 3b00 f23e 6717 863c 3e08 a3be
00000110: 6793 3e3f 3fa8 30be cb93 47be eca6 023f
00000120: 43fc bd3e 85f6 b73e ff07 6d3e cbce ec3d
00000130: 04dd b93e ff5c 69be 9cd0 14be c7f5 1abe
00000140: 18cb bd3b 0106 e6be 320a 47bf 1f91 cebf
00000150: db6e 043f 9025 9e3d d332 0bbf f17d 4dbf
00000160: ea6c e6be 2981 253e 53c1 c13d 1413 423f
00000170: fe22 58be e6f1 b93d 7413 13be 9859 67bd
00000180: 476a f23d 6bbd e83d 0105 dcbd 7da7 cb3d
00000190: 8aea 26be 68b6 203f 2983 313f ae0e 11be
000001a0: 78af 8a3f d731 18bf 171d b5be bc54 293f
000001b0: a27a 89bd 712c 2ebc 4bff 2dbe 2d33 a2bc
000001c0: 94a1 343f 1324 94be b89e 6abe 68fa f7bc
000001d0: 2350 9cbe 57cf 69bf a0c7 1b3f 03ed 213e
000001e0: 3c86 903e f8fb 0a3e 63b4 4c3c 14f9 81bf
000001f0: ade5 4a3e cb5e a63e 6b4c 2d3f 358a 2c3f
00000200: 3cb3 79bf f750 8b3d b86e 82be 6eec 303e
00000210: 4481 63be b850 90bd 0531 a0be 8708 633e
00000220: bfd5 d53e a1a9 c0be 0d42 37be 3dfd 2bbf
00000230: 54e4 243f ba93 c33e f3fa bf3e 0d30 a93e
00000240: d1fe 89be d275 04be 6556 ad3b 6a9e 1f3e
00000250: 6119 923d f8a2 fc3d 1305 f4bd 9f36 bebd
00000260: 0100 9e3e 6497 62be 0c64 b63e b43b 253d
00000270: 8732 8a3d 0c42 913e 4ebe 1f3f fb04 fbbe
00000280: 3f94 8a3e 27dc f8bd e1ab a7be ecad ac3e
00000290: a0f5 b6bd 3a64 31bd 00c9 e23d 5c58 92be
000002a0: 4bfe b13d b3b1 89bd 7e1e acbc 2251 813e
000002b0: 8590 1f3f b90a 5fbc cadd 163e 8a1f 1ebe
000002c0: e801 9ebb f7f5 c53e 358f 9abd 137f 80be
000002d0: bc92 ef3e c618 29bd b5d5 e63d fc03 713d
000002e0: 5ba7 8ebe 94fd acbe 7d32 933b 01f0 fd3d
000002f0: de1a 37be 3484 4a3e db5e 013c fc33 67be
00000300: 90ca 153e f663 643e 8be0 f23d 1f07 d5bd
00000310: a1d9 08be 395d 113f 8b36 24be cc88 af3d
00000320: e848 6b3e 5f06 b0bd 308b 10bf 0ebc 393e
00000330: 59cb 193e ce90 50bd 0640 10be 3d56 203f
00000340: 5ca4 903f 0789 123e 824f b23e 5027 d1bc
00000350: 0ac1 a4bd 76e2 8dbf 6033 3d3f d248 2ebf
00000360: 02e2 0cbf 76a0 d1bd e3b5 de3e da7c ef3d
00000370: 6328 453e 9da5 6a3e 8e70 bebc 3e65 44be
00000380: 4127 883e 8ddd 963e 1952 283e b1af d03e
00000390: 1241 c43f dcf0 81be 9641 143f f87a 46bf
000003a0: a7fa 97bd 024b abbe 9b3b 3bbe cef2 9d3e
000003b0: 84a1 41bd 8093 9e3d ccf9 513e d1a9 83be
000003c0: e4b5 bbbe a408 a53e d9db ae3d 2bf5 d7be
000003d0: b98f 54bd 5c62 db3e 287b 1a3f f3ea 05bf
000003e0: 982a 213f 6dd2 163e d52f d8be 74ca 0e3f
000003f0: 5f25 da3d 81a5 933d 0dfa 15be cb58 54bc
