Sentinel_model_weights/IKAE_zp/best_model_1.pt (torch, 237326 bytes, 24 tensors)

invertible_encoder.bijectors.0.net.0.weight f4 [256, 18]
00000000: ae06 da3d bc66 bbbd 5d1b 523b 2247 f83c
00000010: 1c39 92be 8f24 763d 62b7 0dbe 0f11 fb3c
00000020: 7bd7 063d ea80 60bd 6fb7 07bf d7dc 533f
00000030: 3675 883e 00d1 853d de00 d7be 1d6b 903e
00000040: 1e1d 943e c2e3 fdbe 78e5 273e 1524 193e
00000050: e83b 41be e7f4 a4bd 857e 9abd c0e3 b0bd
00000060: b9a6 1bbd 7355 173d 1a9b 993d 6b6a 4ebc
00000070: 07fc a73d 87d9 503f 37f1 6fbe 3823 013c
00000080: e03c 503e cea2 073f 4502 be3d c097 2fbf
00000090: c385 753d 0017 adbd c95b e13b ec2d eebd
000000a0: dd6e b43d b745 0fbe 0138 273e 1b37 88bc
000000b0: e2be 6abe 87de 833c 4c71 993f 83ca 0d3f
000000c0: 1098 25bf d7af 75be 74b6 123e dd70 18bf
000000d0: 63b3 3f3e 3bf1 913e 6f83 443e e112 283e
000000e0: 869d e1bd e8f9 abbd fda3 073e 3e5c 4c3c
000000f0: addc 34be fb14 683e cc5a f93c eacb e03d
00000100: f5b5 eb3d e508 733f 31aa ce3e e694 bfbe
00000110: 1e21 7cbf 04ad b03d 8448 173e 3426 303d
00000120: 7c4f b5bc 7110 65bc 6b23 aa3e dda2 073d
00000130: ba9d 0c3e 7037 f63c 74a4 9fbe de9a 053e
00000140: 271b 5ebe cbad 45bd c408 923e f107 413e
00000150: 037a 1140 f30c 21bf aa40 02c0 c417 f93f
00000160: 19f2 493e 05ed 0abf a8e1 19be 58a8 45be
00000170: 1fae a5bc 683c 5f3d 3443 78be 89af 07be
00000180: 22a6 923d 2c0a 093d d133 1dbe bc2c 2dbe
00000190: aa20 c03f 692f 573f 3cde 093f 7d8f 16be
000001a0: 989d d9bf cbf5 33bf 85b1 803c feab 5cbe
000001b0: 9cda 143e 49d9 8dbd c702 003e 2d4f 023e
000001c0: fff8 ae3e 49fd 80be c771 3bbd 19f4 253e
000001d0: b95b f33d fa10 563d 5a62 21bf b420 05bf
000001e0: 7b2f eb3e 58a1 5e3e cf5e 343d cacd c2be
000001f0: 4e64 d03d d14a 8abe 1124 3dbe 0f76 3ebd
00000200: 5b79 973d 03a4 e23d 0eb8 56be ad5d babc
00000210: 8366 f23d f857 923d 7f9b 083e 319d ccbc
00000220: e11c 12bf 3ffe d8be 97fa e53e 0742 a2be
00000230: 9134 603f 1b1e 85be 6bcc d7be 3a9f 03bf
00000240: 7a3d b8bd c5e1 3dbe 28db c63d 2e3c cfbc
00000250: d720 0d3e 8e94 4e3d 4524 28be 0615 263e
00000260: 48a0 bbbd 3f69 6ebd f3ce 0cc0 edf3 3abf
00000270: 5102 903f 8a30 463d a56b 173f cdee 8c3e
00000280: 3ad9 84be 58ce 783e df9b 35be 0489 413d
00000290: e175 5cbe 476f de3d 450e 3cbe fcee 10bd
000002a0: 9047 3ebe d192 82bd 4414 bdbd b7ab f83d
000002b0: be2c c9bd 0416 97bd e5e2 aa3f 0232 1cbf
000002c0: 382e 2a3f 6a9d f73e 8652 2c3e 26ea 843f
000002d0: 59c2 073d 49fa c63d 6370 25be 2482 96bc
000002e0: 40a5 fcbd 3660 943e 6491 16be 97a0 0dbe
000002f0: 432f 4d3d a497 abbd fe43 d13d 3ea6 03be
00000300: 6c87 e3bc 893d 373e 09b7 253e f004 71bd
00000310: 818c ea39 3cff 41be 6cd3 053e 5b7a 17be
00000320: b8cc 7c3d a901 f2bd d506 863e 43b0 fdbd
00000330: 308e 1c3e b7da 3b3c 4777 9cbd a0d8 c6bc
00000340: c43f 943f b7fa 72bf 5f61 973f 2b64 c1be
00000350: ece8 ebbf 3629 313f ee98 543e ac8d c73d
00000360: 7af9 ed3d 61b2 29be 469a d1bc fe9f fd3d
00000370: f3f6 60be 0183 6c3e 073a 75be e93c 57be
00000380: da14 243e b02f 56be 739e a83f f42f c63f
00000390: 90f1 dd3f ec3c dfbd e268 1140 eade 0c3f
000003a0: ab6c 6f3e 8c84 873e 7d1c 23bd 9448 6b3c
000003b0: a929 15be 67b3 683e d5c4 443e c0cb 2ebe
000003c0: a963 24be 7442 943c c55e fa3d d2e9 fbbc
000003d0: b836 6abe bc61 e7bc 3f97 943e 4aa1 cdbe
000003e0: 9376 27bf b6a5 5a3e cf9e 453e 3da4 943d
000003f0: 5622 a2ba 7674 253e ace4 eebd 58f1 0bbe
0.10645805 -0.091504544 0.0032059767 0.030307356 -0.28559196 0.06009346 -0.13839486 0.030647783
0.032920342 -0.054810442 -0.5301427 0.8275885 0.26651925 0.06534004 -0.4199285 0.2820672
0.28928465 -0.49587828 0.16396129 0.1495517 -0.18870509 -0.08054524 -0.07543663 -0.0863719
-0.038000796 0.036946725 0.075002864 -0.012598614 0.08202367 0.8158192 -0.2343186 0.007881932
0.20335722 0.52982795 0.09277777 -0.6859093 0.05994202 -0.084516525 0.0068773967 -0.11629853
0.08810208 -0.13991438 0.16329958 -0.016627839 -0.22924379 0.01609732 1.19877 0.55387133
-0.64685154 -0.23992859 0.14327413 -0.59547216 0.18720774 0.28504357 0.19190763 0.16413452
-0.11016373 -0.08397275 0.1324615 0.012473164 -0.17662306 0.22664253 0.030438803 0.109763935
0.11509315 0.94935447 0.4036422 -0.37418288 -0.9848803 0.0862675 0.14773756 0.043005183
-0.022132628 -0.013980971 0.33230147 0.033114303 0.13732043 0.030055732 -0.31180155 0.13047358
-0.21690045 -0.048261445 0.28522313 0.18850686 2.273072 -0.62910384 -2.0351968 1.9460378
0.19721259 -0.54267913 -0.15027487 -0.193025 -0.020224629 0.054500967 -0.24244386 -0.13250555
0.071605936 0.033456966 -0.15351798 -0.16911596 1.5009968 0.8405672 0.5385473 -0.14703174
-1.7001219 -0.70296925 0.015709648 -0.21549985 0.14536518 -0.069262095 0.1250106 0.12725516
0.34174344 -0.2519324 -0.045762803 0.16206397 0.11882729 0.052262284 -0.630407 -0.52003026
0.45934662 0.21741235 0.04403573 -0.3804763 0.101753816 -0.27010205 -0.1847079 -0.04649931
0.073961936 0.11066439 -0.20968649 -0.022749746 0.11835959 0.07145685 0.13340567 -0.024977298
-0.57075316 -0.42381474 0.44917747 -0.31691 0.8758021 -0.2599953 -0.42148146 -0.51414835
-0.08996101 -0.18543155 0.097097695 -0.02529725 0.13782059 0.05043464 -0.16420086 0.16218957
-0.091614306 -0.05820584 -2.2001312 -0.7302845 1.1250707 0.048386134 0.5914863 0.2752594
-0.2594698 0.24297464 -0.17735241 0.04724981 -0.21529342 0.10861068 -0.18364818 -0.035384163
-0.18581986 -0.06375659 -0.09232381 0.12142127 -0.09822987 -0.07377246 1.3350493 -0.61013806
0.66476774 0.48362285 0.16828355 1.0383956 0.03314433 0.09715707 -0.16156153 -0.018372603
-0.123362064 0.28979653 -0.147039 -0.13830791 0.0500939 -0.083785325 0.102180466 -0.12856385
-0.027774535 0.17894568 0.16183104 -0.0588426 0.00044736642 -0.1894502 0.13068932 -0.14792769
0.061718673 -0.11816723 0.26177087 -0.12387135 0.15288615 0.01146572 -0.07639938 -0.024273217
1.158196 -0.9491381 1.182659 -0.37771735 -1.8430457 0.6920351 0.20761463 0.09743819
0.116198495 -0.16571952 -0.025586259 0.12384032 -0.21969204 0.23096849 -0.23947917 -0.21019329
0.16023579 -0.20916629 1.3173355 1.5483384 1.7339344 -0.10900292 2.2720265 0.5502764
0.23381297 0.26468313 -0.03982209 0.014360566 -0.14566673 0.22724687 0.1921571 -0.17069912
-0.16053642 0.018098094 0.12225107 -0.030751143 -0.22872436 -0.028244846 0.29021642 -0.40162116
-0.65415305 0.21352276 0.19298862 0.072578885 -0.0012369852 0.16157708 -0.116647094 -0.13666284

invertible_encoder.bijectors.0.net.0.bias f4 [256]
00000000: afe3 693c 3fb8 03bb 0c6d 1a3d f74a 86bd
00000010: 9856 533d b07a a63d 72e9 77be fe75 03be
00000020: 038b 1a3c ebb9 e23d 0002 34bc 983b 54ba
00000030: ffd5 7f3d 3fef ebbd fb10 14be bb17 b13d
00000040: a297 3ebc 97d8 573d 51ea 2e3d a22f a83a
00000050: 1659 e33d b0f2 563d b93d 3cbe 9c39 303c
00000060: 1618 44bb 9e7d bb3c e68e a5bd e2bc 3c3d
00000070: 4ca1 ddbc 9693 873d 3976 1ebc 7781 363d
00000080: b2fb bbbc 7a89 4fbd 28fa e83c 650c 8b3d
00000090: c8e9 333d 251c 07be 38d7 423d 8042 ec3b
000000a0: fe16 2bbe b614 72be 2f16 353c 26e8 2dbd
000000b0: 2ca1 953d 3ead 91bc 3dc6 0cbe 289f 1a3d
000000c0: 0359 153d 049a 74bc 16ee 053e acd1 a33d
000000d0: 62a9 0c3b 61e1 9c3d 56c6 b4bd 655c b73b
000000e0: 052b 85bd 6a2b f0bc 8bc3 2abc ebe8 ed3d
000000f0: f8bc 68bc 9015 063d cf77 713c a2e5 3d3c
00000100: d1c1 afbc 0697 38be e082 bfbd 44f4 66bd
00000110: 6657 9a39 8b1e 19bd a384 2abe e418 6bbd
00000120: 1705 e53c 10b5 56bc c6e5 bdbd e6fa 24be
00000130: 3cfc d2bd 90dd 03be 4d0d 183d 260a b33c
00000140: f925 c53b a6c6 f33c bb73 89ba b2ee c7bb
00000150: f461 11bd cae1 5d3b a90c 92bd 0bf3 b13d
00000160: 237a 29bd f0f4 353d 8918 983c 9606 973d
00000170: 76dd ffba fc02 0fbd d56e b03d 0d32 e3bd
00000180: 9435 b83c 8d98 01bb 1106 11bd 7c85 9dbc
00000190: f0e8 1b3c c463 083d a4ea 6cbd ba10 7bbc
000001a0: 60b3 dfbd d621 893d c417 103d f08e 28bc
000001b0: 9d40 b73d 92d4 03bd 81f0 043d 339a fdbc
000001c0: 03b5 783d 5827 963d 65fb 9c3c 4e61 9dbd
000001d0: e750 863b 45c5 5bbe fb4b 113e ffc1 933b
000001e0: 594b a5bb ec5c 26be 929f 503b 4370 063d
000001f0: 18b5 aebd 1613 55bb 8f3e db3b 3eb2 403d
00000200: d20e d13d 2a7e f1bc f4f0 0abe cb23 7b3c
00000210: 969d cbbb 49b9 04be 141e 18be 35a4 b73d
00000220: 8126 37bd 4f8e 033e df03 c9bd 8af8 d43d
00000230: 7290 8fbd c839 4a3d 54d9 313e d484 8b3d
00000240: 38be 8cbd 38ca 81bc b96a 6cbd 9076 183c
00000250: cdf2 dc39 b17f 9d3c 3708 f2bd 2ce5 ba3d
00000260: 5a3d b1bd 5723 8d3c 5b19 afbc c9ac 703d
00000270: f2f2 ef3c 16a3 403d d5bc d83d c543 8f3d
00000280: a657 3f3c 6e9d b83b bdc1 263d 92b9 1f3d
00000290: 6a6a 353d 10f7 b23d 019f 01bd 0156 8fba
000002a0: 422f 8bbd f728 383d 31bf 003b 110b 16be
000002b0: f25a 07bd 4069 54bd b5e1 f93b 6d48 f33c
000002c0: 92a3 bdbb b1f0 4abd b8e7 a6bd 7494 e6bd
000002d0: 4408 993d 9ac3 903d b8f9 2abe 80ea 8e3d
000002e0: 9a12 863c dd6e d7bd 3151 053d 4fbd f0bc
000002f0: 9864 0cbe 2d82 043d 9b7c b93b 41e3 6b3b
00000300: 83e7 0d3e dcd3 d03d e428 953c 27d7 15bc
00000310: cbe4 e9bc 4c7a 8dbc 828d 2f3d 89d8 403d
00000320: 850c 3d3e 854a 2b3d 031f 3a3d ff6b febd
00000330: 7e69 803d 22ac 2abb e07d 91bd fce4 873c
00000340: 1fd6 8e3b 7b2f a3bd cb09 dbbc 1016 e6bd
00000350: 47cb 893d e07d e6bc cd13 f43c 5c03 ceba
00000360: 31dd 2abd 9787 6fbc 0523 16be 8cfc 763c
00000370: f106 dabb 7420 6c3c 5515 873d ffc0 c03d
00000380: bbcc d13c 5993 5d3d 3ff9 9cbd 6c63 023d
00000390: af8a 0abe 2e95 c83c eba0 423c c78f 6b3d
000003a0: 398c 5139 a3b4 2fbc 7038 86bd f07c b83c
000003b0: 456d e63c ac07 40bd 1771 98bd da8c 10be
000003c0: 4459 113d 8268 bc3d ea09 953c 5fb1 7d3d
000003d0: 91bd 7dbd bda5 3f3d 87c9 013d f580 393c
000003e0: a273 52bc 7a56 e7bd 6167 38bd 59cc 463d
000003f0: 58bf 913c b86e 1cbd 1a6a 4bbd 4672 043e
0.014275475 -0.0020098833 0.03770165 -0.06557267 0.051596254 0.081288695 -0.24210146 -0.12837979
0.009432557 0.11070617 -0.010986805 -0.00080960384 0.062459942 -0.11520242 -0.14459603 0.08647104
-0.011632832 0.05269679 0.04270393 0.0012831578 0.11100976 0.05247754 -0.1838292 0.010755923
-0.0029921583 0.022887047 -0.08083896 0.04607857 -0.027054451 0.06619947 -0.009671741 0.04455706
-0.022947166 -0.050668217 0.028439596 0.067894734 0.043924123 -0.1319433 0.04756853 0.007210076
-0.1670799 -0.23640713 0.011052652 -0.042457722 0.07306132 -0.017782804 -0.13747497 0.03774944
0.03646184 -0.014929298 0.13079104 0.07998976 0.0021463265 0.07660175 -0.08826892 0.005595731
-0.06502346 -0.029317576 -0.010422598 0.11616691 -0.01420521 0.032735407 0.014738037 0.011590393
-0.021454724 -0.18026361 -0.09351134 -0.056385294 0.00029438286 -0.037382644 -0.1665216 -0.057396784
0.027956529 -0.013104692 -0.092723414 -0.16111335 -0.10302016 -0.12877488 0.03712206 0.021855425
0.0060164896 0.029757809 -0.0010486761 -0.0061014527 -0.035493806 0.0033856505 -0.07131321 0.08688935
-0.041376244 0.044423044 0.018566387 0.07374303 -0.0019520957 -0.034914955 0.086148895 -0.11093531
0.022486486 -0.0019774765 -0.035406176 -0.01922869 0.009515986 0.03329827 -0.05784096 -0.015323812
-0.10922885 0.06695907 0.035178915 -0.010287985 0.08947871 -0.032185145 0.032455925 -0.030957317
0.0607195 0.07331723 0.019162843 -0.07684575 0.004099 -0.21461971 0.1418914 0.00450921
-0.0050443825 -0.16246384 0.0031833393 0.032821905 -0.08530635 -0.0032512597 0.006690807 0.047044985
0.10207905 -0.029479105 -0.13568479 0.015328358 -0.006213854 -0.12961306 -0.14855224 0.08966867
-0.044714455 0.12847255 -0.098151915 0.103989676 -0.07009973 0.04937151 0.1736806 0.06812444
-0.06872219 -0.015843496 -0.057718966 0.009305611 0.0004214257 0.019225927 -0.11817973 0.09125742
-0.0865428 0.017228765 -0.021374395 0.05875853 0.02929065 0.04703053 0.10582892 0.06995348
0.011678612 0.0056340015 0.040712107 0.038995333 0.044290937 0.0873853 -0.03164578 -0.0010935665
-0.06796123 0.044960942 0.001964521 -0.14652659 -0.033045717 -0.051858187 0.0076257833 0.029697621
-0.0057873214 -0.049545947 -0.081496656 -0.11258784 0.0747228 0.07068558 -0.16696823 0.06978321
0.016366292 -0.10519192 0.032548133 -0.029387144 -0.13710248 0.032350708 0.005660606 0.0035993608
0.13857846 0.10196659 0.018207975 -0.009145535 -0.02855148 -0.01727023 0.04285956 0.047081504
0.18461807 0.041819114 0.04543973 -0.12422942 0.06270121 -0.002604254 -0.07104087 0.01658868
0.0043590213 -0.079680406 -0.026738068 -0.11234677 0.06728225 -0.028136194 0.029794598 -0.0015717554
-0.04171485 -0.0146197295 -0.14661796 0.01507486 -0.0066536595 0.014412034 0.06595866 0.09411811
0.025610318 0.0540956 -0.076647274 0.031833097 -0.13529466 0.024485197 0.011879186 0.057510164
0.0001998403 -0.0107242195 -0.06553733 0.022520512 0.028128276 -0.046882316 -0.07443445 -0.1411623
0.03548552 0.09199621 0.018193204 0.061936732 -0.061948363 0.04678892 0.031686332 0.01132225
-0.012844952 -0.11295791 -0.045020465 0.048534725 0.017791435 -0.038191527 -0.049661733 0.12934217

invertible_encoder.bijectors.0.net.2.weight f4 [18, 256]
00000000: 49a8 473a 1ca2 0d3b d95c 883b 31e7 feba
00000010: ad4c aebc 14c8 5f3c b359 1abc 0cf2 82bc
00000020: 20a5 10bc e888 3e3a dca3 b839 3277 b8bb
00000030: 7dfa 5fbc 9971 313c a6e3 c2ba 4613 f43c
00000040: ecb8 b1bb 33b3 ddbc 6d9e 293b a6e7 4a3c
00000050: ac9c 4d3c 4012 b53b ac23 0d3b a742 8539
00000060: fc4a 893c fe15 de3b a3a7 e8bc bf62 eb3b
00000070: 10fa 1e3c 139b 013c 2af4 26bc a218 bf3b
00000080: 9b18 f6bd fe95 833b ae57 8a3a 997f e23d
00000090: e967 e53c dc1e 083b cd39 6bbb df7e 0c3e
000000a0: ec4e 71bc 515b 7aba d65c 6c3d c9b8 11bb
000000b0: 08ad 0139 fccc a4bc 4733 153c 3ff8 acbc
000000c0: e422 313a e1be ffbb 1d12 27bc 98d1 b73b
000000d0: 7dce 07bb ba05 2d3c c452 72bb 5fcb 66bd
000000e0: ec02 0abc cfa5 9d3d f70e 51bc ccb5 193d
000000f0: 72ae 4d3c 4c75 77bc fd39 a83b 9732 233c
00000100: c576 3ebc d9f8 aa3c fa79 49bd ee60 e33a
00000110: 9606 2fbb 4522 2a3c 9637 45ba 7f95 a93c
00000120: f70b 22bc 30ec 3b3c 7fdc c13b 8671 13bc
00000130: d4e9 bdbb 4e46 2c3b 5bdb 3ebc c3da 0a3c
00000140: c425 133c 8b15 2abc 1d26 643c 9c69 b13c
00000150: 9d8b 8b3b 6853 33bb 1e8c 953c 9adc 963c
00000160: fcc4 46bc a9b3 e93c da7a b1bc 8827 9e3c
00000170: 175e dd3c 9fed e0bb 6ba6 303d 1906 dfbd
00000180: a03c 79ba be25 83bc fcd0 a53c d166 ccbc
00000190: 839d 4c3b e4c0 173d 77c6 a13c a66e e13c
000001a0: b1df 1ebd b974 0b3a c009 493c 84fb 13bc
000001b0: 7ed8 94bb d6ff dd3a b3b2 59bc d81c 5fbc
000001c0: 87ed b0bc d2b4 9a3b b720 01bc 23aa ecbb
000001d0: 5c28 27bd 58ed 02bb 101f 85bc 42bd c9bb
000001e0: 51ea 853b e62a 62bc 24e9 c3bd 0e43 d43a
000001f0: feed 413c d6ab 8d3b 7a48 adba 884d d9bc
00000200: 1913 d7bc 459b b0bb 881d a4bc 78cb af3a
00000210: 3d41 e5bb 92bf 52ba ac02 113b 5744 f23c
00000220: 3e9b b63a 6083 6f3b 353a 20bb e6a7 af3c
00000230: 0f35 a43b be12 edbb 7a27 003d 5448 0bbc
00000240: d871 e23c 99c2 693d 511c 8c3c c01b bcbd
00000250: 069b febc a88a 0a3d c328 1a3a 8fa3 a7bb
00000260: 0cad 39bc 2ab3 8a3d f1c1 ef3c f290 c23b
00000270: a3d9 8e3d 760d 073b 0f58 413b 017f 84bb
00000280: d870 f43c 7735 353c 83b9 133c 7061 a13c
00000290: 0d5e 583c c51e 173c 8c09 073b 0fda 873c
000002a0: c843 303a b772 0e3c 5f9c 253c 38e7 5cbb
000002b0: 723d ad3b ea5e 3abb ce0f 8f3c f34b 7abb
000002c0: ef4a dbbc e78b cc3c a61b 0fbc 8fb7 253b
000002d0: f51c d7ba 59a1 3e3c 0b7b bbbb aec4 9a3a
000002e0: 6db2 82bc baf2 9d3b a8bc 183b e051 943c
000002f0: 89b8 a2ba a048 1fbb 9c1a 46bd ea5a 563c
00000300: 72f9 343c 0ba6 f6bc ede8 753b bb3d 83bb
00000310: ee6e d9bb 02f8 9d3b 5e38 05bb 771d 283c
00000320: 2b55 c13b 3f7a 53bc efaa 963c c2e9 82bc
00000330: 48e8 0abc ddf3 99bc 0b31 ca3c 43f4 873c
00000340: b32b a43d a46f 31bc c526 c23b d170 2a3c
00000350: c8e2 89bc 7649 1bbc 25b7 fcbc b1cf 9d3b
00000360: 0689 523c 5e16 58bb 014d 6d3c 9126 79bc
00000370: 6699 86bc 4dec c5bc ddc2 66bc 5cfc 2cbc
00000380: 798b e5bb 033a 773c e1da bd3b 938d 86bc
00000390: 600a 13bd 0f00 d23a 3c89 4d3a a242 a5bb
000003a0: 50da 763b dabb 563c 382f 33bb 5792 1fbb
000003b0: 70ee 5a3b e261 0f3c ec95 c6bb cd30 77bb
000003c0: dbd8 08bb 490a c339 5e7f 3d3d 420e 5b3a
000003d0: ce20 04bc cc8d b03b f61d afbb 1e89 563d
000003e0: 85c5 1d3d f2f1 603c 77d9 dabc 3bea 003d
000003f0: 8c58 ca3c 50e3 933a 1ab1 7f3d 5680 1db9
0.0007616324 0.0021611517 0.004161459 -0.0019447563 -0.021276796 0.013658542 -0.0094208 -0.015984558
-0.008828431 0.00072683254 0.000352173 -0.0056294436 -0.013670561 0.010830306 -0.001486887 0.029794347
-0.0054236557 -0.027062988 0.0025881783 0.012384331 0.0125495605 0.005525857 0.0021536155 0.00025417397
0.016759388 0.006777524 -0.028400248 0.0071834023 0.009703174 0.007910508 -0.010190049 0.005831794
-0.12016412 0.004015683 0.0010554695 0.110594936 0.02800365 0.0020770347 -0.0035892606 0.13720272
-0.014728289 -0.00095503504 0.057705723 -0.0022235385 0.00012366858 -0.020117275 0.009106464 -0.021114467
0.0006757213 -0.007804737 -0.01019719 0.0056097023 -0.0020722442 0.010560447 -0.0036975602 -0.056346294
-0.008423548 0.07697641 -0.012759916 0.03752689 0.012553798 -0.015103649 0.005133866 0.009960792
-0.011624997 0.020870613 -0.04918859 0.0017347613 -0.0026706806 0.010384147 -0.00075232366 0.020701168
-0.009890548 0.011469886 0.0059161778 -0.008999234 -0.0057956968 0.0026287022 -0.011648978 0.008475008
0.008981172 -0.010381113 0.013925103 0.021656804 0.0042585866 -0.0027362946 0.01825529 0.018415738
-0.012131926 0.028528051 -0.021665026 0.01930596 0.027022405 -0.006864264 0.04312746 -0.10889835
-0.000950763 -0.016009208 0.020241253 -0.02495137 0.0031221814 0.03704919 0.019747956 0.027518582
-0.038787547 0.0005319822 0.012270391 -0.009032134 -0.0045424094 0.0016937207 -0.013287234 -0.013617717
-0.021597637 0.0047212625 -0.007881335 -0.0072224303 -0.040809974 -0.0019977894 -0.016250163 -0.0061565945
0.0040867706 -0.013804173 -0.095659524 0.00161943 0.011836527 0.004323463 -0.0013220452 -0.026526228
-0.026254224 -0.0053896033 -0.020033613 0.0013412079 -0.0069963024 -0.00080394105 0.0022126837 0.029573603
0.0013931764 0.0036546811 -0.0024448757 0.021442365 0.005011208 -0.0072349003 0.031287648 -0.008501131
0.027642176 0.05707035 0.017103346 -0.091849804 -0.03107978 0.03382364 0.0005880708 -0.0051159333
-0.0113327615 0.06772454 0.029267283 0.005937689 0.06975105 0.0020607389 0.002950195 -0.0040434604
0.029838964 0.01106011 0.009016397 0.019699782 0.013206017 0.009223645 0.0020605056 0.01658347
0.00067239674 0.008694342 0.010108083 -0.0033707153 0.005286866 -0.002843792 0.017463591 -0.0038192242
-0.02676913 0.024969054 -0.008734619 0.0025286411 -0.0016411828 0.011635148 -0.005721455 0.0011807883
-0.01595422 0.004820195 0.0023305807 0.018105447 -0.0012414615 -0.0024304762 -0.04836522 0.013083199
0.0110458005 -0.030108472 0.0037522868 -0.0040051616 -0.0066355383 0.0048208246 -0.0020327787 0.010260931
0.0059000454 -0.012907564 0.018392054 -0.015980605 -0.008478232 -0.01879304 0.024681589 0.016595965
0.080161475 -0.01082984 0.005925032 0.010402874 -0.01683177 -0.009477964 -0.030849049 0.0048160185
0.012850052 -0.0032972316 0.014483691 -0.015206949 -0.016430568 -0.024160529 -0.014084545 -0.010558214
-0.007005152 0.015089515 0.0057939147 -0.01642493 -0.035898566 0.0016021746 0.0007840579 -0.0050433436
0.0037666745 0.013106311 -0.0027341377 -0.00243487 0.003340628 0.008751364 -0.0060603525 -0.0037718297
-0.002088121 0.0003720096 0.046264045 0.00083563116 -0.008064462 0.0053879973 -0.005344148 0.05237686
0.038518447 0.013729559 -0.026715023 0.03147338 0.024700426 0.0011282954 0.062424757 -0.00015020496

invertible_encoder.bijectors.0.net.2.bias f4 [18]
00000000: a8f2 6c3c 0671 cbbb 640b 0a3d 9114 e13c
00000010: 8472 0fbc fc1a 9fbc ca96 bf3c 7691 e7bb
00000020: 6fe9 dd3b 5043 12bd dbf1 883c 9916 aebc
00000030: 8e67 51bd 9c52 0fbb b579 3abc 2698 1b3c
00000040: 00cd bcbc 3146 9c3b
0.014462151 -0.006208542 0.03370227 0.027475627 -0.00875533 -0.019422047 0.023387332 -0.007066901
0.006772212 -0.035708725 0.016716888 -0.02125101 -0.051124148 -0.0021869307 -0.011381556 0.009496724
-0.02304697 0.0047691097

invertible_encoder.bijectors.1.net.0.weight f4 [256, 18]
00000000: 464c 2d3e af43 593e 3dc9 05be 4e89 b2be
00000010: 1412 85bd 286b 4a3e 0e9c 75be e6cf 2f3e
00000020: aa91 343b 3acc 24be 6779 8f3d 69a7 733e
00000030: 5423 9dbe 0ae0 b03e fc30 8fbd 7190 e9be
00000040: 40e8 813e 21c1 e73d c060 c03e 6274 aa3d
00000050: 3763 cdbd 0bef 08be 58ca 463e 4901 65be
00000060: 81e9 26be 2078 4cbc f769 093e a517 da3e
00000070: 4195 eb3c 2834 883d 1079 41be 662c afbf
00000080: 4453 043e b960 933d 4e8a b13e e190 873d
00000090: 93af fd3d cb9d f13d b506 b4bd 5d50 5abd
000000a0: 875e 5fbe c177 d43e ed50 acbe 6015 89bd
000000b0: 7641 9c3e 86f8 d73e 3a17 dfbd 2883 20bd
000000c0: f246 103d 7c05 bdbd 9db1 6b3e 7de7 a2bd
000000d0: 39b5 603e 0a4c 06bf 07c8 463e 4926 813f
000000e0: 7c22 023b 81d0 903e 4fff 63be 88e4 45be
000000f0: a049 473e a9c8 d43e 95fc 9cbe 438b b5bd
00000100: e3a5 293e 88db 1b3d 7838 a9be 68d7 cdbc
00000110: 7e32 2ebd 9b44 063f bd76 8fbe e922 c3be
00000120: feca 96be 44c9 96be 6571 e3bd 8ab8 90bd
00000130: 9632 9d3e 2661 853e f0be a33d dc36 f9bd
00000140: 6397 593e f41b ab3e 78fa 923a 39a2 2e3e
00000150: f3db d83a de4c 2bbd af71 9ebd b1f4 a43e
00000160: a22c 9d3e 4964 5bbd 85a8 acbd 6aca f0be
00000170: db6c a2be a711 8fbe c835 aabe 5e74 7a3e
00000180: ca72 febd d557 c5be eb9f 4c3e 1742 573e
00000190: 3640 3dbd 9458 653e bc18 143b 1377 dfbe
000001a0: ea8e 813f 47b1 313d cca9 633e 9c76 003d
000001b0: f87e dbbd bf67 943d e0db b9bd 52e3 edbd
000001c0: f046 9d3d 6d07 60bd db36 863c 7f3c 36bd
000001d0: 63c9 20be 21cc 263e 0204 c63d 16b3 0fbc
000001e0: 7bca 333e 1411 2f3e 2301 153d e448 783e
000001f0: 2dbf 3d3e af7e b83d 8adc 103f 5f26 2a3f
00000200: 222f 8e3e 19b8 2fbe 9b0f 133f b971 c6be
00000210: d764 02be 8515 ee3d cd08 53be 7611 1dbe
00000220: 0538 97bc 4c30 9b3c 5526 8abe 7cc6 4bbf
00000230: 6939 47be e2a0 a6bd d263 8dbc ed84 f53c
00000240: 21aa babe f0fe b43d 4a7d 99be 73d0 e43b
00000250: cc2d a5be c673 1dbd b44f c2be f76f 393e
00000260: 1a80 53bd e661 25bd bd2f 1bbe 25ab 2d3f
00000270: bbeb 9a3d 989e 9d3e 63e0 9f3e 3f99 063f
00000280: 9f20 353d 4051 87be efa4 73be 3c33 633e
00000290: de72 59be 0e29 00bf 7dfc cabd 1d6f 0b3e
000002a0: 4f1e 6ebb 6d41 d2bd b069 81be 1b45 65bd
000002b0: 3dda 33be 22bb b63d b95d 94bd 6527 e1be
000002c0: fef4 8c3e 4545 76be f806 90bc 83f2 a6bd
000002d0: 03c3 ea3e 8dae 183f 7fc4 533e 88bb 893e
000002e0: 1c18 833e 86b0 8abd ac7e 9b3d d812 44be
000002f0: c8f9 353d 7833 98bd 1699 023e f707 a33d
00000300: c06e f53d f0b0 59bd 5f26 88bd 53e0 cfbc
00000310: c718 15be 7d80 86be e081 00bf 3c7e cdbe
00000320: e839 c6bc c63e b33d 5fab 90be 2d05 423e
00000330: 3ce4 3abe 3585 15bf d8bb 913e 758a 333e
00000340: 1743 83be dca9 8f3b 37e5 af3c 2b4c 8b3d
00000350: 1fd4 433e 8e40 9fbc c806 d43e ab4a 94be
00000360: d419 85bf 1156 bfbf f54e 8d3d 357e e03c
00000370: 1d77 513f f85a a03d b60c 0fbe 3ac5 53be
00000380: 0454 68bd 5e76 14be d8a7 523d cad0 ebbd
00000390: 70ab 973e b3fc 01be 0b99 93be c756 68be
000003a0: caf5 42be 8b10 053e 94b4 093f 93f4 8b3e
000003b0: 594e a03e cea4 cb3d b561 1e3f 9901 2abd
000003c0: 7afb 003e cc2e 813e 1a42 873e ba9a 853e
000003d0: d7ae b4bd 299f 56be a3ad efbd 39dd f5be
000003e0: ce44 163d 4456 933e 6ff5 f73c a599 f43d
000003f0: c65c 06bd 889b 9c3e 2338 67bd 197b 64be
0.16923627 0.21217225 -0.13065048 -0.3487038 -0.06497589 0.1976744 -0.23985311 0.1716915
0.0027552643 -0.16093531 0.070055775 0.2379433 -0.30691016 0.34545928 -0.06991765 -0.45618013
0.25372505 0.11316133 0.37573814 0.083229795 -0.10028689 -0.13372438 0.19413126 -0.22363771
-0.16300012 -0.012479812 0.13419329 0.42596164 0.028757693 0.06650573 -0.18893838 -1.3685424
0.12922388 0.07196183 0.3467583 0.0661943 0.12387004 0.11797675 -0.08790342 -0.053299297
-0.21813403 0.41497615 -0.3365549 -0.0669353 0.30518693 0.42181796 -0.10893102 -0.03918758
0.03522391 -0.09229562 0.23016973 -0.07954309 0.21944131 -0.52459776 0.19412242 1.0089809
0.001985698 0.28284076 -0.22265361 -0.19325459 0.1946168 0.41559342 -0.30661455 -0.08864453
0.16567187 0.03805116 -0.33050895 -0.025127128 -0.04252862 0.52448434 -0.28020278 -0.38112572
-0.29451746 -0.29450428 -0.11105613 -0.07066448 0.30702657 0.2605068 0.07995403 -0.12168667
0.21249156 0.33419764 0.0011213562 0.1705407 0.0016545042 -0.041821353 -0.07736527 0.32217935
0.30698115 -0.053562436 -0.0843058 -0.4702943 -0.31723675 -0.27943155 -0.33244157 0.24458453
-0.12424238 -0.38543573 0.19982879 0.21021305 -0.046203814 0.22397071 0.002259775 -0.43645534
1.0121739 0.043381955 0.22232741 0.031363115 -0.10717577 0.072463505 -0.09075141 -0.116156235
0.07679546 -0.05469458 0.016383579 -0.044491287 -0.15701823 0.16288806 0.09668733 -0.008770725
0.17557709 0.17096359 0.036378037 0.24246556 0.18529959 0.09008538 0.56586516 0.664648
0.27770334 -0.17160071 0.5744569 -0.38758639 -0.1273378 0.11625198 -0.20608826 -0.15338692
-0.01845933 0.018943928 -0.2698237 -0.7959974 -0.19455494 -0.08136155 -0.017259512 0.02997061
-0.36457923 0.08837688 -0.299784 0.006982857 -0.32261503 -0.03844049 -0.37951434 0.18109117
-0.05163584 -0.040376566 -0.1515493 0.6783927 0.07564493 0.3078506 0.3122588 0.52577585
0.044220563 -0.26429176 -0.23793386 0.22187513 -0.21235225 -0.50062644 -0.099114396 0.13616605
-0.0036333983 -0.10266385 -0.25275946 -0.055974107 -0.1756372 0.089224115 -0.07244439 -0.43975368
0.27530664 -0.24049862 -0.017581448 -0.08151724 0.45851907 0.59641343 0.20680426 0.26900887
0.25604331 -0.067719504 0.0759252 -0.19147813 0.044427663 -0.07431692 0.1275371 0.079605035
0.119840145 -0.053147256 -0.06647944 -0.02537552 -0.14560233 -0.26269904 -0.50198174 -0.40135372
-0.024197534 0.087522075 -0.28255746 0.18947287 -0.18251127 -0.5840638 0.28463626 0.17533286
-0.25637123 0.0043842625 0.021471603 0.06801637 0.19123887 -0.019439962 0.41411424 -0.28963217
-1.0398507 -1.494814 0.068998255 0.02740393 0.8182238 0.07829851 -0.13969693 -0.20680705
-0.05672075 -0.14498278 0.0514296 -0.11514433 0.29622984 -0.12694053 -0.288277 -0.22689353
-0.19039074 0.12994592 0.53791165 0.27335033 0.31309775 0.099435434 0.6186784 -0.04150543
0.1259593 0.25231016 0.2641762 0.2609461 -0.088224106 -0.20959152 -0.117030405 -0.48020342
0.03668671 0.28776753 0.030268399 0.11943368 -0.03280332 0.3058741 -0.05645002 -0.22312583

invertible_encoder.bijectors.1.net.0.bias f4 [256]
00000000: 1a64 9d3b 46ec 2eb9 6b39 463d 4a5f b0bd
00000010: 3ad5 f93c a9b1 4f3d 1d6a 62bc 7cbd 90bd
00000020: 069a ae3c 03c3 b63c 89bf 32bd ff89 373d
00000030: a57f 833c 04cc 02bd a750 9abc 419f 3c3d
00000040: 7287 7dbd 0466 bdb9 cbd4 cf3c 352f 4cbd
00000050: e667 063d 6435 0ebd 3147 793c 1960 93bb
00000060: c31f fbbb 39ec e73a f0f3 62bd e97f 443d
00000070: f006 853d 574f 5fbd 04cc 3c3d 1da4 223d
00000080: 3de2 fabc 4693 00bd 2814 4cbd 30b9 61bd
00000090: 9011 25bc 5fe5 33bd a70c 0bbd 63f8 bfbb
000000a0: 54b8 343d 901e 0d3d 8d4b bf3c 98e5 6dbd
000000b0: c301 4dbd 742a 973b da78 063d 77f6 70bc
000000c0: dd1d 5dbd a0ad 9a3d d36d cb3b f0de 3b3b
000000d0: 28f8 5dbc 8b2a c6bc 5ebc 8b3d 68cf 6d3d
000000e0: d462 02bd 2c03 493d b0fa ecbc e814 9dbd
000000f0: e566 bb3c 8bfd 94ba f1a0 813c b3c1 eebd
00000100: 8840 c93b 6432 8abd e049 a1bd 5494 88bd
00000110: 4556 3bbb 3211 3f3d 944e 203d 5672 3bbd
00000120: 9c8a b1bc acc9 ef3c 6ccb dfbb aac0 843c
00000130: 48e3 e3bc f16f b4bd 3279 073c c350 173d
00000140: cf4b 9a3d 3d31 513d 2d9a 9f3b 5eea 843d
00000150: 87f2 77bc 4470 76bd c072 60bd 0077 2d3d
00000160: da2d 85bc 12ca 3abd 0440 233d bda0 d13c
00000170: 59ac 34bd 3dfe a3bd 4c83 4ebd edc5 6fbd
00000180: 93e0 b23c a52c 9e3b 9f12 6dbd 9564 03bb
00000190: 82ad 4c3d ca13 9abd 4fbf 8fbd fa78 cd3c
000001a0: e15c f23c e9f7 81bc 0fa6 df3c eaff f43d
000001b0: ef01 5bbd 9aca 383d fbc4 3abd 6d5a 1ebd
000001c0: 4d97 943a cdf8 703c 856f bdbd e593 eabc
000001d0: c2ef 4a3d 7c00 1cbd 38bc c13c 6de2 743c
000001e0: 9e08 58bd 088b d83c b60d f03b 10d3 be3c
000001f0: d5b2 39bd 4ef8 3fbd a5c8 af3d 77e2 523d
00000200: ef13 2b3d 5c6e 99bd 0af8 e7bc 1c08 1ebc
00000210: 3a67 eabb 547a 96bd 8240 503c 91de be3d
00000220: d435 843c 0a80 263d 7326 c93c 52cc 203d
00000230: b75d 553b fda5 3f3d f4e6 a33c 9286 603d
00000240: be44 a1bb 7eb8 043c 049e a6bb c210 ba3c
00000250: 5c9e 6dbd 0358 783d 5368 c63c 1ea2 edbc
00000260: 16b2 193d 9f48 94bd 54e6 59bb 6ef5 36bd
00000270: 6056 ce3d 540e d5bc f3eb 8abd 96fb 95bd
00000280: 635c 583d 9b06 7c3b bb8a 653b 3a01 fa3b
00000290: f020 433d d881 62bd ab23 2dbc aa5d 06be
000002a0: ba90 b03c 445a 0ebd e2f2 d4bb dcd1 01bd
000002b0: db53 e53c ac2f 3bbd 3e5e 96bc 1202 e4ba
000002c0: 3a8e 47bd d63e 183d 2d0f a3bc 34a3 70bd
000002d0: b018 92bd ec73 913c 7719 4cbb 488e 3f3d
000002e0: d9c3 20bc 2263 4bbd f5c2 003d 04d9 8abd
000002f0: d8ab a33d 4ecb e03c ac3e 0cbd fedd d4bc
00000300: 67c5 f83c ce41 ed3c 7c9a 8cbd 733d 183d
00000310: d724 0a3d ed44 d83c e9a4 98bd e361 b4bc
00000320: d104 80bd 5e49 35bd 1a9b 273d 747d 2bbc
00000330: 959d c9b9 2959 203d 1bd2 78bd e2fa 1e3d
00000340: 63f8 653d d797 87bc a572 61bc d5d6 a1bc
00000350: dccc d83c 2308 bcbc 6438 ae3d 722d 91bc
00000360: ee28 783c d655 29bd 22cd aebc b23a 003c
00000370: f044 2dbd 0214 1fbd 8b4c ba3c 8063 6cbd
00000380: 4414 773d 5011 49bc ca99 17bd 5904 97bc
00000390: 3782 fa3c c7d0 82bd 199c 11bd 9c9d 3d3d
000003a0: 3b51 61bd bae2 08bd 4e3f f43c 3025 a2bd
000003b0: 1151 763d 728e bd3c a069 033c 79e6 83bc
000003c0: 335b ba3b 41dc 10bd 2737 103d 1db3 fa3c
000003d0: 18b9 253d 4a2e 26bd 56bc 25bc 87ad 443d
000003e0: d688 81bc 25ba 69bd f5da 57bd dd46 f2bc
000003f0: 0929 c6bc 2d80 10bd abe8 abbc 7ada 623c
0.004803193 -0.00016681952 0.0483946 -0.08611925 0.030497182 0.05070654 -0.013819245 -0.07067391
0.021313678 0.022309786 -0.043639693 0.044809338 0.016052077 -0.031932846 -0.018837286 0.046050314
-0.06189675 -0.00036124897 0.025370022 -0.049849708 0.03281393 -0.034718886 0.015214727 -0.0044975397
-0.0076636984 0.0017694301 -0.05540842 0.047973547 0.06495464 -0.054519024 0.046093002 0.039707292
-0.030625457 -0.03139045 -0.04982391 -0.05510825 -0.010074988 -0.043919917 -0.033947613 -0.0058584674
0.0441211 0.034452975 0.023351455 -0.058080286 -0.05005051 0.004613215 0.032830097 -0.014707199
-0.053983558 0.075526476 0.0062081604 0.0028666817 -0.013547935 -0.024190208 0.068230376 0.058059126
-0.03183253 0.04907529 -0.02892813 -0.07670003 0.022876212 -0.0011367066 0.015823813 -0.11658039
0.006141726 -0.067478925 -0.07875419 -0.06668916 -0.0028585356 0.046647258 0.039137438 -0.045763336
-0.02167254 0.02927097 -0.0068296697 0.01620515 -0.027818337 -0.08810414 0.008268641 0.036942255
0.075339906 0.051072348 0.004870674 0.064900145 -0.015133507 -0.06016566 -0.054796934 0.042349815
-0.016257215 -0.045602866 0.039855972 0.025589341 -0.044109676 -0.080074765 -0.050418183 -0.058538366
0.021835601 0.0048270994 -0.057879087 -0.0020048965 0.049970157 -0.07523306 -0.07018911 0.0250821
0.029585304 -0.015865283 0.027300863 0.11962874 -0.05346864 0.04511509 -0.04559801 -0.038660455
0.0011336595 0.014707756 -0.09249786 -0.028634975 0.049545057 -0.0380864 0.02364932 0.014946562
-0.052742593 0.026433483 0.007325853 0.023294002 -0.045336563 -0.04686766 0.08583192 0.051485505
0.041767057 -0.074917525 -0.028316516 -0.009645488 -0.007153419 -0.07347551 0.012710692 0.09319795
0.016138949 0.04064945 0.024554467 0.039257355 0.003255708 0.046789158 0.020007588 0.054815836
-0.004921525 0.008100627 -0.005084755 0.022713069 -0.05801235 0.06063081 0.024219668 -0.029007968
0.03752335 -0.07240414 -0.0033248859 -0.044667654 0.100750685 -0.026007809 -0.06783285 -0.07323377
0.05282248 0.0038456086 0.0035025317 0.0076295407 0.047638834 -0.05529961 -0.010567586 -0.13121668
0.021553386 -0.034754053 -0.0064986805 -0.031694278 0.027994087 -0.04569976 -0.018355485 -0.0017395637
-0.048719622 0.0371693 -0.019904697 -0.058749393 -0.07133615 0.017755471 -0.0031143108 0.04676655
-0.009812319 -0.049655087 0.031435926 -0.06779674 0.07991761 0.027440693 -0.034239456 -0.02598476
0.030367566 0.028962042 -0.06865403 0.037167978 0.03372654 0.026400054 -0.07453329 -0.022019332
-0.06250919 -0.04425942 0.0409194 -0.010466922 -0.00038455115 0.03914753 -0.060747247 0.03881348
0.056145083 -0.016551895 -0.013760244 -0.01975576 0.026464872 -0.022953099 0.085068494 -0.017721865
0.015146477 -0.041341625 -0.02133805 0.007826494 -0.042302072 -0.03883744 0.022741577 -0.057712078
0.06032206 -0.012272194 -0.0370119 -0.01843469 0.03057967 -0.06387477 -0.035549257 0.046292886
-0.055009108 -0.03341935 0.029815342 -0.07917249 0.060135905 0.023139212 0.008020788 -0.016101109
0.0056871413 -0.0353663 0.035208847 0.030602986 0.040459722 -0.04057149 -0.010115704 0.04801705
-0.015812319 -0.057062287 -0.052699048 -0.029574806 -0.024189489 -0.035278488 -0.020984968 0.013846034

invertible_encoder.bijectors.1.net.2.weight f4 [18, 256]
00000000: 6755 a13b 1eb0 823c b115 263d 6d40 ccbc
00000010: 501e 533c 8328 03be d945 21bc eb9b 563b
00000020: 48d3 a6bd 4491 06bd e896 623d c195 8fbd
00000030: ce72 143e 2883 f63c e9c0 823d 0d67 1bbd
00000040: 8151 0e3c 9b6c 1b3e d813 adbd fe9d 313c
00000050: 68c4 1d3e 63f0 c03d 5793 f13c 82f8 3fbe
00000060: adbd 973d 5af6 dd3a 7a02 2bbe 62c5 d3bb
00000070: fee0 623c 17b6 80bd d4df d6bc aa13 733d
00000080: f2bb a93c da71 a73a 0d73 d03c a0b5 20bd
00000090: 528b 873c 39be fbbc ab67 afbc fad4 49bd
000000a0: a157 583d 3624 af3d 153b e0bb 12b5 6e3d
000000b0: 56da 53bd a5bf cc3d a296 39bd 3fdc 8dbd
000000c0: cc0a b3bc 6588 c33c f272 a2bd b9ec 433d
000000d0: 2512 103b e53b 423e 77da f4bc 1ee0 cdbc
000000e0: 87d6 333d 0d9d 65bd d197 b73c d312 07bd
000000f0: 3117 f23d 98ba 323d d4f7 aa39 3f19 32ba
00000100: 69dc 343d 3f9f 213c e663 35bd d324 2f3d
00000110: 483c cf3d 1783 41bd 08de 633d 1b80 a0bc
00000120: bab9 41be 4a77 5f3d b88a 46bd 40f4 81bc
00000130: 3b6d c33d 40e2 9e3b 99ee 253e f81e f8bc
00000140: c0ae 01bd 8853 1dbe a7c6 743d 166a fa3c
00000150: 72c3 95bb 623f 85be a692 003d 171a a6bd
00000160: 6ea2 9fbb 0858 2b3d 6444 203d 95ea a9be
00000170: 91c2 aa3d 8113 36bc 35e0 d4bd ea61 07bd
00000180: bdf3 503e b312 1cbd ec3e 94bd 9f60 433d
00000190: 65c0 e63d a027 fa3b 3cd6 753c 4bfd 43bc
000001a0: b933 8fbc 0062 953c dffe 163c a584 2b3c
000001b0: f913 c7bd c9d0 b7bc 9b45 b2bb 823d 4c3c
000001c0: b5ac f93d b95e db3b b25a 793d eba1 183e
000001d0: cbf2 e83b 70b3 28bd 441b 1ebd 932f 8e3d
000001e0: c3d3 683d 3155 0b3c 31b2 03bd 149c 71bc
000001f0: cb92 6f3d 865a e6bc c9c7 98bd 7add 8cbd
00000200: c671 bfbb 1d6c 04bc fd56 e83b 0a94 39bd
00000210: f02f 213d ea02 99bd c2f7 27bd 3ea3 17bb
00000220: c9aa 1d3d 16e1 94bb a0cf 05bc c4b5 a63d
00000230: d089 553d 3f2b 073c 756c 58be 6009 db3c
00000240: a5b4 e63c ffbe 80bd 32da 24be 41dc e9bb
00000250: 1d83 343d bc27 04bd 41fc 823d 714c 843d
00000260: fc1d c5bc aaf5 873d aee6 48bd 24f0 a7bc
00000270: 19db 1ebd 48ef 2fbd a155 0dbe a3c9 df3d
00000280: c6b4 a8bb 3e91 15bd 3102 15bd 0943 ccba
00000290: eb96 89bd e5e5 48bd 61b4 6fbb 67d2 c7bc
000002a0: 189b 563e fdbf a53c 672e 5c3d 173a 2fbd
000002b0: 1d81 6cbc e7dc 3c3d 95dc f33c 46e7 1abc
000002c0: 56be a7bd e610 80bd fc3e 793d a7e0 6a3d
000002d0: d6f0 d9bc dd4d 3dbe 359e 1fbd 2093 3d3c
000002e0: 43b8 febc 1609 f4bb 7488 3e3c 7197 b9bd
000002f0: dd76 dcbc 90ba 633d dd0c 033d 65a5 d03c
00000300: dd92 ab3d 1708 1dbd e8a9 c0bd 02af d0bd
00000310: ed33 e0bd 07e9 2b3d 8f67 b83c ceb8 8cbc
00000320: 6425 193d 8ddb 9abd 7d3e 5fbd 58b1 08bc
00000330: de65 b33c 7281 44bd e8c5 d23d d924 5fbe
00000340: c1a5 82bc e15e eb3d 15ee 59bd 9114 813c
00000350: 14cf 393d 78d6 b33c e376 bf3c df53 023d
00000360: 102c 133c 04a8 713c 63bf 35bc d3ba e1bd
00000370: 73e1 69bd a0b2 db3d 049f 4d3d aef0 b9be
00000380: 2148 613e 7711 67be 0384 f6bc 36ec 9bbb
00000390: dd70 a63c 0580 a1bb ded2 293d 7b05 6cbd
000003a0: 2e59 3d3c ecaa 183d aad5 02bd 1c20 cfbc
000003b0: 0ab8 b63c 32de a33b 5604 5a3b fbc4 16bd
000003c0: da8e 843d e986 493b ad05 92bb 26c6 05bd
000003d0: 8a1c 0a3c db6a 06bd ffb7 b73c 7792 16bd
000003e0: 59d8 63bb 25ac af3c 09d7 b53c 4c62 073d
000003f0: 7baf 64bb 9588 e83b 77ca eb3d 5c07 98bd
0.004923511 0.01595312 0.04054803 -0.024933064 0.012885645 -0.12808423 -0.009843313 0.0032746743
-0.081457675 -0.03285338 0.055319697 -0.07010985 0.1449692 0.030091837 0.06384451 -0.037940074
0.008686424 0.15178148 -0.084510505 0.010840891 0.15406954 0.0942085 0.029489202 -0.18747142
0.07409225 0.001693438 -0.16700163 -0.006462739 0.013847588 -0.06284731 -0.026229776 0.059344925
0.020719502 0.0012775019 0.025445485 -0.03923571 0.016545925 -0.030730354 -0.021411737 -0.049275376
0.052817944 0.085518286 -0.0068429806 0.05827815 -0.051721893 0.09997491 -0.04530967 -0.06926774
-0.021855734 0.023868749 -0.0793208 0.04783318 0.0021983471 0.1896816 -0.029889328 -0.025131281
0.04390576 -0.05605798 0.022411259 -0.032976937 0.1182083 0.04363498 0.00032609573 -0.0006793923
0.044155512 0.009864627 -0.044284724 0.042759728 0.101189196 -0.047244158 0.055631667 -0.019592335
-0.18918505 0.054557122 -0.048472136 -0.015863538 0.095423184 0.0048487484 0.16204299 -0.030288205
-0.031660795 -0.15363896 0.059759762 0.030568164 -0.004570418 -0.2602492 0.031389855 -0.08110445
-0.004871658 0.041832 0.039127722 -0.33186784 0.08337892 -0.0111130485 -0.103943266 -0.033052363
0.20405479 -0.03810377 -0.07238564 0.047699567 0.11267165 0.007634118 0.015004691 -0.011962245
-0.017480718 0.018235207 0.009216039 0.010468637 -0.09720606 -0.022438424 -0.0054404265 0.0124658365
0.121911444 0.0066946414 0.06087751 0.14905517 0.0071090213 -0.04118675 -0.03860022 0.06942668
0.056842577 0.008504198 -0.03215236 -0.014746685 0.058489602 -0.028119337 -0.07459981 -0.06878181
-0.0058424203 -0.008082417 0.007090448 -0.045307197 0.039352357 -0.07471259 -0.041007765 -0.0023138071
0.03849295 -0.004543434 -0.008167177 0.08140138 0.05213338 0.008250057 -0.21135123 0.026737869
0.02816231 -0.062864296 -0.1609886 -0.007136852 0.044070352 -0.032264456 0.0639577 0.064598925
-0.02406215 0.066386536 -0.04904812 -0.02050025 -0.038783167 -0.042952806 -0.13802196 0.10927131
-0.005148503 -0.036515467 -0.036379043 -0.0015583943 -0.067182384 -0.04904737 -0.003657602 -0.02439232
0.20957601 0.020233149 0.05375519 -0.04278001 -0.01443508 0.046109106 0.029768268 -0.009454554
-0.081906006 -0.06253223 0.060851082 0.05734315 -0.026604097 -0.18486734 -0.038969237 0.011570722
-0.031093722 -0.007447372 0.011629213 -0.09062088 -0.026912147 0.05559784 0.03199469 0.025469491
0.08377621 -0.038337793 -0.09407407 -0.1018963 -0.10947404 0.04197028 0.022510318 -0.017177965
0.037389174 -0.07561407 -0.054502953 -0.008343063 0.02189916 -0.04797501 0.10291654 -0.217914
-0.015948178 0.11492706 -0.05320557 0.015756877 0.0453635 0.021952853 0.02337212 0.031818267
0.008982673 0.014749531 -0.011092993 -0.11021962 -0.05709977 0.107274294 0.050200477 -0.36316437
0.22000171 -0.22565256 -0.030092245 -0.004758383 0.02031749 -0.004928591 0.041460864 -0.057622414
0.011556907 0.03727238 -0.031942047 -0.025283866 0.022304554 0.005000853 0.0033266745 -0.03680895
0.06472559 0.0030750579 -0.004456243 -0.032659672 0.008429656 -0.03281675 0.022426603 -0.036760774
-0.0034766404 0.02144439 0.022197263 0.033052728 -0.0034894634 0.00709636 0.115132265 -0.07423279

invertible_encoder.bijectors.1.net.2.bias f4 [18]
00000000: 5dfc 06bd 05b2 17bd 54df 71bc fcc2 dbbd
00000010: 4f9d 13bd 7111 f6bd c6c1 e8bd a11d 06be
00000020: 8e0b 91bd c6ff 05bd 1881 a9bb ec09 373b
00000030: 25fc 1dbc 7644 c3bb 6da0 0c3d f6e7 253d
00000040: 8fc1 78bc 9be5 b13c
-0.032955516 -0.037035007 -0.014762718 -0.1073055 -0.036038693 -0.120150454 -0.11365084 -0.1309724
-0.07082282 -0.032714628 -0.00517286 0.0027929498 -0.0096426355 -0.005959089 0.03433268 0.04050442
-0.015182867 0.02171593

invertible_encoder.bijectors.2.net.0.weight f4 [256, 18]
00000000: 1cd2 323e 0be5 13bc 4d38 013e 5818 bc3d
00000010: 7827 4b3d 436e 043e ab18 0d3d 58cf 89bd
00000020: b57e 0abf 0025 123e f658 a23e 35d2 cebc
00000030: e2d6 34bf dc21 bdbe fd22 5fbe 27a9 373d
00000040: 60ff db3c f7ae 4dbd 7578 2abe b909 4cbe
00000050: 6ec9 bebe 95e2 30be d145 ac3d 5030 43be
00000060: 2468 47bd 092d dabd 1428 133e 2539 c6be
00000070: 63c6 4cbe 1d02 683c 0c1a b1bd 2ce1 81be
00000080: 5813 52be 7895 8abe ce7b 813c ca94 88bc
00000090: a21b 003e 11e5 94be 867d 47bd c640 603d
000000a0: 3fcf b43e 4e8f a5bd e06a ac3e 6091 d8bc
000000b0: ec53 c03c 4f6b e4bd a63f 2a3d c1fb e83d
000000c0: 6d25 81be ef72 b5bd a696 7d3e 83b0 093e
000000d0: e5c1 aabe 3bec 973e 84a3 a73e f427 59be
000000e0: 68d4 21be 49a1 70be 4453 9dbd 8456 9c3d
000000f0: b768 a8be 6ecd 11be 35df 46bd fb27 c0bc
00000100: 6c23 213f f112 383f 42a3 05be e5e3 25bf
00000110: 38b7 ecbb 51e5 903d 0785 a23e 2d52 85bd
00000120: 8435 f5be 7ad9 d0be 2268 f93e 30cd fe3d
00000130: f5a1 fd3d 7246 983e 8e88 4a3d 0301 043e
00000140: 973c 8dbe 6ac1 ecbd df73 07bf 9cb6 f2be
00000150: cc44 42be a681 cf3e 8187 08be 682b 1ebf
00000160: 21b2 01be 53cb 083f 934f 49be f3c0 3bbe
00000170: 898c 8c3e 0162 67be 2a39 76bb a601 d83d
00000180: 2318 843e 05c0 943e b799 c6bd 635f 01bd
00000190: 4d0e 14bd bbea dc3d 2606 d63e d466 91ba
000001a0: c65b 033d b4e7 793e 18b2 913d 5976 ca3d
000001b0: 9c2d 8bbe 9a34 813d 6703 a93e 33a0 56bd
000001c0: 0444 853e 32fa e1bd 45d7 91bd b062 863d
000001d0: a598 9dbe 19c2 293b 5f00 a83e b60f d7bd
000001e0: 61fb aa3c b1b5 31be 4e49 78be 5474 dcbe
000001f0: 12a0 d83e e42f 70be d542 a3bc ab12 163c
00000200: ca27 733d 9b63 af3d 91c8 df3c c67c 3ebe
00000210: f957 f13d 0922 ecbc 52fc 1d3d f77e 0cbe
00000220: 0523 fabc 1229 463c b833 3f3e fd11 f43d
00000230: 6bad 34bd bafc 71bd 62c8 ebbd 0306 8c3d
00000240: 7d6b 3fbc 8817 ecbe 3ad3 a3be b4b4 f73d
00000250: e37d 01bd bda8 913e 7189 02be 239d 0ebe
00000260: b7e6 113e a290 353e 5844 9abe 342f 92be
00000270: 35d5 913e ad37 e2bd 4a1d a43e 0497 013d
00000280: 03d5 8fbe 7a4e 1b3e a522 f13e 6c75 b3be
00000290: 6fd1 5d3e aad0 95bd ea05 d83c 5bbf 64bd
000002a0: 9a45 fd3d 97b7 7cbe 0ef2 ce3e 1147 9e3e
000002b0: c520 87be 5e92 613c 1121 243f ff73 913c
000002c0: 7d7d a53e b27b 3dbd baf2 b5be a85f 55be
000002d0: 26de 513d f457 7fbb 5c03 a3bd 2e84 e73d
000002e0: c62c 8a3b c7c1 85be fbaf 8cbd cbd1 60be
000002f0: 4a6e 6e3d fccb 043d d3ea 03bf 4b16 2cbe
00000300: b7c0 963e c42c 14be bc5c edbe 5ac8 debe
00000310: 88c2 203d 7d10 75be f73f 7b3e fff0 0f3e
00000320: 8cc4 563e eed4 713d b6f6 7ebc 880b 92be
00000330: 3f62 43be 9611 3abe fca0 033c dc52 dabe
00000340: d2b6 d93e 15ef ccbe cc1d 9bbe 0f57 d9bd
00000350: df52 aebd 7d8d 38be d51e 5a3e 1354 6c3d
00000360: 3ca6 8abe f297 503e a1e5 03be 8641 a23c
00000370: 90a3 c83d 5e1a 1f3d 8b5e 6dbe fe2a 373c
00000380: f9e2 09be 0967 f4be 29b6 113f 0b48 033e
00000390: 6fd1 8d3e 221f 81be 3685 dc3d 10d2 59be
000003a0: 435c 6abe 5fd1 273c 3d19 333f 45d8 32bf
000003b0: df92 ddbe 6d35 203d 2cd2 a3be 580e bfbe
000003c0: 2d37 2dbe bf70 cd3c c4e0 4dbe d9fb e83c
000003d0: 2904 0c3e 85c9 203e 482c ab3e b766 bc3e
000003e0: 270b 633d fde9 5fbe b7e9 313e 5e15 1e3e
000003f0: 853a fc3c f818 cfbd 7c75 8f3d e4f6 6d3c
0.17462963 -0.009026776 0.12619133 0.09184331 0.049598187 0.12932687 0.034447353 -0.06729001
-0.5409959 0.14271927 0.31708497 -0.025246719 -0.70640385 -0.36939895 -0.2179069 0.04483905
0.02685517 -0.050215688 -0.16647513 -0.19925584 -0.37263054 -0.17273934 0.08411754 -0.19061399
-0.0486833 -0.10653121 0.14370757 -0.38715473 -0.19997554 0.01416066 -0.08647546 -0.25367105
-0.20515192 -0.2706716 0.015806105 -0.01667251 0.12510541 -0.29081014 -0.048703693 0.054749273
0.35314366 -0.08083974 0.3367529 -0.026436508 0.023477517 -0.1115328 0.041564606 0.11376143
-0.25223866 -0.088598125 0.24764499 0.1344624 -0.33351055 0.29672417 0.3274194 -0.21206647
-0.15803683 -0.23499025 -0.07681897 0.07633689 -0.3289239 -0.14238521 -0.04855271 -0.023456564
0.62944674 0.719039 -0.13050559 -0.64800864 -0.00722399 0.07074989 0.31742117 -0.065098144
-0.47892392 -0.4079092 0.4871226 0.1244148 0.123844065 0.29741246 0.049446635 0.12891011
-0.2758529 -0.11560328 -0.5291118 -0.47404945 -0.18971556 0.405286 -0.1333294 -0.6178498
-0.12665607 0.5343525 -0.19659261 -0.18335323 0.2745097 -0.2259598 -0.0037570694 0.105471894
0.25799665 0.2905275 -0.096972875 -0.03158511 -0.03614645 0.10786959 0.41801566 -0.0011093267
0.032069944 0.24404794 0.07114047 0.09885854 -0.27183235 0.06308861 0.33010408 -0.05239887
0.26028454 -0.11034049 -0.071211375 0.06561792 -0.3078052 0.0025903045 0.32812783 -0.105010435
0.02087182 -0.17354466 -0.24246714 -0.430575 0.42309624 -0.23455769 -0.019929329 0.009159724
0.059364118 0.0856392 0.027317317 -0.18602285 0.117843576 -0.028824823 0.03857071 -0.13720308
-0.030534277 0.012094753 0.18672073 0.119174935 -0.044110697 -0.05907891 -0.11512829 0.06837084
-0.011683342 -0.46111703 -0.3199709 0.12095013 -0.031614196 0.2844905 -0.12747742 -0.1392713
0.14248167 0.17730954 -0.30130267 -0.28551638 0.28482977 -0.110457756 0.32053596 0.03163816
-0.28092203 0.15166655 0.47096744 -0.35050523 0.21661924 -0.0731519 0.026370008 -0.055846553
0.12366791 -0.24679409 0.40419048 0.30913594 -0.2639219 0.013767807 0.64112955 0.017755507
0.32322302 -0.046260543 -0.35536748 -0.20837271 0.051237248 -0.0038962336 -0.07959625 0.11304508
0.004216763 -0.26124403 -0.06869503 -0.2195503 0.05821065 0.032421097 -0.5153019 -0.16805379
0.29443905 -0.14470202 -0.46359813 -0.4351223 0.03924802 -0.23932071 0.2453612 0.14056776
0.20973414 0.059040956 -0.01556175 -0.28524423 -0.19080447 -0.18170771 0.008033987 -0.42641342
0.42522293 -0.40026155 -0.3029617 -0.10612308 -0.085119 -0.18022723 0.21300824 0.057697367
-0.27079952 0.20370463 -0.12880565 0.019806635 0.09796822 0.038843505 -0.23180597 0.011179684
-0.1346549 -0.4773486 0.5691858 0.12820451 0.27698848 -0.25219065 0.107675955 -0.21271539
-0.22886758 0.010242789 0.69960386 -0.6986125 -0.43276116 0.03911345 -0.31996286 -0.3731563
-0.16915579 0.025078176 -0.20105273 0.028440403 0.13673462 0.15701874 0.3343222 0.36797115
0.055430558 -0.21866603 0.17374311 0.15437838 0.030789623 -0.10112184 0.0700483 0.014524195
