Sentinel_model_weights/IKAE_zp/best_model_4.pt (torch, 237326 bytes, 24 tensors)

invertible_encoder.bijectors.0.net.0.weight f4 [256, 18]
00000000: 1cd5 ca3e ad4e 973d 1343 c5be c5ac cebd
00000010: fd03 7fbe 8722 6fbe 7b74 703e f8be 2a3e
00000020: f177 d83d c318 ea3d a44d 84bd b054 53bd
00000030: 4d82 823e 1caa 4e3c 6c19 0dbf c319 2f3f
00000040: b120 f33e 15b5 163f 8500 153d eacc 95bd
00000050: b235 ac3d 25ff 13be 5a55 01bd cd43 a9bc
00000060: 7fcb 3b3e 6a46 9e3c f8b4 3e3d 3dae e53d
00000070: 4f97 e63f 9a02 40bf e274 1abf 97fe 85be
00000080: bdcb 1ebf e09f 8d3e d5bc 003f edad 9abe
00000090: 3c2f 67be 49f6 ff3d 3ea1 e63d 90cc 0d3c
000000a0: bb22 2b3d 0188 0f3e 7ee7 1d3e c9d1 67be
000000b0: 2445 25be ff33 173e b36a 8f3e ad6b 4f3f
000000c0: bf15 69be af3d 2abd b7f6 30be fecb cf3e
000000d0: abd2 6b3e 5666 19bf 04df 0cbf 3471 10be
000000e0: 0be6 f23d 37df ab3d ddb9 953d d1cb d33d
000000f0: dfd7 54be 7ae7 c43d 75c1 bfbe 9bef b23e
00000100: addf b9be 9f1d 253f 5b5b e0bd 34f1 20be
00000110: cc5b ca3e 80da 563f 6141 4a3d a0c1 22bf
00000120: f001 2ebd ff01 d0bc 74ea 26be b46e 2f3e
00000130: 1db2 3c3e b8dd 333e 723c 83bd d7b0 85be
00000140: da74 763c 8d3b 343e 3b35 56bf 9fc5 153f
00000150: ae98 c73f 648d 5b3f 6833 edbf 02c7 38bf
00000160: 9c55 c7be 77a5 0dbf ea1a 0abc 6bad 6e3d
00000170: 0f96 96bc 6518 5b3d c150 8e3e 9762 5fbd
00000180: 2c3d 51be 9bcc f03d 8f5a 413e 1db4 b8be
00000190: 436d d73f 2068 8240 5594 09be d9b9 ba3e
000001a0: 3fe8 ecbf 428c 5f3e 6ad1 ecbe e810 61bf
000001b0: 6051 88bd 5db7 76bd ae41 e33d 61e9 41bd
000001c0: d41b 91be 5ffb a2bd c038 39bd a4fa d23d
000001d0: b1a5 3b3d ec67 98bb bdba 963e d6f3 a63e
000001e0: b75a e03e 489e 91be 355c 0abf b801 793e
000001f0: 5304 973e e30f 4dbe 4785 303e 82a9 5b3e
00000200: 367b 44bb 2083 dd3d 848c 01be 7e37 393e
00000210: 42dc b1bd 0e56 04be 3846 ac3d bee6 cdbd
00000220: 935c 5d3c ec5d 513f 023e ef3e 5d0b 1b3c
00000230: 6385 a6be 5372 d5bc 5ed3 9bbe e1e2 9c3d
00000240: 412c 8c3e 98df 843c 2c8a 123d 0b2d d9bc
00000250: 17b7 9ebb 3d49 a83d 24e9 03bd 22ed ee3d
00000260: f84b 38bd 690a 8d3e b4c6 7bbe 442b 0fc0
00000270: d2cd 673f b5ae db3e ac4b edbf 05b6 8fbf
00000280: 1804 cebe 1291 bf3e d220 a73d 3ec3 133e
00000290: c066 18be adaa 31be 45f2 ac3d 49c0 d43e
000002a0: a5a9 613d 0fb2 efbe 18e3 833e 24d0 403e
000002b0: b8ad 133e e6d2 913d 362f ae3f cd83 83bc
000002c0: 9995 11bf 0fef 65bf 5c4c 4ebf 85bb 273f
000002d0: a719 503e c642 e63d 5e19 3dbd bba7 89bc
000002e0: 7698 20bd 23c4 01bd deed 8b3d f49f 6ebd
000002f0: 21aa b13d 6f74 48be 0ba9 583f a8f0 71bf
00000300: 2a8d 88bf b6b9 8cbe 18b3 29c0 2925 46bf
00000310: edee 94bf 7ced 85bf c20b db3c cc39 dabe
00000320: 34e5 443e 8e2f 7fbe 9189 a43d 2733 9e3e
00000330: b541 9b3b 0286 bd3d f873 69be c149 3a3d
00000340: f0ae dbbd e665 ee3e c263 db3e a9bf 583e
00000350: aa1e bf3e 67bd 0cbd 1680 26be 4789 243c
00000360: 0f8a 8f3e 255a 9b3c 4e37 35be aa56 8b3e
00000370: 218f 623e 8207 72be 888b 42be 2e22 4bbd
00000380: fa28 013d 76a5 6ebe 26b2 203e dbd5 cb3e
00000390: e5fe 3bbe db9e 163d c38a babe 4b93 513e
000003a0: d8e5 cbbd 0f45 92be d067 d7bb ae30 4b3e
000003b0: c9f6 b23d 4e8c 86bd be63 b3be cad1 8a3e
000003c0: a7b0 f1bd 9dd2 b93d 56f2 f3bc 9b47 2f3e
000003d0: b60a ccbf 335d b3bf 5282 4b3f 8b3c 783e
000003e0: 35bd 6ac0 ca7c 4ebf 589b 1bbf 6509 0dbf
000003f0: 11bd 31bd 4227 773e 10eb c5bd 9fe5 4fbe
0.39615715 0.07388053 -0.38527736 -0.10091547 -0.24903865 -0.23353015 0.23481934 0.16674411
0.10569752 0.11430504 -0.06460121 -0.051594436 0.25490037 0.012613799 -0.55116916 0.68398684
0.4748588 0.5887006 0.03637745 -0.07314475 0.08408679 -0.14452799 -0.03157554 -0.020662213
0.18339346 0.019320685 0.046559304 0.11214874 1.8014926 -0.7500397 -0.603346 -0.261708
-0.6202963 0.27661037 0.50288135 -0.3021082 -0.22576612 0.12498147 0.11261223 0.0086547285
0.04178117 0.14016725 0.15420339 -0.2263862 -0.16139656 0.14765929 0.28011093 0.81023675
-0.22762202 -0.041562732 -0.17281614 0.4058532 0.23029582 -0.5992178 -0.55027795 -0.14105684
0.118602835 0.08392184 0.07310841 0.10341609 -0.20785473 0.09614463 -0.37452284 0.3494843
-0.36303464 0.64498323 -0.10954925 -0.15717012 0.3952316 0.83927155 0.049378756 -0.635767
-0.042482316 -0.025391577 -0.16300374 0.17132074 0.1842732 0.17565048 -0.064080134 -0.2611148
0.015042508 0.17600842 -0.83674973 0.5850467 1.5593469 0.8576262 -1.8531313 -0.7217866
-0.38932502 -0.55330604 -0.008429268 0.058270853 -0.0183821 0.05349006 0.27795985 -0.054537382
-0.20433491 0.117577754 0.18882202 -0.36074916 1.6830219 4.0752106 -0.1343549 0.36469916
-1.8508376 0.21830848 -0.4625352 -0.8791642 -0.06656146 -0.060233463 0.11096512 -0.047341708
-0.28341544 -0.079581015 -0.045220137 0.10301712 0.045812313 -0.0046510603 0.29439345 0.32607907
0.4381921 -0.28441072 -0.54046947 0.24317062 0.29495487 -0.20025592 0.17238341 0.21451381
-0.0029980666 0.10816026 -0.12651259 0.18087575 -0.08684589 -0.12923452 0.08411831 -0.10053776
0.013510841 0.8178394 0.46726996 0.009463158 -0.3252364 -0.02605549 -0.30434698 0.07660461
0.27377513 0.016219899 0.035776302 -0.026510736 -0.0048436034 0.08217094 -0.032204762 0.11666323
-0.044994324 0.27547005 -0.24587518 -2.2370157 0.9054843 0.42906728 -1.8538718 -1.1227423
-0.40237498 0.37415367 0.08160557 0.14429948 -0.14882946 -0.17350264 0.08444647 0.41552952
0.055093426 -0.46815535 0.25759196 0.188294 0.14421737 0.07120304 1.3608158 -0.016054058
-0.5686889 -0.898179 -0.80585265 0.6552051 0.20322286 0.11243205 -0.04616677 -0.016803613
-0.039207898 -0.03168119 0.06832479 -0.058258012 0.08675028 -0.19575666 0.8463294 -0.9450784
-1.066808 -0.27485436 -2.651556 -0.7740045 -1.1635414 -1.04631 0.026739005 -0.4262222
0.19228059 -0.24920484 0.08034051 0.308984 0.0047380575 0.092540756 -0.22798145 0.045480493
-0.10726726 0.46562117 0.42849547 0.21166863 0.37328082 -0.034360316 -0.16259798 0.010042495
0.28035018 0.018963883 -0.17696878 0.27214557 0.22124912 -0.23635677 -0.1899854 -0.049593143
0.03153322 -0.23305306 0.15692958 0.39811596 -0.18358953 0.03677259 -0.36433992 0.20466344
-0.099559486 -0.28568313 -0.0065736547 0.19842789 0.08738477 -0.0656973 -0.35037035 0.2711318
-0.11801272 0.090733744 -0.02977864 0.17117159 -1.5940769 -1.4012817 0.7949573 0.24241845
-3.6677983 -0.80659163 -0.6078391 -0.5509246 -0.0433932 0.2413607 -0.09663975 -0.20302437

invertible_encoder.bijectors.0.net.0.bias f4 [256]
00000000: d100 e2bd 4006 aebd f1d0 8abc 57ef 3a3d
00000010: 45cb b6bd ca78 97bc a08e acbb 57d1 b0bd
00000020: fd93 4dbe 5ed1 a9bd 3069 483b 3a46 8cbc
00000030: 0dee 6abc 03c7 3cbd 52ae d1bd d182 60bb
00000040: 82f3 ea3b faea 2c3b e2b3 533d e381 7cbc
00000050: 2287 7abe fb2e 06bd a360 92bc e921 043c
00000060: 5ca2 40bd 2ee1 cebd a2eb c1bb a991 a93c
00000070: 6634 5ebd e3ab 6f3d 7609 09bd 9b79 58be
00000080: 0b5b 1d3d 21c0 41bd d3f9 67bc 6957 55bd
00000090: 3f3f 1b3c f53f 57bc 47c6 973c 1d40 babd
000000a0: 5ecc eb3b 57ba babc f965 073d c105 cabd
000000b0: e92a 20be 7ce8 24ba d376 66bd d1d6 093d
000000c0: 309d b1bd 1310 cfba 0f22 c73d 0d21 9abd
000000d0: 5958 babd b9a5 61bb 9196 0f3c 747d cebd
000000e0: 042e 723d b25e 08be cbbe ad3b dceb 413c
000000f0: e498 903c aa58 2fbc 46f6 b2ba b419 003d
00000100: 5089 a239 fdf6 b2bc 0640 7bbb b894 e3bd
00000110: f0d1 e93d 4781 a0bc 0b19 50bd 5d82 003b
00000120: ee52 5cbe 0f32 e33a 70e3 dc3c de36 6bbc
00000130: 784e 5a3b 2bbc 0ebe aa14 a43c 05c4 573d
00000140: b98f bbbc 92f0 423d d386 89bc 7ecf 09bd
00000150: aa21 29be dbea a1bc 0ab9 43bd a730 7b3c
00000160: d88c 0bbd 9ed3 f53c 87db eabc c01b d63c
00000170: 20ac 65bc 710c aebc 095d 6c3d 4c68 8cbd
00000180: 43e4 69bc 73b7 033d 21be 8e3d 8093 343c
00000190: 5fda 10bd 6f79 d7ba a543 3a3b 3e24 133c
000001a0: c36c 20bd 32be 34bc 53ff 543d 9ed0 113d
000001b0: 0e5d fe3b 6899 18bd d052 3c3d 6f5c 08be
000001c0: 9038 2f3d e118 1dbb 0ad3 613d 2dbf a7bc
000001d0: d01d 14bd 6419 12bb 3cc4 9abb af32 79bd
000001e0: 12a2 d5bb 3310 6c3c 3509 ce3b 637a 1aba
000001f0: e404 9abc e841 103c 3b46 52bc f1d0 5cbd
00000200: 6eb9 df3c 7c94 09bd e20f b33d 5b94 cebd
00000210: 1bc4 db3c 5f2d cbbd 50df 383d ca45 46be
00000220: f8be a5bc ad77 d1b9 8055 bcbc 5e10 12be
00000230: c455 503d f80b 17bc 651b c9bb c884 803c
00000240: 870c 01bd b5dc babd 954e 8d3d 1b47 9fbc
00000250: 0e01 9bbd 1486 923d ee1c b53d 8cfc 1c39
00000260: da74 db3c ff6d 32bd 4d47 993c 0606 bdbc
00000270: 5a2b b0bd f0dd cf3c 018e c03c a2bc 853d
00000280: 78d7 a93d 2bb5 babc a4dd 76bc 904a 8fbd
00000290: 16bc c2bd 5d29 0039 4717 643d cb68 f7bc
000002a0: 01f3 2fba 5d04 ab3c a912 8c3d 7618 88bc
000002b0: 328a ff3b 7abb 52bc 4945 c7bd 7fe8 99bd
000002c0: 15b5 1fbd c66a 89bd cc82 ad3d 2149 4e3d
000002d0: b7f2 073d f66a 433d f6fd 32bd 4662 7aba
000002e0: e012 b93c 0b42 e5bc 78a0 063d 3c7a 88bb
000002f0: 5eaf 413d 354a a1bd 0119 8bbc baa0 be3d
00000300: c8f9 b1bb c425 46bb b96e 53bd 2736 3fbc
00000310: 6de2 ce3d 95b3 5abd 54c3 323d a8d7 733d
00000320: 2bde dbbb b21c 623c 0589 0abe b6f8 ab3c
00000330: bb30 193d 2571 a5b9 0265 8c3c 09f7 6fbc
00000340: a17e 4dbc 8546 f5bc 0ffd ee3c 05fb 90bd
00000350: a483 4dbc 2102 4ebb 7beb 03bd 884b 07bd
00000360: 5974 293c da4f f73c f1cf fe3b 6d26 36bc
00000370: 674f 98bc 3b1f a23b 22ac 66bd 1b51 39bc
00000380: 7ba6 9a3d 5bf8 543d fdd1 40bd 9d05 c5bc
00000390: dd5d 673c d9ea 0f3d adb5 23bd ba7d cabd
000003a0: 0658 e13c b40d 51bd 0ed8 0fbe dcde 11bd
000003b0: c1fd d3bb 998a 26bd 43f6 11bd 1267 a4bc
000003c0: c617 98bc b794 1cbd 1af9 19be b19c 9bbc
000003d0: 4e70 47ba c8f9 abbc b825 58bc 0502 ca3c
000003e0: e647 e6bc 2311 06be 05a9 2b3d e018 973b
000003f0: c071 0bbd 0546 d33c 3641 b9bc 1fff c93d
-0.11035312 -0.08497286 -0.016945334 0.04563841 -0.08925489 -0.018490214 -0.0052660257 -0.086336784
-0.20075984 -0.08291887 0.0030580275 -0.01712333 -0.014338982 -0.04608823 -0.10238327 -0.003425766
0.0071701417 0.0026385174 0.05168522 -0.015411827 -0.24465612 -0.032759648 -0.017868346 0.008064725
-0.047029838 -0.10101543 -0.005917982 0.020699339 -0.05424919 0.058513533 -0.03345629 -0.21140139
0.038416903 -0.04730237 -0.014158684 -0.052085314 0.009475528 -0.013137807 0.018527163 -0.0909426
0.0071959933 -0.022793932 0.033056233 -0.09864379 -0.15641369 -0.00062907464 -0.056265663 0.03365213
-0.08672559 -0.0015797637 0.09723293 -0.07525835 -0.09098882 -0.0034431054 0.008763925 -0.10082522
0.059125915 -0.13317373 0.0053022853 0.011836018 0.017651029 -0.0107022915 -0.0013653717 0.031274512
0.00031001354 -0.021846289 -0.0038337721 -0.1111235 0.114169955 -0.019592894 -0.050805133 0.0019608953
-0.2151601 0.0017333644 0.02696392 -0.014356343 0.0033310931 -0.13938968 0.020029385 0.052677173
-0.02289568 0.047592707 -0.016787922 -0.033645146 -0.16516748 -0.019765308 -0.04778389 0.015331424
-0.034069866 0.030008134 -0.028669132 0.02613628 -0.014018089 -0.021246167 0.057705913 -0.068558306
-0.014275613 0.032157373 0.06969858 0.011021495 -0.035364505 -0.0016439388 0.0028421667 0.008980809
-0.039166223 -0.011031674 0.05200131 0.035599343 0.007762558 -0.037255675 0.045977414 -0.1331651
0.04277855 -0.0023971128 0.055132903 -0.020476902 -0.036161244 -0.0022292966 -0.0047231 -0.06083935
-0.0065195644 0.014408159 0.0062877187 -0.0005892871 -0.01880116 0.008804776 -0.012834127 -0.0539102
0.0273101 -0.03358887 0.08743264 -0.1008689 0.026826909 -0.09920763 0.045134842 -0.1936256
-0.020232663 -0.00039952752 -0.022989988 -0.14264056 0.050863042 -0.009219162 -0.006137299 0.015688315
-0.031506088 -0.09124128 0.06899754 -0.019443085 -0.075685605 0.071544796 0.088434085 0.000149714
0.026789118 -0.04356193 0.018710757 -0.023074161 -0.08602019 0.025374383 0.023505213 0.065301195
0.082930505 -0.022791466 -0.015067492 -0.069966435 -0.09508531 0.0001222244 0.05568626 -0.030201336
-0.00067119306 0.020876104 0.06839497 -0.016613226 0.0077984566 -0.012862081 -0.09730012 -0.07515048
-0.038991053 -0.067098185 0.08472213 0.05036271 0.033190455 0.047709428 -0.043699227 -0.0009551387
0.022592008 -0.027985593 0.03286788 -0.004164962 0.047286384 -0.07875482 -0.016979696 0.09308
-0.0054313876 -0.0030234912 -0.051619265 -0.011670626 0.10101781 -0.05339392 0.04364331 0.059531838
-0.006709834 0.013800787 -0.13528831 0.020992618 0.03739999 -0.00031555552 0.017138008 -0.0146463
-0.012542398 -0.029940853 0.029173402 -0.07079128 -0.012543593 -0.0031434374 -0.032206994 -0.033031017
0.010342681 0.030189443 0.0077762534 -0.01111756 -0.01859255 0.0049475706 -0.056316502 -0.011310841
0.07551285 0.051994663 -0.04707526 -0.024050528 0.0141215 0.035136078 -0.03996818 -0.09887262
0.027507793 -0.05103846 -0.14047262 -0.035612926 -0.006469459 -0.04065952 -0.035635244 -0.020068679
-0.018566024 -0.038227763 -0.15036431 -0.018995615 -0.0007607982 -0.020993128 -0.013192587 0.024659166
-0.028110456 -0.13092475 0.041909236 0.0046111196 -0.034044027 0.025790224 -0.022614103 0.098631136

invertible_encoder.bijectors.0.net.2.weight f4 [18, 256]
00000000: 013e be3c 62e7 313b 74fb 133b 015c 8f3b
00000010: 8738 ccbb 8439 2fbc b064 c03a e359 183b
00000020: 5a00 efbb b9f7 2bbc 1c77 fb3c 08cf 4dbb
00000030: 7494 043c 69a2 993c dd78 9dbc 1875 003b
00000040: 1684 493a 09fc e13d e837 33bc 673a 053d
00000050: 96f3 2c3d ff0e a9ba 96ca 1e3c d37f cc3b
00000060: e010 d2ba 8a2d b3bc b76d c5bc 71f7 653b
00000070: 28f0 1c3c c728 383c 523d 3e3c 307c 51bb
00000080: a25d 8eba 606b cfbc 4634 07bb 2adc 063e
00000090: 61f2 0c3d 1380 1f3c 6e3a 47bb 518e 243b
000000a0: 55a2 5bbc 2724 d73a 16d8 ae3c de21 3e3a
000000b0: 7df1 f8bc 8733 333b 841b 483b 121b e9bc
000000c0: 7dc2 1b3c 38e7 73ba 7d93 a33c 36a8 c2bc
000000d0: 5978 52bc 81c6 4b3d 0c48 37bc 1529 72bc
000000e0: 6379 363b d817 513c 63da 403b 7a23 61bb
000000f0: 4a75 9f3d 75ba 523a 5581 29bb 149a fdbb
00000100: 366f e2bc 4a36 b8bc c720 5b3b b8c3 1b3c
00000110: d462 aebc 5ff8 b9ba e55f 903b 75a6 f13b
00000120: 7b16 94bb 09d4 c8ba 431d 9cbc 54b9 dcbb
00000130: aa7d 15bc 4902 073c d956 d8bc ecef 293c
00000140: 3818 a43a 56ce 733a 1c26 46ba 6ad6 aa3c
00000150: 594d 4a3c c6c1 b3bb f348 93bc f656 a8bb
00000160: d4bb 59b9 c201 d03b 9c97 79bb e1ad cfbb
00000170: cc9d de3a 5dac da3b 4ffb a73b 6eb9 4bb9
00000180: d092 16bc f56a 92bc 44f5 d53c aacf f83c
00000190: 403d 17bd 3c22 1b3d 62d5 00bc 2f7a 08bb
000001a0: e715 e23b 19e7 c6bb c6e4 f0bb 8ef2 c43b
000001b0: 00d6 ffba e7ae f13d d17e fabb d089 efba
000001c0: 93a9 2e3c a5dd b5bb e8bb 0bbc fd5b 6d3c
000001d0: d631 9b3d ff83 9fb9 8ad9 ab3b 7046 ecba
000001e0: cebb ae3b 6f95 f23a 3309 3abc f372 5abc
000001f0: cff7 88ba 4268 103c 5cf9 003c 6b97 95bb
00000200: ade2 2f3b 4112 c23d cc40 44bd 77d6 9a3c
00000210: 114a a03b 5b5c c1bb 35cc a83c edbe 17bc
00000220: d850 84bb dd90 7d3b b854 2f3b 7db4 76bb
00000230: 92ce cb39 0c55 c03b 4d0a 8f3b 85a0 b23c
00000240: 7294 a13a 54d1 61bc 79bb 2cbc 0b05 823c
00000250: f2e3 653b 713a b93c 398d 08bd dbf0 73bd
00000260: 4564 3cbb f0fa ccbb 9c89 abbd 6713 a939
00000270: 87a1 cebc a59f a83b 5a39 113b c90f d83a
00000280: 909b bbbc 3682 103b 9f45 c8bc eeaf cfbc
00000290: 79a0 93bb 8f62 04bb e888 0ebc 1f73 f73b
000002a0: 4004 bf3b a6f5 eabc 0252 25bd 4f56 2b3c
000002b0: de07 c43b 341d b23a 4fc7 0abc 1699 da3c
000002c0: 6cc3 623d 5a80 d7bd 94bd 09bc bacb d9bb
000002d0: 238d aa3c 8e05 6dbc e6b3 013c 3e14 3dbc
000002e0: 977e a53b b3dd 1abc 9187 27bc decf 643c
000002f0: a46a ffbc f978 04bc b4c9 f3bc 72dc 13bc
00000300: 0d34 87bb 11e1 223b d91d b63b 712f 22b9
00000310: 40a6 78bc 3ce9 1e3b 0fb6 7abb 1910 46bb
00000320: 22ab 1abc 75d1 2a3c ab10 2d3d 966e 073c
00000330: 4427 babb aae2 c6bb 88f3 adba a6dd 633a
00000340: 4efd 5f3c 9128 cb3b 3ea3 5fbb 6ff5 3c3b
00000350: 0be5 433c b078 013c 1aa7 debb d5ae 2cbd
00000360: 0115 09bd e5eb a5ba cf69 143b 7071 133b
00000370: 026d d23c dae7 c63b 0d97 d63c 8741 97bd
00000380: 3a31 c83a d1b3 463a 3390 6abc 5e68 a03c
00000390: e892 7fbc 0abf fdbc fa63 be3c e323 f4ba
000003a0: b82e 16bb 8b96 a0ba 7625 2abc de16 01bd
000003b0: dba4 1aba d756 0ebd 682f 14bc ec4b 663b
000003c0: b963 96bb 0c40 b93b 29b0 a23c 3b1b aa3b
000003d0: 42f1 19bc 5f7b 053d 451e e4bb 3ed9 ddbc
000003e0: e767 f3bb d1f9 933a 1a6e 4fbc 0c45 83bd
000003f0: ffec d2bc d302 403b e15f 203b c19c cd3c
0.023222925 0.0027145972 0.0022580298 0.0043749814 -0.0062323245 -0.010694865 0.0014678445 0.0023246936
-0.007293743 -0.010496073 0.030696444 -0.0031403918 0.008092035 0.018754201 -0.019222671 0.0019601043
0.0007687224 0.110344 -0.010938622 0.0325264 0.04222449 -0.0012898146 0.009691855 0.006240824
-0.0016026758 -0.0218723 -0.024100168 0.0035090114 0.009578742 0.011240191 0.0116113 -0.003196489
-0.0010861645 -0.025319755 -0.0020630523 0.13169923 0.034410838 0.009735125 -0.0030399817 0.0025109241
-0.013405402 0.0016413972 0.021343272 0.00072529714 -0.030388588 0.0027343945 0.0030533979 -0.028455291
0.009506819 -0.00093041686 0.019967789 -0.02376185 -0.012846076 0.049749855 -0.011186611 -0.0147803025
0.0027843348 0.012762032 0.0029427044 -0.003435342 0.07786043 0.00080386485 -0.0025864441 -0.007739315
-0.02764092 -0.022486825 0.0033436285 0.009507112 -0.02128736 -0.00141884 0.004405963 0.0073745796
-0.0045192814 -0.001532198 -0.019056922 -0.00673596 -0.009124199 0.008240291 -0.0264086 0.010372143
0.0012519425 0.0009300461 -0.00075587793 0.020854194 0.012347543 -0.005485746 -0.01797912 -0.0051373197
-0.00020764704 0.006347866 -0.003808475 -0.0063378667 0.0016984283 0.0066733793 0.005126394 -0.00019428667
-0.009190276 -0.017873267 0.026117928 0.03037246 -0.036923647 0.037874445 -0.007863374 -0.002082478
0.0068995836 -0.0060700295 -0.0073514907 0.00601036 -0.0019518733 0.11800938 -0.007644512 -0.0018275324
0.010660547 -0.0055501037 -0.008528687 0.014487264 0.07577865 -0.00030425188 0.0052444385 -0.0018026363
0.0053324467 0.001850767 -0.011354732 -0.01333307 -0.0010449829 0.0088139195 0.007871952 -0.0045651696
0.002683799 0.09476138 -0.047913358 0.018901093 0.004891642 -0.005900902 0.020605186 -0.009261829
-0.0040379576 0.0038691082 0.0026753377 -0.00376442 0.00038873084 0.0058695134 0.0043652416 0.021805057
0.0012327565 -0.013782818 -0.010542744 0.015871545 0.0035078493 0.022610875 -0.033337805 -0.05955587
-0.0028746289 -0.0062555 -0.08375856 0.00032248648 -0.025223507 0.0051459842 0.0022159428 0.0016484197
-0.022901326 0.0022050268 -0.02444726 -0.025352444 -0.004505214 -0.0020200347 -0.008699633 0.0075515653
0.005829364 -0.028681587 -0.040361412 0.010457589 0.005982383 0.0013589025 -0.00847037 0.026684325
0.05536215 -0.10522528 -0.008407015 -0.0066466006 0.020819252 -0.014466656 0.007916426 -0.011540471
0.005050491 -0.009452271 -0.010225193 0.013965575 -0.03117878 -0.008085483 -0.029759265 -0.009024726
-0.004126078 0.0024853388 0.0055577573 -0.00015467197 -0.015176356 0.0024247905 -0.0038255488 -0.0030221997
-0.009440215 0.010425915 0.042252224 0.008266112 -0.0056809504 -0.006069501 -0.001327143 0.0008692391
0.013671232 0.0061999043 -0.00341244 0.0028832813 0.011956464 0.007902309 -0.0067948224 -0.04215892
-0.033467297 -0.0012658803 0.0022646075 0.0022498034 0.025686745 0.0060701193 0.026195074 -0.07385545
0.001527346 0.00075798953 -0.014316606 0.019581016 -0.01559899 -0.030974884 0.023241032 -0.0018626418
-0.002291603 -0.0012251897 -0.010384908 -0.03151595 -0.0005899199 -0.034750786 -0.009044506 0.0035140468
-0.0045895246 0.005653387 0.01985939 0.0051912344 -0.009395899 0.03258836 -0.006961616 -0.027081128
-0.0074281576 0.0011289661 -0.012660528 -0.06409654 -0.025747774 0.0029298558 0.002447121 0.02509916

invertible_encoder.bijectors.0.net.2.bias f4 [18]
00000000: 1eb7 4b3c a5a6 f73c 8526 d3bb 6287 d5bb
00000010: f8e9 3dbc 50e2 d0bb 3a28 673b d31f 8fbb
00000020: 8cd3 4ebc 4bc2 e63b dc4c 11bb 52c9 c73b
00000030: 2b35 16bc 2379 f33b 07b3 0f3d 93b7 403c
00000040: 4c0c bcbb 3919 12bc
0.012433795 0.03023083 -0.006443801 -0.006516383 -0.011591427 -0.006374635 0.003527178 -0.0043678074
-0.012623679 0.0070422045 -0.0022171056 0.0060969973 -0.00916795 0.007430212 0.035082843 0.0117625175
-0.0057387706 -0.008917146

invertible_encoder.bijectors.1.net.0.weight f4 [256, 18]
00000000: 7527 a7bf 2eec aabd d8c5 813e 2b5e 95bd
00000010: e160 503d 3f91 043e 729f d3bd 1203 753e
00000020: a843 adbd f867 363e 44ac 8f3d 069c 84bd
00000030: db5d dc3d 8492 a1be ef82 2abe 6156 20bf
00000040: ac67 97bd 2e5a da3e 0a14 9dbe 1ebb 973b
00000050: e4d3 353d 2b49 be3d dac1 373e b3c9 933e
00000060: ae2e 933e 8584 7bbe 45a1 d937 7793 2bbe
00000070: ebfc f23e 825b a8be ad83 93bd 2ab0 223f
00000080: 1b4e afbe f87d 57be faea 8bbe 6c84 573f
00000090: cebe a6bc f467 843e c18e b2be 5a4c a63e
000000a0: 1539 313e f42c a43e 6379 503e 588e eebe
000000b0: 70d0 b23d 833a 8d3d cece 6c3e c243 873d
000000c0: 24d3 b9be 025a 44be 0441 31bd 413a a8bb
000000d0: 782b 873e 8486 bb3e d17d 3e3f 8138 60bd
000000e0: 7dfe 713e 0452 9abe baac 0ebd 64eb 21bd
000000f0: 20fb 703e 06d4 b9be 4f6b 04be b0de bf3d
00000100: a383 db3d ccf6 923e d428 233e d895 10be
00000110: 75a0 a4be b8d5 673e eb0f d03e 056e 8d3d
00000120: b6c2 673f 089b 3f3e 1835 903e bdc7 063d
00000130: fe33 6a3e 8f64 79bd 3d46 4ebd f80a 56be
00000140: 8b89 c33e 7988 b0be d3a7 86be 32c9 de3e
00000150: 39bf 383d 75b5 acbe b289 9939 d2b4 173e
00000160: 7bdf 61bd b6b9 3e3e 7ddc f33e b114 233d
00000170: dbd6 293e a2aa 11be df62 a5bd 21e4 06bf
00000180: 4958 f13e 7d7b 8dbd 5f70 fabc cbcd 6ebe
00000190: a318 a03e 7831 0a3f d000 da3e 2724 2b3f
000001a0: 816c f0bd ebee 523f 15d8 d53d 1a96 a0be
000001b0: aca4 bcbf 2f60 21be b388 1d3e 598a 68be
000001c0: dee4 4dbe 11b2 b83e bb43 df3d 75ea 4e3e
000001d0: 3fae 883e da9c 853e 6137 e83b 8a9d 4c3d
000001e0: 2b79 a9be 4b21 f23e 3c46 c23e a8f9 8abe
000001f0: 1ee0 debe 5046 a1be 976d 13be 217e 303e
00000200: b119 563e 2281 a5bc d034 343d 3741 993e
00000210: 07c2 d33e d8c2 6abe e0de 193d 56f7 a8bc
00000220: 2742 883e a6d3 a43e be26 7b3e 93c5 873d
00000230: 4898 d93e 7bdb 09bf dfdb 5d3f e659 4bbf
00000240: 6cc9 a2bd 0676 f9be 4de5 4dbe a8e6 8abe
00000250: 990f 1c3f 1a65 fdbb 4420 a23d 001e 18bf
00000260: c531 74bd 729b a13e fd7a 8cbe 7edd a3be
00000270: dd3a 8abe 0bf3 d0bd ede3 713c 7241 ecbe
00000280: 2245 1a3d cfea 3fbd 6066 17bf 6fc3 163e
00000290: 8c53 48bd 384b 573e 6ecc d93e f9d4 d1be
000002a0: e0ae 88be 15a3 dd3e e505 7d3e b94e a63e
000002b0: bc68 f0be 7b9e 893c 3585 9ebc a0de a63d
000002c0: a514 e03e 0135 12be 0946 3ebf 340e 583d
000002d0: 6468 ce3c 8650 5bbd 0cee 07bf 80b9 4fbc
000002e0: 5d50 693f 1b7c b4ba 32a7 cc3d 3190 723e
000002f0: e779 5b3e 9df3 a2be 77f8 3abe d418 e73e
00000300: e1df 283f 79a7 a33d b2cb 113e b383 513d
00000310: 7973 033f b170 fa3e 93f5 e1bd 3008 e6bd
00000320: 1015 4dbe 030b b63e 00cb ed3e e9db 7ebf
00000330: 4ffe a03e 6a61 4ebe 2759 11bd 6c1a bc3e
00000340: acc2 b1be 760e 033f 565a 373f 8c8c 713e
00000350: d3ad 423e 320d 1bbf 1d6a 263f 5b99 c83e
00000360: 5538 1f3f 4499 83be 0588 ecbd 9cd1 80be
00000370: 39e2 c3bd ea8b 04bc 4588 e13e f2f5 53be
00000380: 16da 8c3e 1ba7 f6bd 077b f9be 66f6 9f3d
00000390: 2f59 c9bb 27f3 b9be e207 11be 1cf3 623e
000003a0: 8aeb 6cbe 20d0 b5bd e676 b2bf 0d33 3cbe
000003b0: 998c d93e 2d31 bebe 9e1d a93e 6ee7 d13d
000003c0: 4972 b83e 3a56 66bd 6aa3 adbe 5911 893b
000003d0: dab9 503e fbbe babe 9a74 c63e fb86 fd3e
000003e0: 658a 093e ff70 463f 7dec f73d c22d e5bc
000003f0: f293 35bf b781 61be 9a8e bebd 78ce 10be
-1.3058916 -0.08345829 0.25346255 -0.07293352 0.05087364 0.12946032 -0.10333146 0.23926952
-0.0846017 0.17813098 0.07015279 -0.064750716 0.10760089 -0.31557095 -0.1665151 -0.62631804
-0.07392821 0.42646927 -0.3067935 0.0046304604 0.044391528 0.092912994 0.17945042 0.28864822
0.2874655 -0.24562271 2.5943513e-05 -0.16755472 0.47458586 -0.32882315 -0.072028495 0.63550055
-0.34239277 -0.21044147 -0.2732771 0.84186435 -0.020354655 0.2586056 -0.34874538 0.32480127
0.17306931 0.32065547 0.20358805 -0.46592975 0.087311625 0.06895926 0.23125765 0.06604721
-0.362939 -0.1917496 -0.043274894 -0.0051338975 0.26400352 0.36626065 0.7441073 -0.054741386
0.23632236 -0.30140698 -0.034832694 -0.039531127 0.23533297 -0.36294574 -0.1293156 0.09368646
0.10718467 0.28703916 0.15933543 -0.14119661 -0.3215367 0.22640121 0.40637144 0.0690575
0.9053148 0.18711483 0.28165507 0.03290533 0.22871396 -0.060886916 -0.050359953 -0.20902622
0.38190874 -0.3447912 -0.26299915 0.43512875 0.04510424 -0.3373219 0.00029285025 0.14815071
-0.05514477 0.1862553 0.47629157 0.039814655 0.16585867 -0.14225248 -0.08075499 -0.5269185
0.4713767 -0.06908319 -0.03057116 -0.23320691 0.31268796 0.53981733 0.42578745 0.6685204
-0.117394455 0.8239581 0.10441605 -0.31364518 -1.4737754 -0.15759347 0.15384178 -0.22709025
-0.20106837 0.36073354 0.109015904 0.20206626 0.2669544 0.2609623 0.00708668 0.04995493
-0.33100256 0.47291026 0.3794421 -0.27143598 -0.43530363 -0.31498957 -0.14397274 0.17235614
0.20908238 -0.020203177 0.04399568 0.29932567 0.4135897 -0.2292589 0.037566066 -0.020625751
0.2661297 0.32192725 0.24526498 0.06629481 0.42498994 -0.53850526 0.8666362 -0.7943405
-0.079485744 -0.48722857 -0.20107003 -0.27129102 0.609613 -0.0077329995 0.079163104 -0.59420776
-0.059617776 0.31563908 -0.27437583 -0.32004923 -0.26998034 -0.10202607 0.014763814 -0.4614368
0.037663586 -0.04685479 -0.59140587 0.1472299 -0.0489078 0.21024787 0.4253878 -0.40982798
-0.2669592 0.43288484 0.2470928 0.32481936 -0.46954906 0.016799202 -0.019350627 0.08147931
0.4376575 -0.14278032 -0.74325615 0.05274792 0.025196262 -0.05354359 -0.53097606 -0.012678504
0.9113825 -0.0013769896 0.099928275 0.23687817 0.21433221 -0.31826487 -0.18258844 0.4513613
0.6596661 0.07990927 0.1423786 0.05115099 0.5134807 0.48914102 -0.11033168 -0.112320304
-0.20027566 0.35555276 0.4644394 -0.99554306 0.31444022 -0.20154348 -0.035485413 0.36738908
-0.34718835 0.5119394 0.71622217 0.2358877 0.19011621 -0.6056701 0.65005666 0.391795
0.6219533 -0.2570287 -0.11549381 -0.2515992 -0.09564633 -0.008089999 0.44049278 -0.2069929
0.27510136 -0.120435916 -0.48726675 0.07810669 -0.0061446647 -0.36318323 -0.14163163 0.22163051
-0.23136726 -0.08877587 -1.3942535 -0.1837885 0.4249008 -0.37146893 0.3303041 0.1024922
0.36024693 -0.056234576 -0.33913738 0.004182976 0.20383397 -0.36473832 0.38760835 0.49517044
0.134317 0.7751617 0.121056534 -0.02797592 -0.7092887 -0.22022139 -0.09304543 -0.14141262

invertible_encoder.bijectors.1.net.0.bias f4 [256]
00000000: 4575 ed3c 804a e93b c774 8ebb 3fda 043d
00000010: 9b54 dcbb 8837 9ebc 51a1 26bc fce4 3abd
00000020: fc27 6dbc 0aa8 55bd 8c1b 8bbb f8e9 69bc
00000030: b1d9 e73c 549f e739 617e 233b a825 9e3c
00000040: e8d9 bc3c b5bf 08bc 973d 02bd 230b 28bd
00000050: 0034 3fbd 5024 c83c e600 62bd 6faa 0bbd
00000060: e59f 523b 901c 5cbc 35d0 0abd 764d 46bd
00000070: 218e 2cbc 263a 863c 3ee3 4bbc 89d2 c3bd
00000080: 25ae 38bd 4e22 713c f1f7 45bd 6b5c 09bd
00000090: 9aa6 1fbd feb8 86bc d28d 27bd 2f47 0a3d
000000a0: 907a e93c 73b4 99bc 5273 323d d8c5 413b
000000b0: c476 a9bc c99f a4bd d01d 9c3c 7d41 0c3d
000000c0: 2390 27bd 7675 2abd fe85 3eb7 8bf6 3cbd
000000d0: 37ff 99ba 80bc 37bd e03e 2dbd 8444 59bd
000000e0: 3b82 e33c 9180 593d 8bc5 693d 958a 86bd
000000f0: 09ea 24bd 933f 19bd ab33 993c 4fab 67bc
00000100: 4f24 2fbd a1ce dabc e244 8dbc 19f5 863c
00000110: f93a 313b 475b 043d 1c11 bc3c 3190 9abc
00000120: 44ed 3bbd 4ddd 1fbd 903b 8a3c 6b78 8d3c
00000130: d484 f039 e672 63bd 0410 d1bc bcd6 963c
00000140: 7acb 843b deec dd3c f37a 43bd 71e3 6abc
00000150: 936d 49bd fa8d 4f3c 111a cabc 1dd8 7cbc
00000160: 19ca f73b dba3 d23c f7a5 babc fb04 343c
00000170: 77f0 cf3c af60 efbc 845a 2dbc 2482 0bbc
00000180: c0b8 06bd a5af b03c c72d 80bd e12b 4cbd
00000190: 4f09 05bd a69c a2ba e383 a8bb ba4e 433d
000001a0: 7b07 fabb b893 c43b 0532 d13c 2da9 8e3c
000001b0: 473c 8fbc 4101 d23b 39fb 7d3c f532 acbb
000001c0: d8fd 7abc 0d97 28bd ff42 6a3c 08d8 603c
000001d0: 54dd 92bc 199f d33b be1a e83b 56e2 643d
000001e0: eb50 5dbc 280a f73c f3c7 103d d383 adbc
000001f0: 220f 4a3d a953 5a3c 472a 8ebd 7d6d c4ba
00000200: 2b3d 813c 598d f73c e47b 36bd e805 ebbc
00000210: b74a 59bc 7b60 063d 493c 0b3d 2b8d 22bd
00000220: cc00 3abd 1d5c 9ebc 91cc 253d 40a8 b7ba
00000230: 4424 adbb e2b8 253d 75af 93bc 77b1 67bd
00000240: 032d 20bd 7236 8e3c bd59 19bd c140 caba
00000250: b2ff b33c 9ad2 e53b 1d82 ae39 26c2 9abc
00000260: c1e5 d2bc cfdf ebbb eb18 393c 68ec e6bc
00000270: 330c 21bd 594a f3bc 3980 0c3d e231 0dbd
00000280: 03c7 603c 1102 ca3b e183 913b dd95 213d
00000290: 4f60 7c3d 1900 463c a1f9 4ebd 17cd ca3c
000002a0: 1cc4 70bd 2a74 54bd 1bf8 f6bc f25a 69bb
000002b0: cae5 26bc 2a5c bb3b 0f31 a4bc cb99 b13c
000002c0: ce96 023c 101a 173b 5676 033d 8069 2cbd
000002d0: e49c ea3c c9b4 18bd de70 7f3c 925c 263c
000002e0: 9681 f5ba ee60 11bd a672 1c3d 316f cabc
000002f0: 6fa1 9abd 9386 323c cbfc 1db9 8235 f7bb
00000300: e1d2 d9bb a89f 56bd ca56 3cbd 3bec 62bd
00000310: 4cff d4bc 9789 183c d89a 743c f6ec 453c
00000320: 841f 43bd 3172 04bd 8e9b 64bd f99a b7bc
00000330: 8316 5fbc 07be 39bc 076b 2f3d 2596 4b3d
00000340: a78f 37bd 8685 103c 4650 0ebc 7486 8fbc
00000350: 4655 ca3c fa6e 44bd cf40 89bd 1aaa 39bd
00000360: 200f 78bd 6a60 56bd 1030 643d 8bd3 08bd
00000370: e5dd 94bb 2a65 0ebc df6e 9d3c 0808 14bc
00000380: d3f8 503c d1f1 2ebd 9af5 d93a e087 1d3d
00000390: fac5 8abc 1acd 123d 05b2 163d 1fa5 e8bb
000003a0: 4885 56bd d1d8 003c 1499 a63c c064 eebc
000003b0: b7a5 a5bc 422a 4c3c 3bb4 50bd f103 47bc
000003c0: 6800 2ebc 567a fd3c 28a7 7e3d 22cd 0f3c
000003d0: ab08 9d3a 187e 6dbd 23e7 593c f579 0b3d
000003e0: 5738 a2bc 01ab bdbc 659f 1e3d a925 02bd
000003f0: 5c8e b1bc 0d7b 8d3c 1aa0 ee3c 6bf2 97bc
0.028986583 0.007119477 -0.004347417 0.0324347 -0.006723953 -0.019313589 -0.010170297 -0.045628533
-0.014474865 -0.052162208 -0.004245227 -0.014276974 0.028302046 0.00044178462 0.0024947154 0.019305065
0.023053125 -0.008346488 -0.031797018 -0.041026246 -0.04668045 0.024431378 -0.055176638 -0.034098085
0.0032138762 -0.013434544 -0.033889968 -0.048413716 -0.010531933 0.01638515 -0.0124443155 -0.09561641
-0.045087952 0.0147176515 -0.04833216 -0.033535402 -0.038977243 -0.016445633 -0.040906735 0.033759292
0.028500825 -0.018762803 0.04356701 0.0029567387 -0.020686515 -0.08038289 0.019057184 0.034242142
-0.040908944 -0.041615926 -1.135608e-05 -0.04613356 -0.0011749034 -0.044857502 -0.04229629 -0.053043857
0.02777206 0.053101126 0.057073157 -0.06569401 -0.040262256 -0.037414145 0.018701395 -0.014139964
-0.042759236 -0.026709856 -0.01724476 0.016474294 0.0027043207 0.03231361 0.022957377 -0.018867584
-0.04588057 -0.03902941 0.016874105 0.017269334 0.00045875332 -0.055529498 -0.025520332 0.01841294
0.0040525766 0.027090486 -0.047724675 -0.014336453 -0.049176764 0.012668127 -0.024670633 -0.015432385
0.0075619337 0.025712898 -0.022784216 0.010987516 0.025383217 -0.029220907 -0.010580663 -0.008514915
-0.032891035 0.021568129 -0.06258731 -0.049846534 -0.03247958 -0.0012406304 -0.0051426752 0.0476825
-0.0076302863 0.0059990548 0.025536546 0.017414654 -0.017484797 0.006408841 0.015501791 -0.005255098
-0.01531931 -0.04115968 0.0142982 0.013723381 -0.017927803 0.006458175 0.007083266 0.055879913
-0.013508062 0.03015621 0.035346936 -0.021181023 0.049330838 0.01332561 -0.069416575 -0.0014986243
0.015776237 0.030218767 -0.044551745 -0.02868934 -0.013262442 0.032806855 0.03399304 -0.03968541
-0.045410916 -0.019331032 0.040478293 -0.0014011934 -0.005283864 0.04045952 -0.018028 -0.056565728
-0.039105427 0.017359946 -0.037439097 -0.0015430675 0.021972511 0.007013631 0.00033284808 -0.018891405
-0.02574432 -0.007198311 0.011297445 -0.0281889 -0.039318275 -0.029698538 0.03430197 -0.0344714
0.013719323 0.006164797 0.00444077 0.03944956 0.061615285 0.012084984 -0.050531033 0.024755998
-0.058780774 -0.051868595 -0.030147603 -0.0035607186 -0.010186622 0.005717774 -0.020042924 0.02167978
0.007970525 0.0023056306 0.032095276 -0.0420928 0.028639264 -0.037281785 0.0155908745 0.010153906
-0.0018730636 -0.03549283 0.038195275 -0.024711223 -0.07550322 0.010896343 -0.0001506686 -0.0075442204
-0.006647453 -0.052398354 -0.045981206 -0.05540107 -0.026000641 0.009310148 0.014929496 0.012080422
-0.047637478 -0.032335464 -0.05581241 -0.022412764 -0.013616207 -0.01133681 0.04282668 0.049703736
-0.044814732 0.008820897 -0.008686131 -0.017520167 0.024698865 -0.047957398 -0.067018144 -0.045328237
-0.0605613 -0.05233804 0.0557099 -0.033404868 -0.0045430535 -0.008691112 0.019217907 -0.009035118
0.012754637 -0.042711083 0.0016628981 0.03845966 -0.016940106 0.03584013 0.036790866 -0.007099762
-0.0523732 0.007864193 0.020336665 -0.029100776 -0.02022062 0.012461247 -0.05095313 -0.012146936
-0.010620214 0.030942123 0.06217113 0.008776935 0.0011980733 -0.05798158 0.013299736 0.034051854
-0.019802256 -0.02315283 0.03872623 -0.031774197 -0.021674328 0.01727059 0.029129077 -0.018548211

invertible_encoder.bijectors.1.net.2.weight f4 [18, 256]
00000000: b08f 67bd 8201 953d b9ba 913b ca7d 82bc
00000010: 870f e3bc 4bf0 463d 1b4a 87bc b2e1 733c
00000020: 3cae 09be 8853 163d 573b 4abd ac03 a03d
00000030: a75a 463d 41ee 5cbe 66e8 f13d 563d 00be
00000040: 5b98 0dbb 2f96 bebd 42dd 7cbc 9ef9 033d
00000050: 5c38 00be d799 72bd 65d8 653d 4854 663d
00000060: 8100 adba dbef ba3c 6f8b 253e 575f 113d
00000070: e007 ba3d 7d88 50bd b217 d83c 921a efbc
00000080: 981e 893c ca36 34bc e4c0 92bc aed8 8f3d
00000090: 6c1e a4bc 5a30 30be 8687 87bc 2726 793c
000000a0: ac75 8c3d ffa0 163c c67a 55bd d55d 2c3c
000000b0: ba8e c0bc 4830 ae3d 2f24 dabd e652 ba3c
000000c0: 38df 843c c193 c03b 561e a2bd 786f aabc
000000d0: 4182 033c e49a e43c ac12 17be 6235 a53a
000000e0: 6b5e 813d d7a0 43bd 8e0d f63c 9d0a a93d
000000f0: acfe 103c 837c a4bc 4371 943b 26da 573c
00000100: 93b8 7fbd 911f 59bd c287 993d 86b3 0d3e
00000110: 1c34 e83c c816 ed3b 07e2 6ebd fc19 ffbc
00000120: a280 dbbd 5a69 e93c a3ed 43bd c875 193d
00000130: 570e da3b 6cba a53d 770b c93d a9e4 1a3b
00000140: e150 e73b afa3 dabc c181 043d 36e7 6a3d
00000150: af95 12bc 4f9a 2abd eaeb 3a3e 2d95 083e
00000160: 8292 6b3e 675a e23c c980 853c 4f1f a7bd
00000170: 00c5 94bc 4551 cabc 252f 13be 5c49 1bbe
00000180: 1dab d53a e220 a2bc b430 72bd be44 af3d
00000190: c3cf 103e 517c 7ebd 21d6 03be 533d e93d
000001a0: d973 1f3d 3814 10bd d1c0 4dbd 04c5 83bc
000001b0: 0250 7abc ae40 6dbd 574a 26bc 33e3 f4bd
000001c0: c362 1b3d 1d61 c1bb 974f 0dbc fd28 84bc
000001d0: 2e02 1dbd 8244 983b 46e8 c8bc 4fc7 7d3c
000001e0: 06ba 9f3c dfbb 1cbd a47b 193d 8d2e 2e3b
000001f0: 77ca c33c 011f 073d 66c6 1d3d 0d9f 8abb
00000200: 0871 7f3c 38b9 b93b d1b2 7ebc 7fe7 493c
00000210: 7cb1 0a3e 34e9 93bd 8ade 0dbd 5b64 cdbc
00000220: 5a9a 3bbd 42e5 c9bc 6cb2 91bd 6a6f c83d
00000230: 679c afbc f284 023b 000f b53d f435 a83c
00000240: 41cb 0f3d 182b f9bc e0a5 b93d fbd5 01bb
00000250: 4ad3 9dbc a0dc 5bbc 5acc b3bc 1ea1 6a3b
00000260: ccc1 2c3d 7fdf fd3c f82d 66bd 26ca 903c
00000270: 8b91 893d c17d 643c 3595 44be 41e4 0fbe
00000280: 3d8d 69bd fd10 273c 0a62 b3bb 6109 49bd
00000290: 33b1 ddbc 9af5 6abd 6192 11bd 89ca 093e
000002a0: 8a03 193e 959e 0abd ef80 563e 05e0 023b
000002b0: 2e97 25bd c41d 36bd 5d90 053b 4149 90bc
000002c0: f2d0 8e3b 7ebf 3a3c c6c3 aebd 21d2 90bd
000002d0: 01dc b8bc 1d33 173d 6074 42be 470c 1d3e
000002e0: f404 51bd 217f 3fbe 3a61 403d 9a3c 013d
000002f0: 69df fd3b 59fd 85bd 6f22 b13b 3ae9 0abe
00000300: 8bfb 41bd a3f3 11bd bbcb 3e3b c5b4 86bd
00000310: 6c9a 013e 2955 5f3d 9529 67bd 8822 053c
00000320: b3c1 ccbd f850 813c d559 25bd c101 393d
00000330: 754c 25bd 6a5e 8bbb bb72 993e a213 cabd
00000340: 3682 ab3c 0671 883d 7db8 0f3d 1d17 3ebd
00000350: 45ca 353c 9519 733d d0dc ffbc 20ef 283d
00000360: 0daa 593d 3a9b 273e a14f bf3d 4d03 47bd
00000370: 544a f93c e47d 003d fbc5 fc3c 0451 2f3a
00000380: a680 1cbd 4929 9c3d 6359 6f3d bd81 db3c
00000390: 9cd3 29bc c745 5ebd b7ae 76bc c9b1 783d
000003a0: 75af d63b 0bad 203d 692a dbbb 8bb2 853d
000003b0: 5696 433d 42e5 10bc 8aa9 50bd ba04 dcbd
000003c0: 25ad 523e 11ad b5bd eb4d 8ebc 77d7 c4bc
000003d0: 9b55 81be 152e 89be 625e 623c e18b 82bd
000003e0: 2496 de3c a98c 2d3d ee24 d5bd e02e cdbc
000003f0: 7047 c33d 6a72 f33b d017 54bd 8633 df3c
-0.056533515 0.07275678 0.004447308 -0.015929122 -0.027717365 0.048569005 -0.016514828 0.014885353
-0.13445371 0.036700755 -0.049372997 0.078132 0.048426297 -0.21575262 0.118119046 -0.12523398
-0.0021605704 -0.09305989 -0.015433611 0.032220475 -0.125215 -0.059228744 0.056114573 0.05623272
-0.0013199003 0.02281945 0.16166471 0.035491314 0.09083533 -0.050911415 0.026378486 -0.029187474
0.016738221 -0.010999391 -0.017914243 0.0702375 -0.020034038 -0.17205945 -0.016544115 0.01520685
0.06858382 0.009193658 -0.05211904 0.010520418 -0.023505557 0.08505303 -0.10651433 0.022744607
0.01621972 0.0058769886 -0.07915942 -0.020805106 0.00802666 0.027905889 -0.14753217 0.001260441
0.06316837 -0.04776081 0.03003576 0.082539774 0.008849781 -0.020078903 0.0045301034 0.013174569
-0.062431883 -0.05300862 0.07496597 0.13838014 0.02834516 0.0072353818 -0.058321025 -0.03114032
-0.10717894 0.028492618 -0.04783405 0.03746584 0.0066545415 0.08092198 0.0981664 0.0023634827
0.007059202 -0.026689379 0.032350305 0.057349406 -0.00894682 -0.041651066 0.18254057 0.13338156
0.23005107 0.027630998 0.016296761 -0.081602685 -0.018160343 -0.024696955 -0.14373453 -0.15164703
0.0016301606 -0.01979107 -0.05912848 0.085580334 0.14141755 -0.062130276 -0.12874652 0.1138865
0.03892884 -0.035175532 -0.050232712 -0.016085155 -0.015277864 -0.05792301 -0.01014956 -0.11957397
0.037935983 -0.0059014694 -0.008624933 -0.016132826 -0.038332157 0.0046468386 -0.02452482 0.015489413
0.019497883 -0.038265105 0.03747143 0.002657804 0.023900254 0.032988552 0.038519286 -0.004230386
0.015590914 0.0056678317 -0.015545563 0.012323259 0.13544267 -0.07222214 -0.034636058 -0.025072267
-0.045801498 -0.024645451 -0.071141094 0.097868755 -0.021436883 0.0019915667 0.08840752 0.02053354
0.035105947 -0.030416057 0.09064841 -0.001981138 -0.01926579 -0.0134193 -0.021948028 0.00358016
0.042177007 0.03099036 -0.056196183 0.017674517 0.06717213 0.013945998 -0.19197543 -0.14051916
-0.05701946 0.010196921 -0.0054743337 -0.04908121 -0.027062034 -0.05736313 -0.03553999 0.13456167
0.14942756 -0.03384264 0.20947622 0.0019969952 -0.04042738 -0.04446198 0.0020380237 -0.017613055
0.0043584043 0.011398194 -0.085334346 -0.07071329 -0.022565844 0.03691398 -0.18989706 0.15336715
-0.051030114 -0.1870084 0.046967722 0.031551935 0.00774758 -0.06542463 0.005405716 -0.13565531
-0.04735903 -0.03563274 0.0029113132 -0.06577448 0.12656564 0.054524574 -0.05643614 0.008125909
-0.09997883 0.01578568 -0.040368874 0.04516769 -0.04035612 -0.0042531984 0.29970345 -0.09867026
0.020936113 0.066621825 0.03508805 -0.04640876 0.011095588 0.05935057 -0.031233221 0.041243672
0.05314069 0.16367808 0.0934136 -0.048587132 0.03043095 0.03137006 0.030856123 0.00066877925
-0.038208626 0.07625062 0.058434855 0.026795262 -0.010365393 -0.054265764 -0.015056304 0.060716424
0.006551678 0.039227527 -0.0066884053 0.06528195 0.047750793 -0.008843722 -0.050942935 -0.10743089
0.20573862 -0.088709004 -0.017371139 -0.024028523 -0.25260624 -0.2679297 0.013816448 -0.06374336
0.027171202 0.042370472 -0.104074344 -0.025046766 0.0953511 0.0074294107 -0.051780522 0.027246248

invertible_encoder.bijectors.1.net.2.bias f4 [18]
00000000: b2d3 adbc 4770 75bd 3901 24bd 8720 57be
00000010: 3fdf 67bd aaf4 1abe e246 2fbe fdde 5ebe
00000020: 8463 d5bd 8f26 a8bd 581e a9bc 042f b9bb
00000030: 3cd4 093c 1039 4e3b fb23 913a 9991 ba39
00000040: 014a 3b3c fc9b ef39
-0.021219108 -0.05992153 -0.04004023 -0.21008502 -0.05660939 -0.15132394 -0.17116883 -0.21764751
-0.10419372 -0.082104795 -0.020644352 -0.0056513567 0.008412417 0.0031467117 0.0011073345 0.00035585163
0.011431218 0.0004570185

invertible_encoder.bijectors.2.net.0.weight f4 [256, 18]
00000000: 164a f0be bb00 ecbe b1ae 023f ee5e 5dbe
00000010: f810 963e 492a 4f3d 8f90 3fbe 5c85 3b3e
00000020: c2ab 3c3e 0352 423d 68b9 8dbe 2ccd b6be
00000030: 0c3e 423f 3a2a 8cbe beb0 57bf a699 83be
00000040: 6c11 5dbd eb67 c8bd 15b5 de3e 0eea f1bd
00000050: 4eae a5be 0af0 133d 384d 22be 0e89 c2be
00000060: bb1d 073d 0c2a 973c 2670 c9bd 842d 353d
00000070: 7456 a23d 9879 18bf 41ac 863e 5792 16bc
00000080: 26ae debc 6db1 18bd b31e 7a3e 157b 94bd
00000090: 6c4e 573d dabd f33c edf2 a43e 3a36 0e3e
000000a0: 5610 69be 5ef4 acbd 1da8 5c3e f0ea 0fbe
000000b0: c8c5 9abe 4c58 cd3d 7ead dc3e 548e cdbe
000000c0: a31b debe 2965 ccbe e527 1dbf 3182 03bf
000000d0: 8ccf c43e 452f 8cbd bf3c d53d 4697 0dbe
000000e0: ae37 723e bf0c 50be 812a 95bd 6699 c93d
000000f0: de7b 863e abbe 8f3e 2706 00bd 6df3 93bd
00000100: dbd5 58be a7c9 403e 9d2d 9abc 711a a23e
00000110: 6a42 16bf 2637 95be b841 7f3e 04c8 933e
00000120: 929d 94bf 3490 ec3d fa9f 263e d34f 1cbe
00000130: b854 dc3d 94e4 acbc c79b 323d 3c04 8f3e
00000140: 7f29 373e 33d7 f93d d6ee afbe 29aa 6a3e
00000150: 381d 5b3c c544 febb 16fd 693e 7098 803e
00000160: b23e a0be dffb 4ebe 2d57 383f f1e4 22bf
00000170: ad40 c33d 1939 a4bd 645a b83e 6cb8 2f3e
00000180: aa6c 8abd 23e8 1a3e 1e95 5d3d 7219 d73c
00000190: 7cf8 38be 0ca5 aabd 9ed3 83be 4512 9f3e
000001a0: b858 83be 05c1 0dbf aa10 3b3e 9130 f4bc
000001b0: e869 6dbe 8234 80bd b27c 2b3f 54d5 f7bd
000001c0: d71a 903d 22f7 803e d2bd 963d bccd 183e
000001d0: 30c4 483e e6e6 58bb c1c7 f33d af11 e3bd
000001e0: 0d43 07be 96ec e9bd dc53 e8bb 94a0 adbe
000001f0: ce6e cebc 6d62 913d 90f4 5bbe 7611 633e
00000200: 8b0e 0d3e 77ac ccbe 63ac d43d 1ae5 0c3e
00000210: a332 2c3e a6d7 16bd 8b85 84bc 5f93 9bbe
00000220: 4675 873d 3da6 77be ac73 24bf f66f 0f3f
00000230: 85e4 88be 3a80 863d c627 363e af16 40be
00000240: bffc 1cbf b517 1c3e 4f00 bfbe 02a6 fd3c
00000250: 0f6c 1abc cf6c 6a3e 4692 073d 33c2 183e
00000260: 4b9a 01be d988 1bbf 56eb c93d 92ee 563f
00000270: 2b1a bc3c a7f0 4d3e 731e 92ba 0b0a 32bf
00000280: 3194 353e ac34 94be 59ea 643e 6b00 d3be
00000290: ad64 91be 0036 173e 98bd f4be c085 123d
000002a0: 43d0 da3d aa5c 00be c91b 193e a334 9a3d
000002b0: a317 0abf bfc5 5bbe 4f23 613e 54d8 093f
000002c0: 0a89 813e b76b 82bd 06ce 9c3e bf1f d73e
000002d0: 1c8a 8d3f 94d2 1b3e 6726 2dbe 493f 9dbe
000002e0: 99be a0be 56d7 173e a473 04bd 53c1 4dbe
000002f0: 1e91 8abd c46c f3be 217e 7a3e f825 51bf
00000300: 3f8b b93a d015 2cbe 9ae2 6a3e d6cd 72be
00000310: a32c 0ebe 5907 08bb 3a97 033e dbdb 073d
00000320: 1745 05bf f396 783e 16d8 a93d d7a7 55bd
00000330: eaef 20be 790b 55be cc2a 0b3e f11d 51be
00000340: 8383 943e f2dd 6bbe 8886 a83d a007 ccbd
00000350: 9704 24bd 89ee 01be a6a8 0cbd b472 873d
00000360: a9c4 a83d 3a4d 1abe 5c70 313c b809 8bbd
00000370: f6f0 b3bd f57f fa3d f600 0ebe 01ab 293d
00000380: 7bc8 363e 4001 02be 5a1a 293e 906b 873e
00000390: 3cc2 6f3d f699 02be 3c69 033e 1c14 acbe
000003a0: 8266 d5bd df39 173e a62f d43e 4e2f 2d3f
000003b0: ce31 00ba 940b ab3d f4b9 4dbe 3059 e3be
000003c0: 3c6d 80bd f7d2 95be dc3d a73c 4b98 0dbf
000003d0: adb2 313d 5d77 da3e c42d 973e a8dd 3fbe
000003e0: 0601 7fbf 2c1c 263f a374 ee3e c618 09bf
000003f0: d57b 2e3e 8a79 0fbf bc62 6f3e cf57 273d
-0.46931523 -0.46094307 0.5104781 -0.21618244 0.2930982 0.050577436 -0.18707488 0.18312591
0.18424895 0.047441494 -0.27680516 -0.3570341 0.75875926 -0.27375966 -0.8425406 -0.25703162
-0.053971693 -0.09785446 0.4349753 -0.118122205 -0.32359546 0.03611759 -0.15849769 -0.3799519
0.032987338 0.018452667 -0.09835844 0.04423286 0.07926646 -0.5956054 0.26303294 -0.009190164
-0.02718265 -0.03727858 0.24425773 -0.072500385 0.052565023 0.029753614 0.32216588 0.13887873
-0.22760138 -0.08445047 0.21548505 -0.14054465 -0.3022902 0.10026607 0.43101114 -0.4014765
-0.4338046 -0.3992093 -0.61389 -0.5137053 0.38439596 -0.068449534 0.10411977 -0.13827237
0.23654053 -0.20317362 -0.072834976 0.098437116 0.26266378 0.28075156 -0.031255867 -0.07224164
-0.2117533 0.18826924 -0.018820578 0.31660798 -0.5869509 -0.29143637 0.24927413 0.28863537
-1.1610587 0.11550942 0.16271964 -0.15264826 0.10758346 -0.021105088 0.043605592 0.27932918
0.17886923 0.12199249 -0.34361905 0.22916473 0.0133736655 -0.007759663 0.22850451 0.251163
-0.31297833 -0.20213269 0.7200802 -0.63630587 0.0953382 -0.08018703 0.36006463 0.17160195
-0.06759007 0.15127616 0.054097287 0.02625725 -0.1806354 -0.083322614 -0.2574739 0.31068626
-0.25653625 -0.5537265 0.18268076 -0.029808315 -0.23184931 -0.06260015 0.66987145 -0.12101236
0.07036369 0.25188547 0.07360424 0.14922231 0.1960609 -0.003309661 0.119033344 -0.11087357
-0.13209172 -0.11422078 -0.007090075 -0.33911574 -0.02519932 0.07098851 -0.21480012 0.2217463
0.13775079 -0.3997533 0.10384443 0.1375927 0.16816191 -0.036826752 -0.01617696 -0.30385873
0.06614165 -0.24184509 -0.64239 0.56030214 -0.26736847 0.06567426 0.1778861 -0.18758653
-0.6132316 0.15243419 -0.37304923 0.030962948 -0.009425177 0.2289307 0.03309848 0.14917831
-0.12656514 -0.6075569 0.0985934 0.8395778 0.022961697 0.20111333 -0.0011147991 -0.69546574
0.17732312 -0.28946435 0.22355022 -0.41211256 -0.28397122 0.14766693 -0.478009 0.035772085
0.10684254 -0.12535349 0.14952005 0.07529571 -0.53942317 -0.21462153 0.21986125 0.53845716
0.25299865 -0.06368201 0.30625933 0.42016408 1.1057773 0.15217048 -0.1690918 -0.30712345
-0.31395414 0.14828238 -0.032336846 -0.20093279 -0.0676596 -0.4754392 0.24462177 -0.8169856
0.0014155878 -0.16805196 0.22938004 -0.23711333 -0.13884215 -0.0020756333 0.12850657 0.033168655
-0.5205855 0.24276333 0.08293168 -0.052162018 -0.1571652 -0.20805158 0.13590544 -0.20421578
0.29006585 -0.23033884 0.08228785 -0.09962392 -0.04004344 -0.1268865 -0.034340523 0.06613675
0.08240635 -0.15068522 0.010830011 -0.06788963 -0.08786194 0.12231437 -0.13867554 0.041422848
0.17849915 -0.1269579 0.16513959 0.2644925 0.058534846 -0.12754044 0.12833112 -0.33609092
-0.104199424 0.1476817 0.41442603 0.67650306 -0.0004890234 0.08351818 -0.20090467 -0.44403982
-0.06270835 -0.29262516 0.020415239 -0.55310506 0.04338329 0.42669192 0.29527104 -0.18736899
-0.99610937 0.64886737 0.46573362 -0.53553426 0.17039426 -0.5604483 0.23377508 0.040855225
