Sentinel_model_weights/IKAE_zp/best_model_3.pt (torch, 237326 bytes, 24 tensors)

invertible_encoder.bijectors.0.net.0.weight f4 [256, 18]
0	0xbdf0cf3a	-0.11758275
1	0x3d859d2a	0.06524117
2	0xbc996812	-0.018726382
3	0xbe414e04	-0.18877417
4	0xbd6b2f5a	-0.057418205
5	0xbeaaea2b	-0.3338178
6	0x3da75a64	0.081715375
7	0x3de38157	0.11108654
8	0x3bb5b2c5	0.0055449926
9	0x3e6c7aa9	0.23093666
10	0xbe3a0205	-0.18164833
11	0xbfc840af	-1.564474
12	0x3f769688	0.9632344
13	0x3c731c3c	0.014838275
14	0xbffb81e8	-1.9649019
15	0x3e943ba4	0.28951752
16	0xbdb09b37	-0.08623355
17	0x3ea6c869	0.32574776
18	0x3e03915a	0.12848416
19	0x3d8910b7	0.06692641
20	0x3e0330a9	0.12811531
21	0xbd4a2227	-0.049348976
22	0x3e1a1189	0.15045752
23	0xbe8c72db	-0.27431378
24	0xbe70dd6f	-0.2352197
25	0xbdf47ceb	-0.11937889
26	0xbe000de3	-0.12505297
27	0x3d5e2346	0.054232858
28	0xc03cf78e	-2.9526095
29	0x408843f8	4.258297
30	0x40590f6e	3.3915668
31	0x3e80d758	0.25164294
32	0x3fc3536e	1.5259836
33	0xbedb5361	-0.4283705
34	0xbf602cd3	-0.87568396
35	0xbf3f6a2b	-0.74771374
36	0xbe0e9cac	-0.13926953
37	0xbe5f8908	-0.21829617
38	0xbe0e351e	-0.1388745
39	0x3d6f9905	0.05849554
40	0xbcbce70d	-0.023059392
41	0xbc06fa5c	-0.008238401
42	0xbc81c267	-0.015839769
43	0xbe2a4ec5	-0.1663161
44	0x3e0fdd30	0.1404922
45	0xbdb75c32	-0.08953132
46	0x3eb33479	0.3500097
47	0x3f51d6ca	0.8196837
48	0x3df7b057	0.12094181
49	0x3e087c72	0.13328722
50	0xbf836f21	-1.0268289
51	0xbe7a43d2	-0.24439934
52	0xbe15fb55	-0.14646657
53	0x3e92f598	0.28702998
54	0x3e2d0404	0.16896063
55	0xbd49286c	-0.049110815
56	0xbe4856df	-0.19564389
57	0x3dad3ff1	0.084594615
58	0x3e68cad2	0.2273362
59	0xbe400567	-0.18752061
60	0x3da0a0c3	0.07843163
61	0xbd18180f	-0.03713232
62	0xbe52b8e7	-0.20578347
63	0xbdc9afac	-0.0984796
64	0xbebb889c	-0.36627662
65	0xbed44406	-0.41458148
66	0x3ebaaa9b	0.36458287
67	0xbe2a44ec	-0.16627854
68	0x3f094295	0.5361722
69	0x3f5a5e52	0.8530017
70	0x3ebe272e	0.37139267
71	0xbf2ee858	-0.6832328
72	0xbb2a7e52	-0.0026015234
73	0xbcfea289	-0.031083362
74	0x3e7eeb4b	0.24894445
75	0xbd02ed9e	-0.03196489
76	0xbd645022	-0.055740483
77	0x3dbe0dba	0.09279962
78	0xbd5f446b	-0.054508608
79	0x3d2e84f5	0.042607266
80	0xbe46e412	-0.1942294
81	0xbdd3b12d	-0.10336528
82	0xbf2c36f2	-0.6727134
83	0xbfbd4f43	-1.4789814
84	0x3dd5805a	0.10424872
85	0xbd0405d4	-0.03223212
86	0xbe0ff673	-0.14058857
87	0xbec07fec	-0.37597597
88	0x3c2f9468	0.010716535
89	0x3ec76e3a	0.38951284
90	0xbdbe0f95	-0.09280316
91	0xbdc80e78	-0.09768385
92	0xbea2c140	-0.31788063
93	0x3dd39a37	0.103321485
94	0x3e1bd519	0.15218009
95	0x3cf8d9ea	0.030377347
96	0xbe809254	-0.2511164
97	0x3d886b0b	0.06661042
98	0xbdbeaa95	-0.0930988
99	0xbe24c6c5	-0.1609145
100	0xbfd45dcf	-1.6591128
101	0xbf6c6d6d	-0.9235447
102	0x3fb9b151	1.4507238
103	0x3d903b3a	0.070425466
104	0x3fdb89cb	1.7151426
105	0xbe188861	-0.14895774
106	0xbf0612ce	-0.52372444
107	0xbf00892e	-0.5020932
108	0x3e8c9a41	0.27461436
109	0xbd590737	-0.052985396
110	0x3e20a23a	0.15686885
111	0x3e27d2c2	0.16388991
112	0xbe3a6f7d	-0.18206592
113	0xbde8760c	-0.11350641
114	0xbdbfa7a2	-0.09358145
115	0xbe1740a1	-0.14770748
116	0x3e862628	0.26200986
117	0x3e81271c	0.2522515
118	0x3f2eb651	0.6824694
119	0xbe4e1f9f	-0.2012925
120	0x3eb0e528	0.34549832
121	0xbea6343f	-0.32461736
122	0xbeb31611	-0.34977773
123	0x3e310819	0.17288245
124	0x3e22b194	0.15888053
125	0xbdd703b4	-0.10498753
126	0xbe6747c1	-0.22585966
127	0xbd7fe4a7	-0.06247392
128	0xbe1bd187	-0.15216647
129	0xbd0fcd45	-0.03510787
130	0x3e671485	0.22566421
131	0x3d0e353b	0.034718733
132	0x3dcc4e71	0.09975899
133	0xbdce03b3	-0.10059299
134	0xbea4d69a	-0.32194978
135	0x3cd9eafd	0.026601309
136	0xbf24d79d	-0.643915
137	0x3f8437d2	1.0329535
138	0xbe48483b	-0.19558804
139	0xb9df7fb7	-0.0004262903
140	0x3f8302eb	1.0235265
141	0x3ed3bab6	0.41353387
142	0x3d5f2aea	0.054484285
143	0x3cf225ac	0.029558979
144	0xbe367c8c	-0.17820948
145	0xbd77a0e8	-0.060456187
146	0x3e213c3d	0.15745635
147	0xbe53159b	-0.2061371
148	0x3dac5884	0.084153205
149	0x3e737e7a	0.23778716
150	0xbe3062b9	-0.1722516
151	0x3e6174ff	0.22017287
152	0xbd9873fb	-0.074439965
153	0x3ec5be8e	0.38621944
154	0x3ebf30b3	0.37341842
155	0xbf569e58	-0.83835363
156	0x3eda0501	0.42581943
157	0x3ee51a16	0.44746464
158	0xbdb25814	-0.08708206
159	0xbecf286f	-0.40460536
160	0xbe9f6474	-0.31131327
161	0x3df35423	0.11881282
162	0xbc5eb8f2	-0.013593899
163	0x3e445225	0.1917196
164	0xbda30abe	-0.07961033
165	0xbd37ae81	-0.044844154
166	0x3e1e9fd3	0.15490656
167	0xbd586998	-0.052835077
168	0x3b898ceb	0.004197707
169	0xbc945545	-0.018107066
170	0xbbafa23b	-0.0053599156
171	0xbd3505ab	-0.04419486
172	0x3f9c4c11	1.2210714
173	0x404fc384	3.2463083
174	0x3fcd0df1	1.601988
175	0x3d9c542a	0.076332405
176	0x3ff95358	1.947856
177	0x3f8360c8	1.026391
178	0x3eac57d7	0.33660766
179	0x3eae47dd	0.34039202
180	0x3e7488df	0.23880337
181	0xbdb916ec	-0.09037575
182	0x3e2f9842	0.17147925
183	0x3e00bf09	0.12572874
184	0x3e687d86	0.22704133
185	0xbd4e798e	-0.050408892
186	0xbd4b2285	-0.049593467
187	0x3da22a47	0.0791822
188	0xbe7819ac	-0.24228543
189	0x3d77741e	0.060413472
190	0x3f1039b2	0.56338036
191	0x3f8ab4e2	1.0836451
192	0xbd93f2a5	-0.07224015
193	0xbdd2b2c4	-0.10288003
194	0xbf32b30b	-0.6980445
195	0x3f465481	0.7747269
196	0x3d757e45	0.059934873
197	0xbf01fb2b	-0.50773877
198	0xbe9719ca	-0.29511863
199	0x3dd76466	0.10517196
200	0xbe129034	-0.14312822
201	0x3d109219	0.03529558
202	0x3cc0c9eb	0.023533782
203	0x3d85e1d5	0.06537215
204	0x3d6ffbdd	0.058589805
205	0xbe774de8	-0.24150813
206	0x3e295583	0.16536526
207	0xbe4afc91	-0.19822909
208	0x3fab1a99	1.3367492
209	0x3f5912b6	0.84794176
210	0xbfb3c860	-1.4045525
211	0x3d740f62	0.059584983
212	0x3ea7a074	0.32739604
213	0xbddc3c4d	-0.10753689
214	0xbd92f053	-0.071747445
215	0x3e2ba879	0.16763486
216	0xbdd94ae6	-0.10609989
217	0xbe7f7dcd	-0.24950333
218	0xbe147ffb	-0.14501946
219	0x3d1f88de	0.038948886
220	0x3c7134f8	0.014722101
221	0xbe59c00e	-0.2126467
222	0xbb801aad	-0.00390943
223	0x3e28967e	0.16463658
224	0x3df27371	0.11838425
225	0xbdf7725f	-0.120823614
226	0xc0a5c31f	-5.1800685
227	0xc012f62c	-2.2962751
228	0xbf9f6595	-1.2452875
229	0x3f35bc17	0.7099013
230	0xbfdb9905	-1.7156073
231	0x3d29c209	0.041444812
232	0xbf0e1ff6	-0.5551752
233	0x3f4759d3	0.77871436
234	0x3dc41cd3	0.0957581
235	0x3e1982ee	0.14991352
236	0xbe002927	-0.12515698
237	0xbd42dc4a	-0.047573365
238	0xbd009f80	-0.03140211
239	0x3d948766	0.07252388
240	0xbd837fbb	-0.06420847
241	0x3d250e12	0.04029662
242	0xbe4b6188	-0.19861424
243	0x3e21ca4b	0.15799825
244	0x3efa88d0	0.48932505
245	0xbd961ec9	-0.073300906
246	0x3e3db173	0.18524723
247	0xbdc32380	-0.095282555
248	0xbe7d642d	-0.24745245
249	0xbee46c03	-0.44613656
250	0x3e459a1d	0.19297071
251	0x3e32d4cf	0.17463993
252	0x3e8446dd	0.25835314
253	0xbe8e3e27	-0.27781793
254	0x3d1fc491	0.03900582
255	0xbe6211d6	-0.22077116

invertible_encoder.bijectors.0.net.0.bias f4 [256]
0	0x3d33499a	0.043771364
1	0x3e01f7bc	0.1269216
2	0x3cbf4294	0.023347177
3	0x3ceed17f	0.02915263
4	0x3bdbf896	0.0067129834
5	0x3d935ee6	0.07195835
6	0xbe2fe85a	-0.17178479
7	0x3d94fe13	0.07275023
8	0xbe2d1d42	-0.16905692
9	0xbb4e6097	-0.0031490678
10	0xbd077748	-0.03307274
11	0x3d1cf384	0.038318172
12	0xbc8c0e1e	-0.017096575
13	0xbcaf889d	-0.021427447
14	0xbc4c11bf	-0.012455403
15	0xbd9f3c8e	-0.07775222
16	0xbd1eb7d4	-0.03874953
17	0x3d2d59a1	0.042321805
18	0xbd177f31	-0.036986534
19	0xbc3a02a9	-0.011353173
20	0x3c785a81	0.015158297
21	0xbb49bf92	-0.003078435
22	0x3cc409e4	0.023930497
23	0xbda50570	-0.08057678
24	0x3da3f05e	0.08004831
25	0x3d22056a	0.039555945
26	0xbdbd297c	-0.09236428
27	0x3b2112f1	0.002457794
28	0x3dae9160	0.08523822
29	0xbc07ec61	-0.008296103
30	0x3cd3c022	0.025848452
31	0x3cc858c9	0.024456399
32	0xbc1826b1	-0.0092865685
33	0x3c885ad4	0.016644873
34	0x3d1d0f75	0.03834482
35	0x3da1fc64	0.07909468
36	0x3d0040b4	0.031311706
37	0xbc707899	-0.01467719
38	0xbe06e65c	-0.13173813
39	0x3bad089d	0.005280568
40	0xbe14abae	-0.14518616
41	0x3dcb58a6	0.09929018
42	0x3d6e97e5	0.058250327
43	0xbe1488a4	-0.1450525
44	0xbb83a8fc	-0.0040179472
45	0xbad638ca	-0.0016343829
46	0xbe03bff9	-0.128662
47	0x3bd5be5b	0.0065229363
48	0xbc71ecfb	-0.014765973
49	0x3c8e696e	0.017384257
50	0xbd4cfeac	-0.05004756
51	0x3d538365	0.05163898
52	0xbd891a0d	-0.06694422
53	0x3aa043b3	0.0012227207
54	0xbda885e7	-0.08228665
55	0x3da173a9	0.078833885
56	0xbd9502b0	-0.07275903
57	0xbd986900	-0.07441902
58	0xbd816976	-0.06318943
59	0xbdcb7712	-0.0993482
60	0x3c49a930	0.012308404
61	0xbdc58fcf	-0.0964657
62	0x3d8b6e3d	0.06808136
63	0x3bda3940	0.0066596568
64	0xbdda81e4	-0.10669306
65	0xbdc7f7b0	-0.097640395
66	0x3d832303	0.06403162
67	0xbca6d0e9	-0.020363288
68	0xbdc0db0b	-0.09416779
69	0xbdcc5ee7	-0.09979039
70	0x3d611c0c	0.05495839
71	0x3d3c4553	0.04596455
72	0xbd040a05	-0.032236118
73	0xbc8833bb	-0.01662623
74	0xbdb8e90f	-0.090288274
75	0xbccaed86	-0.024771463
76	0xbc266aa0	-0.010157257
77	0xbb260bb3	-0.0025336563
78	0x3dc99b7d	0.0984411
79	0x3cba6eef	0.022757975
80	0xbda2f818	-0.079574764
81	0x3caeb494	0.02132634
82	0x3d42934b	0.04750375
83	0x3d1ab85c	0.037773475
84	0xbd09a32b	-0.033602875
85	0xbbb8261f	-0.0056197788
86	0xbd9a472d	-0.07533107
87	0x3d9de335	0.07709352
88	0x3a23f508	0.0006254469
89	0xbc922c0e	-0.017843273
90	0xbd64b77f	-0.055839058
91	0x3d5effa4	0.054443017
92	0xbc3b57cc	-0.011434507
93	0xbdbf86c9	-0.0935188
94	0xbbd005f3	-0.0063483655
95	0xbd5b02f5	-0.053469617
96	0xbd9e5a4a	-0.07732065
97	0xbddf4c17	-0.10903185
98	0x3c9af92e	0.018917646
99	0x3d1202df	0.03564727
100	0x3b03fe10	0.0020140447
101	0xbd4f9a84	-0.050684467
102	0x3dcc19ff	0.09965896
103	0x3c637a06	0.013884073
104	0x3c78250e	0.015145553
105	0xbcda18ae	-0.026623096
106	0xbd2151b7	-0.03938457
107	0x3d468422	0.048465855
108	0xbccabd29	-0.024748402
109	0xbbc9dfa4	-0.0061606932
110	0x3a41374f	0.00073706073
111	0x3d525cc6	0.051358007
112	0x3c37c53d	0.011216459
113	0xbde47299	-0.1115467
114	0x3c525d24	0.012839589
115	0xbc407756	-0.011747202
116	0xbc9b081b	-0.018924763
117	0x3df91f3b	0.1216416
118	0x3c4b7135	0.012417127
119	0x3d6b0e78	0.057386845
120	0xbc0569a9	-0.008142867
121	0x3d3eb7b3	0.046561908
122	0x3d315970	0.043298185
123	0xbe246c28	-0.16056883
124	0xbd9f0337	-0.07764285
125	0xbc2d5087	-0.010578281
126	0x3c93fb41	0.018064143
127	0x3d219780	0.039451122
128	0x3b836fff	0.0040111537
129	0x3d1278b1	0.03575963
130	0xbc8a1304	-0.01685477
131	0x3d24b064	0.04020728
132	0xbcf86342	-0.030320767
133	0xbdf979ac	-0.1218141
134	0xbd37a24d	-0.044832516
135	0xbbe7fc35	-0.007079626
136	0x3d816626	0.063183114
137	0x3d37fb2a	0.044917263
138	0x3bd88e71	0.006608777
139	0x3d51bdbc	0.051206335
140	0x3d9787f7	0.0739898
141	0xbd6cbb99	-0.057796095
142	0xbd8cc4e5	-0.06873492
143	0x3d039563	0.03212489
144	0x3bb58e7e	0.005540668
145	0xbd1d2e65	-0.038374323
146	0x3c333090	0.010936871
147	0xbc5c4000	-0.013442993
148	0xbce1c021	-0.027557435
149	0xbd943718	-0.07237071
150	0xbd0df115	-0.034653742
151	0xbe3572a3	-0.17719512
152	0xbcc54c42	-0.024084214
153	0x3ce413df	0.027841507
154	0xbb4a9a91	-0.0030914883
155	0x3d3ecbc5	0.04658105
156	0xbd55c5bb	-0.052190524
157	0x3c6af9b1	0.014341758
158	0xbde293ba	-0.11063333
159	0xbd22bc42	-0.039730318
160	0x3d21935e	0.03944718
161	0xbd5c5af8	-0.053797692
162	0xbceb8427	-0.028749539
163	0xbc6fc66d	-0.014634711
164	0xbd88da0c	-0.06682214
165	0x3cbcf063	0.023063844
166	0xbc9fd645	-0.019511351
167	0xbd3c410f	-0.045960482
168	0xbe079a69	-0.13242497
169	0x3cdc935c	0.026925735
170	0xbd293c84	-0.041317478
171	0x3d64eda3	0.05589069
172	0x3cf970ba	0.03044926
173	0x3bdcc4c2	0.0067373225
174	0x3c2dff93	0.010620016
175	0xbe0f16cd	-0.13973542
176	0x3be55b0a	0.006999378
177	0xbe262ae5	-0.162273
178	0xbdf14a8a	-0.11781795
179	0x3d51ba6f	0.051203188
180	0x3cd2548d	0.025675083
181	0xbe143ecd	-0.14477082
182	0x3d001a97	0.031275358
183	0x3d222fd2	0.039596386
184	0x3ab504a9	0.0013810593
185	0x3c91be7d	0.017791027
186	0xbd1e689a	-0.038673975
187	0x3bf9f230	0.007627748
188	0xbd5dff67	-0.05419865
189	0x3da297bd	0.07939098
190	0xbcde693f	-0.027149795
191	0xbbfbfc89	-0.0076900166
192	0xbc65ca75	-0.01402532
193	0x3bde735b	0.006788654
194	0xbdffd64f	-0.12492048
195	0xbcc53b5e	-0.02407616
196	0xbc489ec6	-0.012244886
197	0x3cf81f44	0.030288346
198	0xbc859220	-0.01630503
199	0xbdfedf4b	-0.124449335
200	0xbd0bec4f	-0.03416091
201	0xbcbd222c	-0.023087583
202	0xbe5d2efe	-0.21599957
203	0x3d28e14b	0.04123048
204	0x3d0ad904	0.03389837
205	0xbc68294c	-0.014170002
206	0x3d4a8d68	0.04945126
207	0x3dc13b3a	0.09435125
208	0x3d88168a	0.06644924
209	0xbd663224	-0.05620016
210	0x3bf056f9	0.0073345867
211	0x3c8a9696	0.016917508
212	0xbe288e09	-0.16460432
213	0x3d398723	0.045294892
214	0xbb35b2e8	-0.0027725045
215	0x3e22bf76	0.15893349
216	0x3dee5f37	0.116392545
217	0xbc4dfcd3	-0.012572485
218	0xbd95b041	-0.073090084
219	0x3d3d0edb	0.046156745
220	0xbd8a7a24	-0.06761578
221	0xbd258390	-0.04040867
222	0xbd585f09	-0.052825008
223	0x3d1ad00e	0.037796073
224	0xbd59b023	-0.053146493
225	0xb9f51f74	-0.00046753476
226	0x3e021394	0.12702781
227	0x3d498cc3	0.049206506
228	0xbda20c6f	-0.07912528
229	0xbdd2753a	-0.102762654
230	0xbd282799	-0.04105339
231	0x3d8fca81	0.070210464
232	0x3db266d8	0.08711022
233	0xbd18327d	-0.037157524
234	0xbc610035	-0.0137329595
235	0xbd83fdb4	-0.064448744
236	0x3d977540	0.073954105
237	0xbcb18359	-0.021669077
238	0x3bd4082c	0.0064707007
239	0xbd470622	-0.048589833
240	0xbcd467c0	-0.025928378
241	0x3ce34b06	0.027745735
242	0xbcfb723a	-0.030694116
243	0xbb1e8bc4	-0.0024192194
244	0xbd88a04b	-0.066711985
245	0xbcd34b87	-0.02579285
246	0xbd08388e	-0.03325706
247	0x3cdbd844	0.026836522
248	0xbe678d4a	-0.22612491
249	0xbcbbc0e3	-0.022919124
250	0xbd973010	-0.07382214
251	0x3cf0a7f9	0.02937697
252	0xbcc211b7	-0.023690088
253	0x3c7e8462	0.015534492
254	0x3e226b05	0.15861137
255	0x3bdc1cff	0.006717324

invertible_encoder.bijectors.0.net.2.weight f4 [18, 256]
0	0xbbe976b6	-0.007124747
1	0xbc60eef0	-0.013728842
2	0x3d23eafa	0.040019013
3	0x3ae3a1ad	0.0017366909
4	0xbb056e5c	-0.0020359969
5	0x3b55d372	0.0032627252
6	0x3c573258	0.0131345615
7	0x3bd51ecb	0.006503915
8	0xbb637aac	-0.003471057
9	0x3c4b8225	0.012421166
10	0x3c391818	0.011297248
11	0x3b3f4c3a	0.0029189722
12	0x3c953281	0.018212559
13	0xbbee8d90	-0.007280059
14	0xbcfffdba	-0.031248916
15	0xbda56988	-0.08076769
16	0xbcb60427	-0.022218777
17	0xbc0315b1	-0.008000777
18	0x3bc5ddd7	0.0060384083
19	0x3bbaab5c	0.005696697
20	0x3cae34ba	0.021265376
21	0xbacd7567	-0.0015675247
22	0x3c20ac88	0.00980676
23	0xbc46bae4	-0.012129519
24	0xbcbcfb88	-0.023069158
25	0xbc16e16f	-0.009209021
26	0xba3975f7	-0.0007074768
27	0x3c2f491f	0.010698586
28	0xbbc292b3	-0.005937898
29	0x3bc3370c	0.00595749
30	0x3cd5c882	0.026096586
31	0x3dc0435e	0.09387849
32	0x3c4a930d	0.012364161
33	0xbc9cf7fc	-0.019161217
34	0xbc4958a4	-0.0122892
35	0x3b81b767	0.003958631
36	0x3b9908b0	0.004670225
37	0x3d58d7dc	0.052940235
38	0xbc9f6e61	-0.019461812
39	0xbd795ca2	-0.060879357
40	0xbc8309e5	-0.015995929
41	0xbb50841d	-0.0031817027
42	0xba43667d	-0.00074539316
43	0x3bb6cbae	0.0055784797
44	0xbb304796	-0.0026898137
45	0x3bbf31d5	0.005834798
46	0x3d24d50e	0.040242247
47	0x38eb29d7	0.000112134665
48	0xbbc81508	-0.0061060227
49	0x3b72759c	0.003699637
50	0x3cac0b1c	0.021001391
51	0xbb3b7b29	-0.0028607345
52	0xbc92b27f	-0.01790738
53	0x3c2e1941	0.010626138
54	0xbbacf1de	-0.0052778563
55	0x3cc52f08	0.024070278
56	0x3cd925f4	0.026507355
57	0xbd08a717	-0.033362474
58	0x3b387d23	0.002815076
59	0xbc8aa6df	-0.016925273
60	0x3c6f6fbd	0.014614043
61	0xbd038cc0	-0.03211665
62	0xbbf3fadc	-0.0074456763
63	0x3c2a8ec7	0.010410017
64	0xbd085e56	-0.03329309
65	0xba8be35d	-0.0010672618
66	0x3c2f59f1	0.010702596
67	0x3c7963fa	0.01522159
68	0x3c865f6d	0.016402924
69	0xbd057de3	-0.032590758
70	0xbbf27cb1	-0.0074001183
71	0xbcc1343a	-0.023584474
72	0xbd91ada7	-0.071132
73	0xbb78c1e9	-0.0037957376
74	0x3bb49389	0.0055107516
75	0xbbfe529c	-0.0077613126
76	0x3d6927f8	0.056922883
77	0xbda49f6e	-0.08038221
78	0x3b8d92d5	0.0043204823
79	0x3d0bf7ec	0.034171984
80	0x3ce3ae98	0.027793214
81	0xbc6297bd	-0.013830123
82	0x3b20f756	0.0024561486
83	0xb910733a	-0.00013775835
84	0xbbfa2540	-0.007633835
85	0xbc170421	-0.009217293
86	0x3d3c71c2	0.046006925
87	0x3c00d0a1	0.007862241
88	0xbaeedb9f	-0.0018223411
89	0xbb752716	-0.003740733
90	0x3b2268d0	0.0024781711
91	0xbbe8db79	-0.0071062413
92	0x3c053dfd	0.008132455
93	0xbcee8b15	-0.029119054
94	0xbd06c3c7	-0.03290155
95	0xbd0ac947	-0.03388336
96	0x3a487c77	0.0007647941
97	0x3af23c43	0.0018481094
98	0x3bd8f8f4	0.0066214744
99	0x3bd92b6c	0.0066274907
100	0xbcc53959	-0.024075197
101	0xbc272930	-0.010202691
102	0xbcb2b868	-0.021816447
103	0xbcdda903	-0.02705813
104	0x3d844383	0.06458189
105	0xbcd6ce36	-0.026221376
106	0x3b0fb35a	0.002192697
107	0x3bfd2eaf	0.0077265124
108	0xbb1d3157	-0.0023985708
109	0xbbeccb5b	-0.0072263903
110	0xbcc357ea	-0.023845632
111	0xbc328536	-0.010896018
112	0xbbf3cdb8	-0.007440295
113	0x3d0f6e5e	0.035017364
114	0x3d5bf866	0.053703688
115	0xbc5953cc	-0.013264608
116	0x3c0d0a45	0.0086084055
117	0x3b302a5a	0.0026880712
118	0x39c7d432	0.00038114336
119	0x3b4ed740	0.0031561404
120	0xbd9475b8	-0.072490156
121	0xbc0a8ffe	-0.008457182
122	0x3b1599e6	0.0022827326
123	0xbc1a94cc	-0.00943489
124	0xbc16769e	-0.009183554
125	0xbbef8ad1	-0.0073102494
126	0x3d31042f	0.04321688
127	0x3c156353	0.009117919
128	0xbc0964e2	-0.008385869
129	0x3b172ed1	0.0023068676
130	0xbc28956f	-0.010289534
131	0x3bd8a66e	0.006611637
132	0x3bcb75b3	0.006209099
133	0xbc5d9366	-0.013523912
134	0xbcf56e33	-0.029959774
135	0xbc8d51c3	-0.017250901
136	0xbba311ec	-0.0049765017
137	0xb9184aef	-0.00014523765
138	0x3c29780b	0.010343562
139	0x3d130801	0.035896305
140	0x3c5a5524	0.013325963
141	0xbc95e3aa	-0.018297035
142	0xbb97c4e1	-0.004631624
143	0x3cade7e1	0.021228733
144	0xbc20283e	-0.0097752195
145	0x3b2b80c8	0.002616929
146	0xbc226463	-0.009911629
147	0x3a504ebd	0.0007946303
148	0xbb7ff068	-0.0039053205
149	0xbbc6e34b	-0.006069576
150	0x3d8cd308	0.068761885
151	0x3ca21e09	0.019789713
152	0x3c51a8b3	0.012796569
153	0xbc668fbf	-0.014072358
154	0x3d07149e	0.032978646
155	0x3ca334dc	0.019922666
156	0x3b7dfb43	0.00387545
157	0x3d1ee0a9	0.03878847
158	0x3cf788e4	0.030216642
159	0x3c8a408c	0.016876481
160	0x3d0f8331	0.035037223
161	0xbd19d388	-0.037555248
162	0x3b98cce8	0.0046630986
163	0x3b3735f2	0.0027955738
164	0x3c107afe	0.008818386
165	0xbd8bb646	-0.06821875
166	0x3b3ffd0d	0.0029295117
167	0x3a9d0833	0.0011980593
168	0xbcbf8a8e	-0.023381498
169	0xbbe43ac7	-0.0069650146
170	0xbb3725d7	-0.0027946138
171	0x3c3a4a45	0.011370246
172	0x3c5e5838	0.013570838
173	0x3cb01d02	0.021498207
174	0x3d368bb4	0.044566825
175	0xbaf5fac6	-0.0018766753
176	0x3bb7a185	0.0056039714
177	0x3bbfdbe3	0.00585507
178	0x3cd58186	0.026062738
179	0x3b5dc966	0.0033841967
180	0x3cc69e79	0.024245488
181	0xbc405652	-0.01173933
182	0x3aac6240	0.0013151839
183	0x3cf2694a	0.029591221
184	0xbc8b2c2f	-0.016988842
185	0x3be4a363	0.006977485
186	0x3cd6f288	0.026238695
187	0x3ccd9f43	0.025100356
188	0x3beb0663	0.007172392
189	0x3c1f5d5f	0.009726851
190	0xbc0245dd	-0.007951227
191	0xbc05358e	-0.008130444
192	0xbba3edbd	-0.005002706
193	0xbb86ec0e	-0.0041174954
194	0xbccfa088	-0.025345102
195	0xbc8eeec3	-0.017447835
196	0x3a0a87ac	0.0005284499
197	0x3bcd04d1	0.0062566777
198	0x3c1e85a0	0.009675413
199	0x3e02b4c8	0.12764275
200	0xbd5c704e	-0.05381804
201	0xbc1794dd	-0.0092518
202	0x39ea2ce8	0.00044665416
203	0x3b4857a1	0.003056981
204	0xbbeb6648	-0.0071838237
205	0xbbf6ce00	-0.0075318813
206	0x398410c8	0.00025189505
207	0xbcde4858	-0.027134106
208	0xbd1f0810	-0.03882605
209	0xba169287	-0.000574388
210	0x3bf4e2f6	0.007473345
211	0x3c95bf2b	0.018279633
212	0x3c590a38	0.013247065
213	0x3a800b82	0.0009769055
214	0x3b8336ed	0.0040043504
215	0xbb0c7301	-0.0021430852
216	0x3c76a650	0.0150543
217	0x3baf2e0a	0.0053460645
218	0xbb863362	-0.004095481
219	0xbb8af56d	-0.004240683
220	0xbbc28652	-0.0059364224
221	0xbbde34a1	-0.006781176
222	0x3d8eaded	0.069667675
223	0xbbcaf9db	-0.006194336
224	0x3d344e76	0.04402014
225	0xbae0bafe	-0.0017145572
226	0xbcb2d342	-0.021829251
227	0xbc1615f6	-0.009160509
228	0xbce4098a	-0.02783658
229	0x3c19d0f9	0.009388202
230	0xbc468771	-0.012117253
231	0x3bd392be	0.006456702
232	0x3bfff89d	0.0078116194
233	0x3da7a51c	0.08185789
234	0x3b0532c6	0.0020324453
235	0x3c2d29d4	0.010569055
236	0xbc5bfd92	-0.013427155
237	0x3c845928	0.016155794
238	0xbd47431e	-0.048647992
239	0xbb8800a4	-0.004150467
240	0xbc9210e3	-0.017830318
241	0x3ba5388c	0.0050421413
242	0x3c9b3b57	0.018949194
243	0x3d1475fe	0.03624534
244	0xbb70df44	-0.003675417
245	0x3cb854e7	0.022501422
246	0x3af0cc96	0.0018371518
247	0x3de12a16	0.109943554
248	0x3dbca9ae	0.09212051
249	0x3c29368d	0.010327947
250	0xbba08a28	-0.004899282
251	0xbc3f0fa6	-0.011661446
252	0x3c490d1e	0.012271194
253	0xbc171039	-0.009220176
254	0xbd262b1e	-0.040568464
255	0xbcbc844d	-0.023012305

invertible_encoder.bijectors.0.net.2.bias f4 [18]
0	0xbce5cd13	-0.028051889
1	0xbd64d0eb	-0.055863302
2	0xbbb2ce90	-0.005456753
3	0xbc6d78f7	-0.014494172
4	0xbab1c66e	-0.0013563165
5	0xbbf5d311	-0.0075019677
6	0xbc50b111	-0.012737528
7	0x3bd99aee	0.0066407835
8	0xbc470628	-0.012147464
9	0xb9c64aeb	-0.0003782132
10	0xbc81d89e	-0.015850361
11	0xbb9e0a42	-0.004823
12	0x3c74e204	0.014946464
13	0x39ecf136	0.00045193144
14	0x3d2c88f1	0.042122785
15	0xbcc7059b	-0.024294665
16	0x3c7107bc	0.014711317
17	0xbc221020	-0.00989154

invertible_encoder.bijectors.1.net.0.weight f4 [256, 18]
0	0xbe773851	-0.24142577
1	0x3d6379cf	0.055536088
2	0xbedb3f48	-0.42821717
3	0x3d1470c1	0.036240343
4	0xbf07ac70	-0.52997494
5	0x3ce7d5d9	0.028300213
6	0x3e8f9213	0.28041133
7	0x3e8c35f7	0.27384922
8	0x3ddf70fc	0.10910222
9	0xbe1aead0	-0.15128636
10	0x3e94ef9b	0.29089054
11	0x3da8a1ab	0.08233961
12	0x3df9948a	0.12186535
13	0x3dfba94c	0.1228815
14	0xbe2de6f8	-0.16982639
15	0x3e937c58	0.28805804
16	0xbdde972f	-0.1086868
17	0xbc156a09	-0.009119519
18	0xbeab7015	-0.3348395
19	0xbe8baf1e	-0.2728204
20	0x3e2189c1	0.15775205
21	0xbdd21824	-0.10258511
22	0xbd70325e	-0.058641784
23	0xbe6de4e0	-0.2323184
24	0x3d5769f1	0.052591268
25	0xbd7b6613	-0.061376642
26	0x3d9f0285	0.077641524
27	0xbde7339d	-0.11289141
28	0xbe64d29c	-0.22345966
29	0x3e0f9f33	0.14025573
30	0x3cde2f62	0.027122203
31	0x3e3491b6	0.1763371
32	0xbd5cfbaf	-0.05395096
33	0x3d1b7d3f	0.03796124
34	0xbd991ee2	-0.074765936
35	0xbdca980d	-0.09892283
36	0x3f3f20bd	0.7465933
37	0x3e51c8b6	0.20486721
38	0x3df696e3	0.12040498
39	0x3d771678	0.060324162
40	0xbd81fb7e	-0.063467965
41	0xbe35b307	-0.17744075
42	0xbf017337	-0.5056643
43	0x3dea48ca	0.11439665
44	0xbd80ee6b	-0.062954746
45	0xbe02b77b	-0.12765305
46	0x3e11b0ed	0.14227648
47	0xbea42e10	-0.32066393
48	0x3e1149fa	0.14188376
49	0x3c3cc9cd	0.011522722
50	0x3e4b4126	0.19849071
51	0xbe7fb106	-0.24969873
52	0x3e37f9a2	0.17966321
53	0x3ec4ed61	0.38462356
54	0x3e2b8aa8	0.16752112
55	0xbe5f70b5	-0.21820338
56	0x3ec8b152	0.39197785
57	0xbe1d52d5	-0.15363629
58	0x3e7f2f96	0.24920496
59	0x3e6a10e0	0.22858
60	0x3c750aa4	0.01495615
61	0xbdfda157	-0.12384289
62	0x3e836c59	0.256686
63	0xbe83e36b	-0.25759444
64	0xbec7b0e2	-0.39002138
65	0xbe34c645	-0.17653759
66	0xbdd93986	-0.10606675
67	0xbdb623c2	-0.08893539
68	0x3e4024cd	0.18764038
69	0x3e456f36	0.19280705
70	0xbe815cdb	-0.25266156
71	0xbeab0fce	-0.33410496
72	0xbda003e2	-0.078132406
73	0x3e08a0df	0.13342617
74	0xbbaecfe5	-0.0053348416
75	0xbdd0cf27	-0.10195761
76	0x3e22bf5c	0.1589331
77	0xbd78f5ad	-0.06078117
78	0xbcf2b717	-0.02962832
79	0x3bc80a97	0.006104778
80	0xbdbcd07f	-0.09219455
81	0xbc18a81d	-0.009317425
82	0x3ddf3a03	0.10899737
83	0x3e00f4fb	0.12593453
84	0x3e3147ae	0.173125
85	0x3ec257d1	0.37957624
86	0x3eac39fe	0.33637995
87	0x3d4fe4f4	0.050755456
88	0x3e1ad9ab	0.15122096
89	0x3f0c529d	0.5481356
90	0x3ed8cd04	0.42343915
91	0xbeb35554	-0.35026038
92	0x3d9ea3e5	0.07746104
93	0xbe33d202	-0.1756058
94	0x3eb3f8b8	0.35150695
95	0x3a241913	0.000625984
96	0xbf1cf3c6	-0.6130947
97	0xbe980cd5	-0.2969729
98	0xbe29bcdb	-0.16575949
99	0xbde870b8	-0.113496244
100	0xbd1d0e38	-0.03834364
101	0xbd4b3fde	-0.049621455
102	0xbe63f1fd	-0.2226028
103	0x3e9ad68b	0.30241808
104	0xbe735032	-0.23761061
105	0xbe3bd1a9	-0.18341698
106	0x3e27ed13	0.1639903
107	0x3d84b535	0.06479875
108	0x3e2155a6	0.15755329
109	0xbe3d2ca9	-0.18474068
110	0x3eca9920	0.3956995
111	0xbf0594df	-0.52180284
112	0xbdf701c0	-0.12060881
113	0x3e46e65c	0.19423813
114	0xbd7e64b6	-0.062107764
115	0xbd8d179c	-0.06889269
116	0xbe977f3c	-0.2958926
117	0x3e48c5fc	0.19606775
118	0xbeab1bbf	-0.33419606
119	0x3e3dbba5	0.18528612
120	0x3f0ea94e	0.5572709
121	0xbe8dcaab	-0.27693686
122	0x3e16b51c	0.14717525
123	0xbd0e4fb5	-0.034743983
124	0x3ea053d1	0.31313947
125	0xbdbed1ff	-0.09317397
126	0xbdd3286d	-0.10310445
127	0x3bf77955	0.0075523057
128	0x3e1fd4e2	0.15608552
129	0x3e2652e8	0.16242564
130	0xbe9b6021	-0.30346778
131	0x3f099d7d	0.53755933
132	0xbe7672aa	-0.24067178
133	0x3ea072a5	0.31337467
134	0x3c6a4bd6	0.014300307
135	0x3cd9b67b	0.026576271
136	0x3ded6495	0.1159145
137	0x3ec42eed	0.38317052
138	0x3dac80de	0.08423017
139	0xbf866a15	-1.0501124
140	0x3d34004a	0.04394559
141	0x3e118d64	0.14214092
142	0xbeb666f8	-0.35625434
143	0xbe736e9e	-0.23772666
144	0xbe73220f	-0.23743461
145	0x3e261e41	0.16222478
146	0xbe862639	-0.26201037
147	0xbe6b77b2	-0.22994879
148	0xbed99924	-0.4249965
149	0xbdaa323c	-0.08310363
150	0xbdb444d2	-0.08802189
151	0x3ea13412	0.3148504
152	0xbdeb1b7b	-0.11479851
153	0xbe62b285	-0.22138412
154	0xbe7a6416	-0.24452242
155	0xbd9be432	-0.07611884
156	0x3e98009a	0.2968796
157	0x3e4056bf	0.18783091
158	0xbdb5d721	-0.08878923
159	0xbd4d9980	-0.050195217
160	0x3dd3f875	0.10350124
161	0xbe038e39	-0.12847222
162	0x3e8f681b	0.28009114
163	0x3e459148	0.19293702
164	0x3ea325fb	0.31864914
165	0x3e2198a7	0.15780888
166	0xbf4c6420	-0.7984028
167	0xbd713c38	-0.05889532
168	0xbe9e390f	-0.30902907
169	0x3e51704f	0.20452999
170	0x3e9c91d5	0.3058001
171	0xbc2b6f78	-0.010463588
172	0xbc6592fe	-0.014012096
173	0xbf010371	-0.50395876
174	0x3d995674	0.07487193
175	0x3d8fac10	0.0701524
176	0xbda475f6	-0.08030312
177	0xbdf400d2	-0.11914219
178	0x3ecbcd48	0.39805055
179	0x3d03a750	0.032141984
180	0x3e6b2c65	0.22966154
181	0x3df7b52a	0.12095101
182	0xbd453562	-0.048146613
183	0xbeae51b8	-0.3404672
184	0xbd6df930	-0.05809897
185	0xbe25e59e	-0.16200873
186	0xbe89df62	-0.2692824
187	0x3d4b1a09	0.049585376
188	0xbe482698	-0.19545972
189	0xbdbb5a9e	-0.09148143
190	0x3e0033d9	0.12519778
191	0x3db4eff9	0.08834834
192	0x3e0ff0f4	0.1405676
193	0x3e895e7a	0.26829892
194	0xbe11296c	-0.14175957
195	0xbd178303	-0.036990177
196	0x3ea16ba9	0.3152745
197	0xbe80e3df	-0.25173852
198	0xbef2ac1a	-0.47396928
199	0xbe3614cb	-0.1778137
200	0x3df342d1	0.118779786
201	0xbe949b2e	-0.29024643
202	0xbebd95f1	-0.3702846
203	0xbed746c5	-0.4204618
204	0xbea208b6	-0.3164727
205	0xbd2e8b5c	-0.042613372
206	0x3e90349a	0.28165132
207	0xbea2704b	-0.31726298
208	0x3ebef269	0.3729432
209	0x3e369917	0.17831837
210	0x3e028d8f	0.12749313
211	0x3ea6be63	0.3256713
212	0x3ec553ad	0.38540402
213	0x3cba9e9d	0.02278071
214	0x3ee95859	0.45575216
215	0x3e94b1b8	0.2904184
216	0xbe022483	-0.1270924
217	0x3d95d6d9	0.073163696
218	0xbdff1771	-0.12455643
219	0xbe85e811	-0.26153615
220	0x3d951d41	0.0728097
221	0xbe0382a1	-0.128428
222	0x3d026a0a	0.031839408
223	0x3de3e0c6	0.111268565
224	0xbda5dda5	-0.08098916
225	0x3e6ae212	0.22937801
226	0x3e4c53b9	0.19953813
227	0x3e190009	0.1494142
228	0xbd41caed	-0.047312666
229	0x3e3d64bf	0.18495463
230	0x3dfb0ac9	0.122579165
231	0xbe3ddde5	-0.18541677
232	0xbd0c3a8a	-0.034235515
233	0xbe04bf09	-0.12963499
234	0x3c107124	0.008816037
235	0x3e965436	0.29361123
236	0xbe8023dd	-0.25027362
237	0x3e63b6fb	0.2223777
238	0xbddcbe41	-0.107784756
239	0xbaf3e593	-0.0018607847
240	0x3f3ec47e	0.74518573
241	0x3ec0cd7b	0.3765677
242	0x3d03a1de	0.03213679
243	0x3ea980c6	0.3310606
244	0xbd4368c6	-0.04770734
245	0xbe1cc26b	-0.1530854
246	0xbda76573	-0.08173647
247	0x3da405f1	0.08008946
248	0xbda02d3f	-0.0782113
249	0x3e3c6260	0.18396902
250	0x3e1514ae	0.1455867
251	0xbcb18593	-0.021670138
252	0xbd97112f	-0.073763244
253	0x3ef93ad1	0.48677686
254	0x3d067042	0.0328219
255	0x3d8997b6	0.0671839

invertible_encoder.bijectors.1.net.0.bias f4 [256]
0	0xbd834e82	-0.064114586
1	0xbda48b36	-0.08034365
2	0xbb6658e4	-0.0035148198
3	0xbd0615bf	-0.032735582
4	0xbd34c0ae	-0.044129066
5	0xbc8e4d57	-0.017370863
6	0xbcc0b1a7	-0.023522211
7	0xbca0b48a	-0.019617338
8	0xbc81bd7b	-0.015837422
9	0xbcd66cb5	-0.026174882
10	0x3c67eb78	0.014155261
11	0xbd9c9fe0	-0.07647681
12	0xbca5a781	-0.020221474
13	0xbc13ad4f	-0.009013488
14	0x3d8d2d77	0.06893437
15	0xbccd14aa	-0.025034267
16	0xbd71750f	-0.058949526
17	0x3ccde448	0.025133267
18	0xbd95895f	-0.07301592
19	0xbbbd2832	-0.005772614
20	0xbe0cc8a1	-0.13748409
21	0x3d8da7b0	0.069167495
22	0x3d023086	0.031784557
23	0x3d7d24f0	0.061802804
24	0xbc949e81	-0.018141987
25	0x3d353644	0.044241205
26	0xbc85b1a1	-0.016320052
27	0x3d210e37	0.039320197
28	0xbcf0860e	-0.029360797
29	0xbd5e1cf8	-0.054226846
30	0xbdab228f	-0.08356201
31	0xbd9c1718	-0.07621592
32	0x393706c3	0.00017454759
33	0xbcf190de	-0.029488023
34	0x3cb3d136	0.021950345
35	0xbd5ab75b	-0.053397518
36	0xbd6cb02a	-0.05778519
37	0xbda9f3ea	-0.08298476
38	0xbb15fb20	-0.0022885278
39	0x3d8101a0	0.06299138
40	0xbc54603c	-0.012962397
41	0xbcef1e25	-0.029189179
42	0x3d2f0c7c	0.042736515
43	0x3a5797e2	0.00082242314
44	0xbd18c643	-0.037298452
45	0xbd7dd2a5	-0.061968464
46	0xbc683b2b	-0.014174263
47	0x3c23095e	0.009950964
48	0xbb12fd42	-0.0022428785
49	0x3d06538e	0.032794528
50	0xbcb52b93	-0.022115504
51	0x3d1a3233	0.03764553
52	0x3c0a12a8	0.0084273
53	0xbd529ff6	-0.051422082
54	0xbbe6cd23	-0.007043497
55	0xbcf3ea38	-0.02977477
56	0x3c33b269	0.010967829
57	0xbbad233c	-0.0052837413
58	0x3cdf3b5f	0.02724999
59	0xbc116b02	-0.00887561
60	0xbc3c1492	-0.011479514
61	0xbd807210	-0.06271756
62	0xbc16b111	-0.009197489
63	0x3ce2b34f	0.027673392
64	0xbd1e7200	-0.038682938
65	0xbd96936d	-0.07352338
66	0xbc927f97	-0.017883105
67	0xbc8c74fb	-0.017145624
68	0x3bf1996a	0.0073730247
69	0x3cbe08cc	0.023197554
70	0x3d0df168	0.03465405
71	0x3d779945	0.060448904
72	0xbdedeab2	-0.1161703
73	0x3c0b4a27	0.008501566
74	0xbdd55f3f	-0.104185574
75	0xbdd2ca6f	-0.102925174
76	0x3d1abeb7	0.037779536
77	0x3c94c1f6	0.018158894
78	0x3d2bdbc3	0.041957628
79	0x3d996f69	0.07491953
80	0xbb82462c	-0.0039756503
81	0x3d80a41f	0.062813036
82	0x3d227897	0.039665785
83	0xbcd3a600	-0.02583599
84	0xbd0e381a	-0.03472147
85	0xbc3f3f7b	-0.01167285
86	0x3d002874	0.03128858
87	0x3cf0f80d	0.029415155
88	0xbd14edda	-0.036359645
89	0xbd982288	-0.07428461
90	0xbd8bcb11	-0.06825841
91	0x3cb8e21d	0.022568757
92	0x3d2f83c3	0.042850267
93	0xbd089b1e	-0.033351056
94	0x3d63f4b8	0.055653304
95	0xbd7c13ec	-0.061542436
96	0x3bbd4d4b	0.0057770363
97	0xbd285a11	-0.04110152
98	0x3c34a067	0.011024571
99	0x3d0bfb16	0.034175
100	0xbccf3631	-0.025294395
101	0x3d5cc657	0.05390009
102	0x3ba17705	0.0049275183
103	0x3d0eb5f5	0.034841496
104	0x3cb04b33	0.021520233
105	0x3d228210	0.03967482
106	0xbd11ecac	-0.0356261
107	0xbd947536	-0.07248919
108	0xbd0ca0bf	-0.034332987
109	0xbb4c8717	-0.003120845
110	0xbe1c5066	-0.15265045
111	0x3c9141c3	0.017731553
112	0x3cf2ff3b	0.029662719
113	0x3c5f1430	0.013615653
114	0xbd85d937	-0.06535571
115	0xbdb0b022	-0.08627345
116	0xbd79ff0d	-0.06103425
117	0x3cbc51a7	0.022988154
118	0xbd326dea	-0.043561853
119	0xbd57dc41	-0.052700285
120	0x3c7ae0aa	0.015312353
121	0x3cdd1d61	0.026991548
122	0xbdb3b779	-0.08775229
123	0x3de33ffb	0.11096188
124	0x3bd7fe67	0.0065916064
125	0xbd02b95a	-0.031915046
126	0x3c008f4d	0.007846666
127	0xbd028960	-0.031869292
128	0x3d3f8b56	0.04676374
129	0x3c30379f	0.010755449
130	0xbd732f46	-0.059371255
131	0x3d7aedbd	0.06126188
132	0xbce2957f	-0.027659176
133	0x3ad2033c	0.0016022692
134	0x3cb61b38	0.022229776
135	0xbd81ef46	-0.06344466
136	0xbd4e769e	-0.05040609
137	0xbd35dd6c	-0.044400617
138	0x3d8c4787	0.0684958
139	0x3c6bcf6d	0.014392716
140	0x3c8c4e56	0.017127197
141	0xbcba7869	-0.022762494
142	0x3cb7c4ae	0.022432651
143	0xbcbb24f0	-0.022844762
144	0xbd452b74	-0.048137143
145	0xbb523899	-0.0032077192
146	0x3cf659b5	0.030072073
147	0xbd15d4b3	-0.0365798
148	0x3d49b41b	0.049244028
149	0xbcde664c	-0.027148388
150	0xbd8c0b4a	-0.06838091
151	0xbd39c637	-0.045355048
152	0x3d96c6f3	0.07362165
153	0x3c74910f	0.014927163
154	0x3d2fec92	0.04295022
155	0x3ca3e1d1	0.020005139
156	0xbd75b8fb	-0.059990864
157	0xbc93a44b	-0.018022677
158	0x3b007834	0.0019602897
159	0xbd453944	-0.048150316
160	0xbd709b65	-0.058741946
161	0x3d19d189	0.037553344
162	0xbd8d6c00	-0.06905365
163	0x3b5cef38	0.0033711921
164	0x3d28f01a	0.041244604
165	0x3d01c65d	0.031683315
166	0x3b87be61	0.004142568
167	0x3d5be8e6	0.053688906
168	0x3c9b725e	0.018975433
169	0xbcfd5481	-0.030924084
170	0x3d724cb2	0.059155174
171	0x3d4fbdb5	0.050718028
172	0xbd1a5059	-0.03767428
173	0xbd21ad22	-0.039471753
174	0x3d4b4bb4	0.049632743
175	0xbcda046f	-0.026613442
176	0xbd295687	-0.041342285
177	0x3d2853a7	0.041095402
178	0xbcbc4570	-0.02298233
179	0xbd210f1c	-0.03932105
180	0xbd055343	-0.032550108
181	0xbd9e296b	-0.077227436
182	0x3d55db37	0.052211013
183	0x3d422d48	0.047406465
184	0xbaa19311	-0.0012327154
185	0xbc9caa6e	-0.019124236
186	0x3b821cb9	0.003970709
187	0x3c7a646e	0.015282733
188	0xbb89404c	-0.004188573
189	0x3bb80675	0.005616004
190	0xbc936bea	-0.017995793
191	0xbd10708d	-0.035263587
192	0x3b6e0a8d	0.0036322207
193	0xbca028bb	-0.019550672
194	0x3d025cd6	0.031826816
195	0xbd35dddb	-0.04440103
196	0x3c643ac0	0.013930023
197	0xbca88090	-0.020569116
198	0x3a2ad908	0.00065173255
199	0xbd57291a	-0.052529432
200	0xbd2df215	-0.042467196
201	0x3d061b46	0.032740854
202	0xbcdb2a15	-0.026753465
203	0x3ced1609	0.028941171
204	0xbd0ddf1f	-0.034636613
205	0xbbdf0f1c	-0.006807221
206	0xbda56024	-0.08074978
207	0x3bc3974d	0.005968964
208	0x3c3495fb	0.011022086
209	0x3d091d59	0.033475254
210	0x3d1e498c	0.03864436
211	0xbda08846	-0.07838492
212	0x3da3dcff	0.08001136
213	0xbd60acd4	-0.05485232
214	0xbd0453c2	-0.03230644
215	0xbd2f10b5	-0.042740542
216	0xbd5cffea	-0.053954996
217	0x3d137c21	0.03600705
218	0x3d053491	0.032520834
219	0x3d01a0b5	0.031647403
220	0xbcc47a8c	-0.023984216
221	0x3d20b9b1	0.03923959
222	0x3cfff252	0.031243477
223	0xbc95171c	-0.018199496
224	0x3c991dee	0.01869103
225	0x3c9c3796	0.019069474
226	0xbc942154	-0.018082298
227	0x3d27ff5a	0.041015007
228	0xbcd829f7	-0.026387198
229	0x3cb66eb5	0.022269586
230	0x3d2d64b3	0.042332362
231	0x3d48b949	0.049004827
232	0xbc96d0cd	-0.01841011
233	0x3d3567bb	0.04428838
234	0xbd7e47f0	-0.062080324
235	0x3d63a346	0.05557563
236	0x3d1a77fa	0.037712075
237	0xbcfe5877	-0.031048043
238	0x3cc06d46	0.023489606
239	0x3d171838	0.03688833
240	0xbdaa501e	-0.083160624
241	0x3b7a6bb9	0.003821118
242	0xbd12ff8d	-0.035888243
243	0xbb0d272c	-0.002153824
244	0x3d69cf8e	0.057082705
245	0xbd952ae6	-0.07283573
246	0x3cc48d5f	0.023993192
247	0xbd4ecfea	-0.05049125
248	0x3d0578c7	0.032585885
249	0x3d23e2df	0.040011283
250	0xbd068326	-0.032839917
251	0x3d36ad7c	0.04459904
252	0x3d0abce1	0.033871535
253	0x3c7e173f	0.015508472
254	0xbd20f5ad	-0.039296795
255	0x3c81de1f	0.015852986

invertible_encoder.bijectors.1.net.2.weight f4 [18, 256]
0	0x3d758a37	0.059946265
1	0x3ca1f9e4	0.019772477
2	0xbbdefe79	-0.006805238
3	0x3a77f9e3	0.0009459538
4	0x3d4e8e51	0.050428692
5	0xbd28925c	-0.041155204
6	0xbe435f31	-0.19079281
7	0x3d8f54d2	0.069986
8	0xbc4b45f2	-0.012406813
9	0xbc9fc482	-0.019502882
10	0xbd560bb3	-0.05225725
11	0xbc853fb5	-0.01626573
12	0x3bbb7b16	0.00572146
13	0x3d6055ba	0.054769255
14	0xbd6e0512	-0.058110304
15	0xbd2a65b7	-0.04160091
16	0xbcb2ae95	-0.021811763
17	0x3c9eeb99	0.019399451
18	0x3d657812	0.05602271
19	0x3dbaaad9	0.09114618
20	0x3cba85bb	0.022768846
21	0xbe4a7ef6	-0.19774994
22	0xbd05febc	-0.032713637
23	0x3c60bd97	0.013717077
24	0xbbd93e52	-0.0066297436
25	0x3ce1ccb6	0.027563434
26	0xbb773f88	-0.0037727077
27	0xbe0e766c	-0.13912362
28	0xbd816331	-0.063177474
29	0x3d90b52d	0.070658065
30	0x3e0305b6	0.12795147
31	0x3cedceee	0.029029336
32	0xbd12fa12	-0.035883017
33	0xbd898fb1	-0.0671686
34	0xbb3c4ef6	-0.0028733588
35	0x3d71f1c8	0.05906847
36	0xbd1a7a83	-0.037714493
37	0x3b3c9916	0.002877777
38	0x3d87630d	0.06610689
39	0x3d0ed1d5	0.03486808
40	0xbe20dc79	-0.15709104
41	0xbba7f0e9	-0.0051251543
42	0x3d89defe	0.067319855
43	0x3d977c3c	0.07396743
44	0x3e3ff022	0.18743947
45	0xbd81b31b	-0.0633299
46	0xbdccbe50	-0.09997237
47	0x3db3a9de	0.08772634
48	0x3cc56baf	0.0240992
49	0x3df9099c	0.12160036
50	0xbd96a662	-0.07355954
51	0x3e4e8497	0.20167767
52	0x3b22bc1d	0.0024831363
53	0xbca713ed	-0.020395244
54	0x3d6f47ae	0.05841797
55	0xbc257cc2	-0.010100545
56	0xbc6da6cd	-0.0145051
57	0x3daef652	0.085430756
58	0x3d44c0ac	0.04803531
59	0xb980ed82	-0.0002459102
60	0xbd342e17	-0.043989267
61	0xbbd6bbaa	-0.006553133
62	0xbdec75cc	-0.115459055
63	0xbc7c272f	-0.0153902015
64	0xbd98e2a3	-0.074651025
65	0x3d2f15a7	0.04274526
66	0x3ca067e5	0.01958079
67	0xbc538e56	-0.0129123535
68	0xbe195a97	-0.14975964
69	0x3cfd529d	0.030923182
70	0xbcc7c383	-0.02438522
71	0x3c88476d	0.016635621
72	0x3d85a47a	0.06525512
73	0x3e186cc3	0.1488524
74	0x3cc1999f	0.023632823
75	0x3d8dcd5a	0.06923933
76	0x3ce5daa4	0.028058358
77	0x3e136404	0.14393622
78	0xbc107912	-0.008817928
79	0xbcf4dd90	-0.029890805
80	0x3d8b24f8	0.067941606
81	0xbb202606	-0.0024436726
82	0xbd85f5e3	-0.0654104
83	0x3cff71a1	0.031182112
84	0xbd90ac11	-0.07064069
85	0xbabf3024	-0.001458649
86	0xbdf95243	-0.12173893
87	0x3c785cb9	0.015158826
88	0xbdf980d9	-0.12182779
89	0x3c4354e2	0.011922093
90	0x3ae833db	0.001771565
91	0x3de94c42	0.11391498
92	0x3d172b62	0.036906607
93	0xbc0efc0f	-0.008727088
94	0xbd5ac4e0	-0.05341041
95	0x3e352226	0.17688808
96	0x3d2c3d29	0.042050514
97	0x3e1e4eaf	0.15459703
98	0xbc9da989	-0.01924588
99	0x3cc5dc9c	0.024153046
100	0xbdb5ba4d	-0.08873425
101	0xbe5bed34	-0.21477205
102	0xbd0ad6a9	-0.033896122
103	0x3d9626ab	0.07331594
104	0x3d1534a6	0.036427163
105	0xbda50ada	-0.080587104
106	0xbb718658	-0.0036853757
107	0x3d94a4b8	0.0725798
108	0x3e01c554	0.12672931
109	0xbddefb66	-0.10887794
110	0x3d1ba312	0.037997313
111	0xbcfb90e1	-0.030708732
112	0x3bf34e6d	0.0074251206
113	0xbcab9d47	-0.02094902
114	0xbd8ee5bc	-0.06977412
115	0xbdb46a20	-0.08809304
116	0x3cdbd27d	0.026833767
117	0xb9b19f25	-0.00033878643
118	0x3a9a507e	0.0011773256
119	0x3cc04031	0.023468109
120	0xbe6d502f	-0.23175119
121	0xbd7db890	-0.06194359
122	0x3c559ad2	0.0130374
123	0x3c6991ac	0.014255922
124	0x3c074509	0.008256205
125	0x3da5e4b5	0.08100263
126	0xbd821af7	-0.063527994
127	0x3e2f31b4	0.17108804
128	0x3d414534	0.047185138
129	0xbdfb4b2e	-0.12270199
130	0x3d9b86fc	0.075941056
131	0x3b99b00a	0.004690175
132	0xbd0078aa	-0.031365074
133	0xb99b82a4	-0.0002966124
134	0x3caad315	0.020852605
135	0x3dab6da8	0.08370525
136	0xbc794a28	-0.015215434
137	0xb9989c81	-0.00029108304
138	0x3d5741cd	0.052552987
139	0x3d88353f	0.06650781
140	0x3cac0b24	0.021001406
141	0x3d2e7fcd	0.04260235
142	0xbc237a0d	-0.00997783
143	0xbc3e556d	-0.011617047
144	0xbd56165e	-0.052267425
145	0x3dedd558	0.11612958
146	0x3d9bb38a	0.07602604
147	0xbd29a353	-0.041415524
148	0x3c9e8c24	0.019353934
149	0xbc5252ac	-0.012837093
150	0x3d95ecb5	0.07320539
151	0xbd406ec8	-0.04698065
152	0x3d2a9ede	0.041655414
153	0xbc8762e3	-0.016526645
154	0x3dbb329b	0.091405116
155	0xbcc8238d	-0.024431014
156	0x3dafe3a8	0.08588344
157	0x3c70930e	0.014683498
158	0xbd533b47	-0.051570203
159	0x3d5a481e	0.053291433
160	0xbce44096	-0.027862828
161	0xbdf4f77b	-0.11961266
162	0xbd902b2c	-0.070394844
163	0xbd523b27	-0.051325943
164	0xbe207c4d	-0.15672417
165	0x3e8c6304	0.27419293
166	0x3c93dd84	0.018049963
167	0xbdd2a652	-0.10285629
168	0x3dac57cd	0.08415184
169	0x3cb5aaae	0.022176113
170	0x3af505cb	0.0018693743
171	0x3d1a7003	0.03770448
172	0xbbe10158	-0.0068666153
173	0xbc0e5097	-0.008686206
174	0xbd9bd795	-0.076094784
175	0x3d50720c	0.050890014
176	0xb9e134b6	-0.00042954617
177	0x3c8d23a2	0.017228905
178	0xbdec22d3	-0.1153008
179	0xbe0b9c65	-0.13633879
180	0xbda83696	-0.082135364
181	0xbe30cde8	-0.17266047
182	0xbc937356	-0.017999332
183	0x3d98f872	0.07469262
184	0xbc8b62f9	-0.017014967
185	0x3cdffb02	0.02734137
186	0x3de0e9f9	0.10982127
187	0xbe20415c	-0.15649933
188	0x3d3c96cc	0.04604225
189	0x3d28fdae	0.041257553
190	0x3c9ebf6d	0.019378388
191	0x3d895d88	0.06707293
192	0xbcd93230	-0.02651319
193	0xbdffb20f	-0.12485134
194	0x3d69bd81	0.05706549
195	0xbdf08ab9	-0.11745209
196	0xbc5549f1	-0.013018117
197	0x3d4e8ed7	0.05042919
198	0xbe0299f9	-0.12754048
199	0x3bfe07c2	0.0077523896
200	0x3ce968c4	0.028492339
201	0xbcb7448e	-0.022371557
202	0xbdc7ea75	-0.09761516
203	0x3be46047	0.006969485
204	0x3ced3802	0.02895737
205	0x3c7248fe	0.0147879105
206	0x3cb6f7fa	0.022335041
207	0xbb0d66f2	-0.0021576253
208	0xbe0ca0ae	-0.1373317
209	0x3c628542	0.013825716
210	0xbd807629	-0.06272537
211	0xbb54f0aa	-0.003249208
212	0x3df0fdc3	0.11767151
213	0xbdd05ff6	-0.10174553
214	0xbd948dc1	-0.072536
215	0x3cfccf15	0.030860463
216	0xbd700f98	-0.05860862
217	0xbc4cd46d	-0.012501818
218	0x3d0b7021	0.03404248
219	0xbdf3d01d	-0.11904929
220	0x3bbb1039	0.005708721
221	0xbd868f58	-0.065703094
222	0xbc1c6c95	-0.009547372
223	0xbd3f704f	-0.046737965
224	0xbe480d03	-0.19536214
225	0xbd86da0b	-0.06584557
226	0x3d740821	0.059578065
227	0x3dd1bbb1	0.102408774
228	0x3cf6714d	0.030083323
229	0x3ac07247	0.0014682495
230	0x3d604117	0.054749575
231	0x3d995de8	0.07488614
232	0xbd57627a	-0.05258415
233	0x3e5fed28	0.21867812
234	0x3d9507aa	0.072768524
235	0x3d077be6	0.033077143
236	0x3da78c54	0.08181062
237	0x3cb0088f	0.021488456
238	0xbe5d4383	-0.21607785
239	0x3ddb05e5	0.10694484
240	0xbbe66cd9	-0.0070320186
241	0xbe85d8c4	-0.26141942
242	0xbc0356c0	-0.008016288
243	0xbd2697c7	-0.04067209
244	0xbce78202	-0.028260235
245	0x3cef1cca	0.029188532
246	0x3be19ee1	0.006885395
247	0x3db7c2b0	0.089726806
248	0x3dcaa0ca	0.09893949
249	0xbca735c4	-0.02041138
250	0x3ddd50fc	0.10806462
251	0xbd73ec59	-0.05955157
252	0x3d9c5716	0.07633798
253	0xbddec043	-0.10876515
254	0xbc62a43c	-0.013833102
255	0x3c5130c0	0.012767971

invertible_encoder.bijectors.1.net.2.bias f4 [18]
0	0x3cb1d49b	0.021707824
1	0x3d0a27ee	0.033729486
2	0xbd2e3996	-0.042535387
3	0xbdfe59bd	-0.1241946
4	0xbda568f2	-0.08076657
5	0xbdd969d3	-0.106158875
6	0xbe13f414	-0.14448577
7	0xbe267e79	-0.16259183
8	0xbe0b4e70	-0.1360414
9	0xbcc86664	-0.024462886
10	0x3ccd02ea	0.025025804
11	0x3c5c8598	0.013459586
12	0xbd0f2121	-0.034943704
13	0x3c4d5d64	0.012534473
14	0xbc5d55d7	-0.013509235
15	0x3b73d5f3	0.003720638
16	0x3d1facb0	0.038983047
17	0xbca37e54	-0.019957699

invertible_encoder.bijectors.2.net.0.weight f4 [256, 18]
0	0xbe6754a3	-0.2259088
1	0xbe8e75e2	-0.27824312
2	0xbf2697ce	-0.65075386
3	0x3d98acde	0.07454847
4	0x3b650242	0.0034943973
5	0xbc95e52e	-0.018297758
6	0xbe7efc73	-0.24900989
7	0xbe35fa31	-0.17771222
8	0xbe4c9587	-0.19978915
9	0xbe743eb1	-0.2385204
10	0xbf66e567	-0.9019379
11	0x3d954585	0.072886504
12	0x3e671bf5	0.22569259
13	0x3bcfeb45	0.006345185
14	0x3ec6fdcc	0.38865507
15	0xbcf1d550	-0.02952066
16	0x3e8ddb5a	0.27706414
17	0x3d2903d8	0.04126343
18	0xbe67fea5	-0.22655733
19	0xbe1f3d1e	-0.15550658
20	0x3dadcd2c	0.08486399
21	0x3af76d6e	0.0018877217
22	0x3e04a70f	0.12954353
23	0xbe927515	-0.28604952
24	0xbe58884b	-0.21145742
25	0x3e597de2	0.21239427
26	0xbb7f80eb	-0.0038986753
27	0xbf005c9f	-0.5014133
28	0xbed8f903	-0.4237748
29	0xbdf54304	-0.11975673
30	0x3e4060d2	0.18786934
31	0x3e108f43	0.1411715
32	0xbedf09c8	-0.4356215
33	0xbec3da9c	-0.38252723
34	0x3ece22ab	0.40260825
35	0x3e9bfa13	0.3046423
36	0x3d15d90a	0.036583938
37	0x3d2926ed	0.04129689
38	0xbe05230b	-0.13001649
39	0x3eb4383f	0.35199162
40	0x3d1bed2b	0.038067978
41	0x3d51de82	0.05123759
42	0xbe3cd6a0	-0.18441248
43	0xbe58b570	-0.21162963
44	0x3d1daacd	0.038492966
45	0x3daf7c82	0.0856867
46	0xbe76c2a1	-0.24097683
47	0x3ed10e7c	0.40831363
48	0xbd95a1a6	-0.073062226
49	0x3db5e2c0	0.0888114
50	0x3e9d2fa8	0.3070042
51	0x3e761b9a	0.24033967
52	0xbe78553b	-0.24251263
53	0x3e07a7c5	0.13247593
54	0x3e1f3a72	0.15549639
55	0x3c741962	0.01489863
56	0xbe8210e5	-0.25403515
57	0x3d7cec18	0.061748594
58	0xbdadc410	-0.084846616
59	0xbe0fd406	-0.14045724
60	0x3dd11f72	0.10211076
61	0x3e62f609	0.22164167
62	0x3da0d6b9	0.07853455
63	0xbe162aff	-0.14664839
64	0x3e1cca29	0.15311493
65	0x3da8de7f	0.08245563
66	0xbdceaaa4	-0.10091141
67	0xbdefc102	-0.11706735
68	0xbedd9e7d	-0.4328498
69	0xbe3b603e	-0.18298432
70	0x3e998c69	0.29989937
71	0xbe2fcd09	-0.17168058
72	0x3d27f7ed	0.041007925
73	0xbe7af602	-0.24507907
74	0xbdf3823c	-0.118900746
75	0xbcb86cda	-0.022512842
76	0xbe91d449	-0.28482273
77	0xbe705793	-0.23470907
78	0x3e2379e2	0.15964463
79	0xbc5d2f23	-0.013500008
80	0xbd1b2611	-0.0378781
81	0x3e2fe958	0.17178857
82	0xbf35e312	-0.71049607
83	0xbe4893ed	-0.19587679
84	0x3ead17c8	0.33807206
85	0xbdd07b13	-0.101797245
86	0xbdefbbec	-0.11705765
87	0xbecc0691	-0.3984876
88	0xbe82b978	-0.25532126
89	0x3de72e24	0.112880975
90	0xbd66e281	-0.056368355
91	0x3e12b449	0.14326586
92	0xbe29acf1	-0.16569878
93	0x3e34f361	0.17670967
94	0xbe8f956e	-0.28043693
95	0xbd893725	-0.06699971
96	0xbe3dc8cf	-0.18533634
97	0x3e20e11f	0.15710877
98	0x3efe9c40	0.49728584
99	0x3e272469	0.16322483
100	0x3f40580e	0.7513436
101	0xbbb81cd7	-0.0056186724
102	0x3e94df0c	0.2907642
103	0xbe1cf25b	-0.15326826
104	0xbd950fe4	-0.072784215
105	0xbe4cc1ef	-0.19995855
106	0x3eb45934	0.35224307
107	0x3f24d40c	0.6438606
108	0xbeb2eebe	-0.3494777
109	0x3d857346	0.06516127
110	0xbe675b44	-0.22593409
111	0xbc69e2f1	-0.014275298
112	0x3e506547	0.20351134
113	0xbe2d662b	-0.16933505
114	0xbdc49930	-0.09599531
115	0xbeae8810	-0.34088182
116	0x3dc69393	0.09696116
117	0x3ccd6b92	0.025075708
118	0xbe9668be	-0.29376787
119	0xbe536643	-0.20644478
120	0xbda52171	-0.08063019
121	0x3d9212b6	0.07132475
122	0x3ec5b0e8	0.3861153
123	0xbf11e5a9	-0.5699106
124	0xbd270ce5	-0.04078378
125	0x3e109507	0.1411935
126	0xbedba853	-0.4290186
127	0xbdf24d9b	-0.11831208
128	0x3ddc67f7	0.10762017
129	0xbe1821b9	-0.14856614
130	0x3e38e74b	0.18056981
131	0xbe1593ae	-0.14607117
132	0xbdd979df	-0.10618948
133	0x3e28202c	0.16418523
134	0xbe1e2402	-0.15443423
135	0x3e331432	0.17488173
136	0xbe8d5310	-0.27602434
137	0x3e323d33	0.17406158
138	0x3e78bc40	0.24290562
139	0xbcda477d	-0.026645416
140	0x3ea99e05	0.33128372
141	0xbe9846a0	-0.29741383
142	0x3e201f5f	0.15636967
143	0x3ea1c7d9	0.31597784
144	0x3d1a3061	0.037643794
145	0x3e318e3a	0.17339411
146	0x3e7664b4	0.24061853
147	0x3ea92bd3	0.33041248
148	0xbf2b4a61	-0.6691037
149	0x3e80e924	0.25177872
150	0x3d8ad940	0.067797184
151	0xbc9d06c4	-0.019168265
152	0xbeb622a1	-0.35573295
153	0x3e0448c8	0.12918389
154	0x3f5e2502	0.8677522
155	0xbedb1214	-0.4278723
156	0xbe240b81	-0.16020013
157	0xbe7442fc	-0.23853678
158	0xbe75bfde	-0.23998973
159	0xbdb438de	-0.08799909
160	0x3f0942f5	0.53617793
161	0x3e8b8702	0.2725144
162	0xbda867d9	-0.08222932
163	0xbd1f231b	-0.03885184
164	0x3ee4821f	0.44630525
165	0xbdea6e4f	-0.11446821
166	0x3f37f1cd	0.71853334
167	0xbd19c84d	-0.037544537
168	0xbe294f3b	-0.1653413
169	0xbe9c8d3c	-0.30576503
170	0xbf0f8141	-0.560566
171	0x3dfb717d	0.122775055
172	0xbe7a003f	-0.24414156
173	0xbe38dadd	-0.1805224
174	0xbd21cf38	-0.03950426
175	0x3e6e7c46	0.23289594
176	0xbf149617	-0.5804152
177	0xbe73b50d	-0.23799534
178	0x3bb9db64	0.0056719054
179	0xbeb46eb5	-0.35240713
180	0x3c9baf05	0.019004354
181	0xbedc9363	-0.43081197
182	0x3dc57e97	0.09643286
183	0x3d23d17c	0.0399947
184	0x3d3a48b3	0.045479488
185	0xbd645015	-0.055740435
186	0xbe1f00c7	-0.1552764
187	0x3db7ff33	0.08984222
188	0x3c4401b7	0.0119632995
189	0x3c3fe915	0.011713286
190	0x3f077bcb	0.5292327
191	0x3d71849d	0.05896436
192	0x3eb83727	0.35979578
193	0x3c14efec	0.009090405
194	0x3e041b50	0.12901044
195	0xbde2160f	-0.110393636
196	0xbe26c8cb	-0.16287534
197	0x3e8a2dbd	0.2698802
198	0xbe049232	-0.12946394
199	0x3ddb8975	0.10719577
200	0x3d72c258	0.059267372
201	0x3e9ae071	0.3024936
202	0xbe7a420c	-0.24439257
203	0x3e6e996d	0.23300715
204	0xbed4e05f	-0.41577432
205	0x3dd54248	0.10413033
206	0xbe6e9e9a	-0.23302689
207	0x3e8b8165	0.27247158
208	0x3f2a2c3b	0.6647374
209	0x3ef494de	0.47769827
210	0x3e137c02	0.14402774
211	0x3ee07ffc	0.43847644
212	0xbf407d50	-0.7519121
213	0xbe80ae38	-0.25132918
214	0x3ed84e74	0.42247355
215	0xbe63cf90	-0.22247148
216	0xbe6b795c	-0.22995514
217	0x3ea9b59a	0.33146363
218	0x3b94e4d5	0.0045438805
219	0xbe818003	-0.25292978
220	0xbdde13f1	-0.10843647
221	0xbd15c1d6	-0.03656181
222	0x3ddaeead	0.10690055
223	0x3e3cb8bd	0.18429847
224	0x3e0b4b01	0.1360283
225	0x3c0c980c	0.008581173
226	0xbe24150c	-0.16023654
227	0xbe3000fe	-0.17187878
228	0x3c994ab1	0.018712373
229	0xbdcb4313	-0.09924903
230	0xbd414222	-0.04718221
231	0x3d0c328e	0.0342279
232	0x3ec05703	0.37566385
233	0xbd98cb9b	-0.0746071
234	0xbea9fbba	-0.33199865
235	0xbe102328	-0.14075911
236	0x3e9e2663	0.30888662
237	0xbe3104ef	-0.17287038
238	0x3e97e1ad	0.29664364
239	0xbcbd8ea9	-0.023139315
240	0xbc037991	-0.008024589
241	0x3ca042da	0.019563127
242	0xbe863e7c	-0.26219547
243	0xbea65719	-0.32488325
244	0xbe19f4dd	-0.15034814
245	0x3e0fc6cb	0.14040677
246	0x3e8242cc	0.25441587
247	0x3d846f1c	0.06466505
248	0xbeb97384	-0.36220944
249	0xbf32e282	-0.69876873
250	0xbda43259	-0.080174156
251	0x3c83cd55	0.01608912
252	0xbe3e602e	-0.18591377
253	0x3e2a7004	0.16644293
254	0xbd09945b	-0.03358875
255	0x3dfdbf7d	0.12390039
