Sentinel_model_weights/IKAE_zp/best_model_0.pt (torch, 237326 bytes, 24 tensors)

invertible_encoder.bijectors.0.net.0.weight f4 [256, 18]
000000 4d 96 b3 3d 00 40 a2 3e e6 01 f2 bd 1f 1f 07 be
       0.08768902 0.31689453 -0.11816768 -0.13195466
000010 93 06 64 be 84 f3 cd ba 6a 4e 30 bd e5 7c 0c 3e
       -0.22268133 -0.0015712832 -0.04304353 0.13719518
000020 25 11 b8 ba 07 84 a7 3d 1c ec de bc ad 2d 78 3c
       -0.0014043195 0.08179479 -0.027212195 0.015147609
000030 85 cb d9 bd 20 c1 b0 be b3 51 20 3e 13 84 30 3d
       -0.106345214 -0.34522343 0.15656166 0.043094706
000040 cf 66 04 be fc 13 a4 3e 72 c6 ef bd 8d 4b 52 be
       -0.12929843 0.32046497 -0.11707772 -0.20536633
000050 2a 12 1c 3e ef c2 08 3d 58 f9 db bd f5 af 0d 3d
       0.15241304 0.03338903 -0.10740918 0.034591634
000060 ba b9 b5 bd 65 ef 4e bd c8 97 9b 3e ce 4d 13 bf
       -0.08873315 -0.050521273 0.30389237 -0.57540596
000070 a6 e0 50 c0 66 41 01 40 46 13 37 40 fe d4 f2 3d
       -3.2637115 2.0196166 2.8605514 0.11857031
000080 ef 63 5a 3f 83 2f a2 3e bc 4c 10 bf 27 f0 5e 3f
       0.85308737 0.31676874 -0.5636709 0.87085193
000090 27 c9 9a be a5 29 4b 3e 66 f5 75 3e 34 3f 49 3e
       -0.30231592 0.19840105 0.24019393 0.19653016
0000a0 50 26 db 3d e9 af da bd 0a 01 5a 3d 4e 64 84 be
       0.10700667 -0.106780834 0.053223647 -0.25857776
0000b0 bd 31 b3 bd 8a 79 d6 bc 74 4c b5 bf 81 df 12 bf
       -0.08749721 -0.026181001 -1.4163957 -0.5737229
0000c0 4e 2b be 3f ed 60 4b bf d4 b7 4a 3f c8 3e c3 3e
       1.4856966 -0.7944477 0.7918675 0.38133836
0000d0 74 ea cd bd 7c 15 5d 3e 48 24 b8 3e c9 0c e4 bc
       -0.10054484 0.21590227 0.3596518 -0.027838128
0000e0 ff 41 ae 3d 56 13 d0 bd fe 80 9a be 83 b9 17 be
       0.085086815 -0.10159938 -0.30176538 -0.14816861
0000f0 b6 04 c7 3d c1 4d 06 3e e4 4e 5a be a1 99 46 3e
       0.097176954 0.13115598 -0.21319157 0.19394542
000100 bf 0b cd bd 1d b8 79 bf 9c 1e e1 be 84 e0 02 be
       -0.10012006 -0.9754656 -0.43968666 -0.12780958
000110 c3 0e 29 40 17 6e 8a 3e 2f ba 4f bd 13 ff 5b 3e
       2.641526 0.27037117 -0.050714668 0.21484022
000120 e2 ea d4 3e 7f 7b 9e 3b 98 c0 84 bc dc 1a 1c bc
       0.4158545 0.004836499 -0.016205117 -0.009527888
000130 b1 ca d7 3e 53 34 8c be c5 9c 3a 3d f6 35 0d 3d
       0.4214683 -0.2738367 0.045559663 0.03447529
000140 7b 8a 9d be e6 97 d0 3d 6d e9 b7 bf 85 e6 ef bc
       -0.30769715 0.10185222 -1.4368111 -0.029284725
000150 af 0d 2a 40 2b b4 af bd e4 56 ae 3f 8b f6 85 bf
       2.6570852 -0.08579286 1.3620267 -1.0465864
000160 78 bc 35 be a1 49 a1 bf 33 7f 82 3d 69 67 db 3d
       -0.17747676 -1.2600595 0.063719176 0.10713083
000170 e9 80 0f 3f c9 d3 bb bc 79 f3 29 be 3e e2 1a be
       0.56056076 -0.022928135 -0.16596784 -0.15125367
000180 d2 76 fc 3d e4 63 56 3c 55 5d 3d be 3e cf 23 be
       0.12327351 0.013085339 -0.18492635 -0.15997025
000190 90 f9 82 3e 14 a8 70 3f 5a 22 ff 3f f1 16 7c 3e
       0.25581026 0.94006467 1.9932358 0.24618126
0001a0 03 9a 2a 3d 7f 07 97 3b 39 4c 88 bd 7b 0a 13 bd
       0.041650783 0.004609048 -0.06655163 -0.035898667
0001b0 ab 88 d1 bc b3 2a 62 3e fd d6 92 bd 11 90 24 3c
       -0.025577864 0.22086601 -0.07169912 0.010044114
0001c0 ef bb de be 0a dd 95 3e b9 44 2d 3e dd 14 66 be
       -0.43502757 0.29270202 0.16920747 -0.22468896
0001d0 88 33 4d be 92 a7 ff 3e a8 a9 4d 40 c3 fd 82 bf
       -0.20039189 0.49932534 3.21348 -1.0233692
0001e0 ef 0c 42 3f f3 b9 52 be f3 58 ff bf ca 9b bf bf
       0.75800985 -0.20578746 -1.994902 -1.4969418
0001f0 03 47 f5 3e a6 58 50 3f 93 83 b0 be b2 d5 3f bf
       0.4790574 0.81385267 -0.34475383 -0.7493545
000200 d3 01 53 be af af 85 be 8e 66 11 bc c2 c2 1c 3e
       -0.20606165 -0.26110598 -0.008874549 0.15308669
000210 45 46 f2 bd b2 d8 64 3d cf 6c a2 3e 34 fb 37 3d
       -0.11829809 0.05587072 0.3172364 0.0449173
000220 eb 09 9b 3f ab 8f 79 3f 29 17 5f 3f f1 26 b8 3e
       1.2112402 0.97484845 0.87144715 0.3596721
000230 1b c4 4f 3f 39 64 84 3e a0 2f 8d 3e 84 a3 12 be
       0.8115861 0.25857714 0.27575397 -0.14320189
000240 0f b3 91 be c0 bf 33 be e8 84 94 3a cc 31 fb 3d
       -0.28456923 -0.17553616 0.0011331113 0.122653574
000250 46 87 67 bd 91 9e 07 bb 15 fd 89 bd 14 12 a7 bd
       -0.05652549 -0.0020693878 -0.06737725 -0.08157745
000260 8c 68 2f bd d4 40 15 3e 47 4b d0 3e 2a e8 1d 3e
       -0.042824313 0.14575511 0.40682432 0.15420595
000270 fd ca 3a bd be f3 75 be 57 55 e1 be 1d 54 f0 bd
       -0.04560374 -0.24018762 -0.44010422 -0.11734793
000280 d3 0c 03 3e 4a 10 5c 3e 2a 2f c0 be 84 fc 3d be
       0.12797861 0.21490589 -0.37535983 -0.18553358
000290 9d 37 6e 3e 84 f0 9d 3d cf f8 d8 bd 8b 31 11 3e
       0.23263402 0.0771189 -0.105943315 0.14179055
0002a0 47 3a 89 be c7 62 84 bd 57 d2 a9 3e 46 3e 01 be
       -0.26802275 -0.06464153 0.3316829 -0.12621412
0002b0 f5 9d 6b 40 be b9 69 3e dd 99 d9 bf 5b b2 20 3f
       3.681516 0.22824761 -1.700008 0.6277215
0002c0 e1 61 db bf 2d b7 77 bf 89 51 d4 be 1f 38 98 3d
       -1.7139245 -0.9676388 -0.41468456 0.07432579
0002d0 3b 1a 55 be 48 b2 39 be 36 d1 6f 3e 8e 2b 20 3d
       -0.20810787 -0.18134415 0.23419651 0.039104037
0002e0 e5 60 4f 3e 90 44 24 3d 42 ce ed bd 56 43 84 bd
       0.20251806 0.04010445 -0.11611606 -0.06458156
0002f0 83 88 88 be 74 b1 93 3e 45 b0 ec bf d3 a2 22 40
       -0.2666665 0.28846323 -1.8491293 2.541188
000300 7c cb bf be d5 ed 7f bf cb 42 90 40 1a 9f 93 bd
       -0.37459934 -0.9997228 4.5081534 -0.072080806
000310 06 f5 d4 3f 11 96 1a bf dd 24 09 bf 3a 46 9e be
       1.6637275 -0.60385233 -0.53571874 -0.30912954
000320 6d 7a 89 bc 0a 04 05 3e 33 15 cc be c4 5e 5e be
       -0.01678201 0.12989822 -0.39859924 -0.21715838
000330 b1 94 60 be e0 0d 4f 3e 66 ad 7f bd 09 f7 b6 3e
       -0.21931721 0.20220137 -0.062421225 0.35735348
000340 d2 af 4a be 43 66 00 3f fd 83 1a bf e1 07 d8 be
       -0.19793633 0.5015604 -0.6035765 -0.4219351
000350 11 8d 3c 3f 8a 06 5f bf 9c f7 62 be 09 c6 74 3f
       0.7365275 -0.8711935 -0.22164768 0.9561468
000360 31 0a 8c be 2f 91 11 3d 47 78 99 3e c2 56 fe bd
       -0.27351525 0.03553885 0.29974577 -0.124188915
000370 17 dc 95 bc 8d 7c 5c 3e e3 44 99 3d d1 56 86 bd
       -0.018293424 0.21531887 0.07483842 -0.06559528
000380 c1 04 9b be bd f3 70 3e 29 01 c3 3f db b1 3c 3f
       -0.30277064 0.23530479 1.5234729 0.73708886
000390 a4 91 53 3f fc 20 0b 3e 95 fe 80 be ab 10 f1 bc
       0.82644105 0.13586801 -0.2519423 -0.029426893
0003a0 83 e4 b3 be 9f 4b 59 3e 8c ac 86 3e 54 84 82 bd
       -0.35135278 0.21220253 0.26303518 -0.06372896
0003b0 bb 27 1f 3e 55 c1 84 be 30 92 44 be 24 61 fe 3c
       0.155425 -0.2592875 -0.19196391 0.03105218
0003c0 5c 3d 84 3d 36 6e 1c 3e 16 23 a1 bd 53 18 97 3d
       0.06457016 0.15276417 -0.0786802 0.07377686
0003d0 18 17 01 3e 41 da 4f 3c 25 aa cc be 92 1e 28 be
       0.12606466 0.012686313 -0.3997356 -0.16417912
0003e0 8b a8 98 bd 32 f4 09 3e 7c b6 b8 bd e3 99 69 3d
       -0.07454022 0.1347206 -0.09019181 0.057031523
0003f0 af a5 5f 3e 7c 3a de bd 6f b4 48 be 6e f9 89 bc
       0.21840547 -0.10850999 -0.1960008 -0.01684257

invertible_encoder.bijectors.0.net.0.bias f4 [256]
000000 ed 72 06 bc eb da 56 3d ed b5 16 bc 0c a6 9e 3b
       -0.008206111 0.05245487 -0.009198648 0.0048415717
000010 ff 7f 5a 3d f8 cc cc 3b a8 31 3e bd 2d ca e1 ba
       0.053344723 0.00625002 -0.046434075 -0.0017226391
000020 49 64 04 3c cd aa ab bd b5 9c 46 3d 03 b5 e4 3c
       0.0080805505 -0.08382187 0.04848929 0.027918344
000030 bd 2e 08 bc b7 7e 7c bd 16 3e 48 bb 1e 0e 36 3d
       -0.0083119245 -0.061644282 -0.0030554584 0.044447057
000040 5d f0 84 ba 36 fc 8b 3c 7f 31 97 bc ce ba 2e bd
       -0.0010142435 0.017088037 -0.018456219 -0.04265862
000050 6f bb a5 bd d6 f4 85 bc a1 f3 23 3d b4 6d 3d 3c
       -0.08092391 -0.016352098 0.040027265 0.0115618
000060 85 96 d3 3d 0b 94 f5 bb 78 b8 c1 bc 14 aa 98 bc
       0.10331444 -0.0074944547 -0.023647532 -0.018635787
000070 4a ae 0a 3c f8 85 89 3a b2 69 9a bc a6 46 45 bc
       0.008464405 0.0010492196 -0.018849228 -0.01204077
000080 c9 31 26 ba 4f 85 cb bc e0 95 34 3a d7 05 6b 3d
       -0.0006339816 -0.02484384 0.0006888788 0.057378616
000090 7e 97 b1 3d a2 ec 8a bb 65 34 81 bd 31 b7 70 bd
       0.08671473 -0.0042396346 -0.063088216 -0.058768455
0000a0 9e 82 0a bc 3c a8 95 bc 0d 7f 9b bc 4b 46 b8 bc
       -0.008453993 -0.018268697 -0.018981481 -0.022494456
0000b0 1e 29 45 bd 2d 60 52 bd 1e 3d e1 bc 22 67 8e bb
       -0.048134916 -0.05136125 -0.027494963 -0.0043457905
0000c0 54 51 8f bc ab 1a 94 ba 43 bb 35 bc 54 13 dc 3b
       -0.017494835 -0.0011299452 -0.01109201 0.0067161713
0000d0 4e 10 a4 bb 8a 02 7f 3a 2e b8 1b bd d6 8d ea 3a
       -0.0050068265 0.00097278564 -0.038017444 0.0017895054
0000e0 5e 05 3b bc 1e 8c a6 bb 5f b4 3c 3b f1 fc 37 bb
       -0.011414854 -0.0050826212 0.0028794033 -0.0028074349
0000f0 da 36 00 3b 8f 9a e9 3b 1b 1e d2 bb 7e e8 e4 bc
       0.0019563944 0.0071290205 -0.0064122803 -0.027942892
000100 25 13 f1 bc 86 e4 0b bd c1 fe 64 bc 46 f6 82 3d
       -0.029428074 -0.034153484 -0.013976754 0.06394629
000110 f3 c8 83 bc dd 6b 93 3c 00 c6 17 bd 0f f7 91 bc
       -0.016087031 0.01799577 -0.037054062 -0.017818002
000120 21 08 20 bd bd 81 d4 bb 97 40 4e bb 40 96 94 bd
       -0.039070252 -0.0064851926 -0.0031471604 -0.072552204
000130 68 ce 19 bd ce 22 ce bd d0 2a 4b bd 99 d6 7e 3c
       -0.03755036 -0.10065232 -0.049601376 0.015554094
000140 0d 9a a7 bc 14 1b 18 3d 85 e7 2d bc ee e5 3b 3b
       -0.0204592 0.0371352 -0.010614281 0.0028670984
000150 95 64 0a bc f0 06 3f 3b 9b ea c1 3c ca 7d 7f 3b
       -0.008446832 0.0029148422 0.023671439 0.0038984888
000160 9b 2e 56 bd 06 61 fa bc 2b 1b 84 bd 8b f9 19 bd
       -0.05229054 -0.030563843 -0.064504944 -0.0375915
000170 37 3c 6e 3c 67 3a 96 bc 7c d3 5d 3d 0f 06 d2 bc
       0.0145407235 -0.018338395 0.054156765 -0.025637655
000180 53 0e b6 bc cc d8 a6 3c 8e 1c 42 bd 1e 1d 9c bc
       -0.022223627 0.020367049 -0.047390513 -0.019056853
000190 a9 75 e8 3c bf 31 c0 bc 40 ee 32 bd a9 24 09 be
       0.028376417 -0.02346122 -0.043684244 -0.13392891
0001a0 c0 26 d1 3a 0a 9d 17 bc e1 3a 4a bc b7 0e 9e bc
       0.0015956983 -0.00925375 -0.012343139 -0.019294126
0001b0 f3 0b a8 bd e8 bc 4c 3d 72 60 8b 3b cb 0c a8 bc
       -0.08205404 0.049984843 0.0042534405 -0.020513913
0001c0 68 8e c0 3d ef 18 16 bb 73 29 00 bd 16 35 90 bd
       0.09402162 -0.0022903045 -0.03128953 -0.07041375
0001d0 b1 ef 78 bc 43 94 d3 bc 80 cb 9e bd 32 07 fb bb
       -0.015193866 -0.025827533 -0.07753658 -0.00766077
0001e0 01 07 de 3b 42 8e 08 3a 42 6f b3 bc ae cd 9c bc
       0.0067757373 0.00052091863 -0.021903638 -0.019141044
0001f0 7e bd 05 be 44 3f 75 bd b4 cf 43 bd aa 16 f3 3b
       -0.13060567 -0.059874788 -0.047805503 0.0074184733
000200 b0 87 6a bd 36 a8 b6 3b f4 51 95 3b 0b ec 74 bb
       -0.057258308 0.0055742515 0.0045568887 -0.0037372138
000210 e9 42 e1 37 b3 f7 67 bd 54 45 e2 3d ac d6 28 bb
       2.6853248e-05 -0.05663271 0.110483795 -0.002576272
000220 f2 6f 7d bb 99 c7 19 3d 25 2a 41 bc 99 dc 82 bd
       -0.003867146 0.037543867 -0.011789833 -0.06389732
000230 4e 5d f2 3a 0e 61 35 3c 5b e2 26 bc 1b 54 65 3d
       0.0018490942 0.011070503 -0.010185803 0.055988412
000240 74 68 a6 3c a5 07 53 3d fe 6b 6d 3c 8a ac 6b bc
       0.020313479 0.051520962 0.014491079 -0.014384398
000250 32 f4 97 bd 00 d1 53 3d 43 0b 71 3c 05 b5 0d 3c
       -0.074196234 0.05171299 0.014712158 0.008649115
000260 c7 50 90 3c bd 89 57 3d 33 c5 3b 3c b5 e3 cc bc
       0.017616643 0.05262159 0.01146059 -0.025010923
000270 0b 6c bb bc d3 e4 41 be a0 cc e2 3c e0 5e c5 3d
       -0.022878667 -0.18934946 0.027685463 0.096372366
000280 17 e4 96 bc 10 6d 48 bc fe e6 29 3d 67 4b 06 be
       -0.018419309 -0.012233034 0.041480057 -0.13114701
000290 f7 d0 e3 bc 2d 68 c1 3c 33 0c 7e bb f2 eb c7 3c
       -0.027809603 0.023609245 -0.0038764596 0.0244045
0002a0 92 19 11 3c 6a fd 25 3d 53 77 88 ba 41 1b 08 bc
       0.008856194 0.040524878 -0.0010411538 -0.008307279
0002b0 42 62 0d 3d 55 f7 f4 bc 1b ba 84 3b e6 0f 1d bd
       0.034517534 -0.029903093 0.004050506 -0.03834524
0002c0 7d 48 41 3b 02 a4 14 bb f3 f3 90 bb bc 5e 5a bd
       0.002949267 -0.0022680764 -0.0044236123 -0.053313002
0002d0 79 7f 36 3c 37 2b 6a 3c 38 f9 ad 3d 4d 73 6a 3c
       0.01113879 0.01429253 0.084948 0.014309716
0002e0 b9 5f be bc a1 28 7f bb 78 b5 e5 3c 41 1f 8c bb
       -0.023239003 -0.0038934129 0.028040633 -0.0042761867
0002f0 cc 84 96 bd eb 45 64 bc b6 85 3b bd 41 00 a3 3a
       -0.07349548 -0.013932685 -0.045781814 0.0012435989
000300 f7 5a 09 3e c6 0d 0b 3c 0c 8c eb 3b 7e 12 db bc
       0.13413607 0.008487171 0.0071883257 -0.026742216
000310 5e 15 a2 bc 26 1c 49 bd 86 ae bb bb 83 0f cc bb
       -0.01978558 -0.04909911 -0.005727592 -0.006227435
000320 1c ce 44 3d e2 d7 ae bd 9f 06 5a bc ab c6 a6 bc
       0.048048124 -0.0853727 -0.013307243 -0.020358404
000330 93 23 c8 ba ff 56 be bc d9 5f 07 3d e7 c1 31 3c
       -0.0015269391 -0.023234842 0.03305039 0.010849453
000340 2f c3 c1 3b 23 0c ca bb 8d 71 74 3c dd 61 7b 3b
       0.0059131603 -0.0061659976 0.014919651 0.0038357892
000350 c8 cb 8a 3b 83 2f e6 3b fa c2 6f bb 61 db c7 bc
       0.0042357184 0.007024707 -0.003658472 -0.0243966
000360 bf f2 0d bd 39 26 37 3c cd 1f 9d 3b 2b c0 71 3d
       -0.03465533 0.011178547 0.0047950507 0.059021156
000370 3a 3c d5 bb 31 a7 07 3d 33 eb 4e bd 80 e2 c1 bc
       -0.0065074237 0.03311843 -0.050517272 -0.023667574
000380 73 54 f2 bc ff a6 1b be 06 f2 d9 bb 4e f4 6b bc
       -0.029581284 -0.15200423 -0.006651166 -0.0144015085
000390 2a ae 67 bd 1c f2 5f bc 70 3c ec 3a f5 98 00 3d
       -0.05656258 -0.013668563 0.0018023383 0.03139587
0003a0 13 66 d8 bb 7a 3a dc bc 79 a1 16 bb 73 7b 96 3d
       -0.006603965 -0.026883353 -0.0022984429 0.07347765
0003b0 c0 99 7b bc 20 15 4c 3d 47 ee 1c 3c 4a 9e 2e bb
       -0.015356481 0.049824834 0.009578294 -0.002664464
0003c0 86 f6 14 bd ae 11 8a bc 56 8f 5b 3d 71 b5 24 3d
       -0.036367916 -0.016854133 0.053603493 0.0402121
0003d0 0d 79 60 bc 89 ac 71 bc 0a 21 e6 bc d8 87 cc bc
       -0.013700736 -0.014750608 -0.028091926 -0.02496712
0003e0 fd 8c 33 bc 00 c0 1e 3c 17 52 51 3c 7f 9e d2 bd
       -0.010958907 0.009689331 0.012775919 -0.10284137
0003f0 be a5 57 bd 1e e6 3e bc 6a 4f ed 3c d3 00 13 bc
       -0.0526483 -0.011651544 0.028968532 -0.0089723645

invertible_encoder.bijectors.0.net.2.weight f4 [18, 256]
000000 09 d9 8e 3b 76 50 78 bc c5 99 b8 3a 83 10 25 3a
       0.0043593687 -0.015155902 0.0014083913 0.0006296711
000010 24 44 02 3b c7 e8 08 3c 2d ea 1f bc 6c 9d 10 bb
       0.001987704 0.00835628 -0.009760422 -0.0022066487
000020 ac c8 33 bb 26 29 9d 3c 0b c1 e0 3b f2 3f c7 bb
       -0.0027432842 0.01918466 0.00685895 -0.006080621
000030 93 aa c6 39 87 e8 32 3b bf ce 81 bc f8 7b e6 bc
       0.0003789259 0.0027299242 -0.015845655 -0.028135285
000040 2d a5 46 3c 6a f0 19 bd 70 a1 fd 3a d9 f3 c5 bb
       0.012124342 -0.037582792 0.001935048 -0.006041032
000050 85 5d d5 bc d4 ae 4f 3c eb 2d 81 3b 16 8a 8a 3a
       -0.02604557 0.01267596 0.0039422414 0.0010569717
000060 f3 d6 ce 3b 17 43 01 3c d3 29 2d bc c6 54 1f bb
       0.006312245 0.007889531 -0.010569054 -0.0024312004
000070 97 c1 33 3b e2 24 1c bd 1b 0d 69 3c c9 85 44 bd
       0.002742862 -0.03812111 0.014224316 -0.04797915
000080 08 1c 4c bc b9 e4 59 bb 79 6b 46 bc b2 d7 fc ba
       -0.012457855 -0.0033247902 -0.012110584 -0.0019290356
000090 c0 1b 69 3a 0a 11 a8 3b c6 d9 88 3b e5 ac f7 bc
       0.00088923797 0.0051289843 0.0041763512 -0.03023381
0000a0 ed 10 45 3c c4 69 8e 3c b2 c0 af ba 07 b1 12 3c
       0.012027961 0.017384417 -0.0013408868 0.008953339
0000b0 07 40 8e bd dc 63 22 bc 86 f2 21 bb 0b 7d bf bb
       -0.06945806 -0.009911504 -0.0024711206 -0.0058437637
0000c0 5e 63 80 3b c9 47 97 bc 99 6e db 3a 95 2b 25 3e
       0.0039180955 -0.018466847 0.0016741335 0.16129906
0000d0 b1 f7 30 3b 72 80 80 ba 62 a0 1f 3c f2 73 e9 3b
       0.0027003104 -0.0009803905 0.009742828 0.0071244175
0000e0 78 3b bb 3b 25 e0 88 3b 83 38 59 3a 22 3e 44 3c
       0.0057138763 0.0041771107 0.0008286314 0.011977704
0000f0 12 18 f9 3c 17 3a a2 3c d7 9b 84 bb f3 75 ed 3d
       0.030406985 0.01980309 -0.004046898 0.11594763
000100 86 1e 38 3b b4 21 3f 3c 09 1f 1c 3c 15 c8 92 3c
       0.0028094365 0.01166575 0.009528884 0.017917672
000110 52 25 96 3a 99 d1 b6 3b 62 fe 0c 3c 33 12 24 3c
       0.0011455214 0.005579185 0.008605571 0.010014105
000120 33 5d 35 3c 93 42 94 bc 2c 0d ba bb 33 c1 07 bb
       0.011069584 -0.018098151 -0.0056778397 -0.002071452
000130 f3 1a 04 3e da c5 70 bc 2f c1 10 3c 01 91 37 3c
       0.12900905 -0.014695609 0.008835121 0.011204005
000140 0f 6e d5 3b eb c4 91 3e 33 d0 71 bb 7b 2d bd 3c
       0.006513364 0.2847055 -0.0036897778 0.023092976
000150 4c 74 63 bb eb 72 04 ba 52 b0 00 be d7 72 cf ba
       -0.003470677 -0.00050525245 -0.12567261 -0.0015827072
000160 9a 52 7f bd f7 d2 5f bc 40 85 8b bb 06 56 65 bb
       -0.062334634 -0.013661138 -0.004257828 -0.00349939
000170 ce 2b a7 ba 92 67 d8 3a 8a 6a 4e bb 9c 59 3a bc
       -0.0012754144 0.0016510359 -0.0031496608 -0.011373904
000180 39 80 93 bc 49 78 60 bc ef 8d 67 3a 75 76 72 3c
       -0.018005477 -0.013700553 0.00088331004 0.01479875
000190 ee 80 5a bb 56 6b 34 bb c8 c1 8e 3c a7 d8 11 3b
       -0.0033341008 -0.0027529798 0.017426386 0.002225438
0001a0 72 6e 84 3c 04 28 c2 bc b3 b0 bc 3b f8 b0 5c bc
       0.016165946 -0.023700722 0.005758369 -0.013469927
0001b0 67 30 5b bc 70 a1 2a bc fa 49 d7 bb 79 79 cd bb
       -0.013378239 -0.010414466 -0.006570098 -0.006270584
0001c0 88 f7 ca 3c 37 15 cb 3d c6 93 9c 3b d6 2b 37 3c
       0.024776235 0.09916156 0.004778358 0.011179885
0001d0 9b 9e 2f 38 24 85 dd 3a 30 3a 56 bb 2c 0a 16 bc
       4.1870964e-05 0.0016900641 -0.003268849 -0.009157699
0001e0 9f 54 3b bc 34 84 de 3b cc 7c b7 3a b2 71 7d 3b
       -0.011433749 0.006790662 0.0013998984 0.0038672504
0001f0 89 8e f8 3b 77 65 39 ba be 5f 79 3d 26 e5 06 bc
       0.007585351 -0.00070723094 0.060882322 -0.008233344
000200 86 92 ae 3d d6 fa 84 3c e7 78 82 bb d6 ac 19 bc
       0.08524041 0.01623289 -0.003981698 -0.009379586
000210 ea 71 5f 3c b7 b7 02 bd 5d 99 66 bb b6 75 c1 bb
       0.013637999 -0.031913485 -0.0035186626 -0.005903925
000220 6d f3 0c 3c 3a a8 b5 ba 52 a2 0b bb bf ac 20 3b
       0.008602959 -0.001385934 -0.0021306467 0.0024517027
000230 31 2a 35 bc 5f 81 e7 3d d8 f8 b1 3b 57 0e 19 3c
       -0.0110574225 0.113039725 0.005431276 0.009341798
000240 37 06 c9 3b 39 60 05 ba 08 ac 83 bd 3a 54 11 3d
       0.006134774 -0.00050878857 -0.06429297 0.035480715
000250 3f 9d de bb 70 c0 7d bb 12 74 18 3c 23 ab 53 bd
       -0.0067936475 -0.0038719438 0.009305017 -0.05167688
000260 21 2b 39 bd cc 56 4b 3c c5 51 c1 3b 8c 60 3c 3b
       -0.045207147 0.012410831 0.0058996403 0.002874407
000270 36 bc e2 b9 9c 3a c5 3c b1 95 31 bb 03 7e 98 bb
       -0.00043246307 0.024075799 -0.002709728 -0.0046536936
000280 b2 db ec 3b 5b 49 09 bc 40 83 03 bd 3a df c5 bb
       0.007228338 -0.008379306 -0.03210759 -0.0060385736
000290 f6 0a d5 bc 9e b4 8b 3b 6d 33 1d bb 60 48 1c bc
       -0.026006203 0.0042634746 -0.002398695 -0.00953874
0002a0 cf 40 58 3c d7 50 4b 3c d4 fc 34 bc 1e 1e 51 3a
       0.013199045 0.01240941 -0.011046607 0.0007977205
0002b0 4a db 30 3c 64 69 df bc 4f 59 f2 bb 46 c9 89 3c
       0.01079447 -0.027271934 -0.0073959003 0.016819607
0002c0 c2 a6 3e bb 61 0b 15 3c ac 88 07 3b 58 1e 2a 3c
       -0.0029091095 0.009096951 0.0020680828 0.010383211
0002d0 7f 91 fd 39 f8 c6 8e 3a 5b 05 4e bb d5 04 ed bc
       0.00048364323 0.0010893038 -0.0031436298 -0.028932968
0002e0 c8 ea 3e 3e 44 5c 52 3b d5 45 73 bb d9 5f 1e bc
       0.1864425 0.0032098452 -0.003712048 -0.009666407
0002f0 37 52 0c bb b2 2f 8e 3b 83 d2 3a 3c 0c fb c6 bb
       -0.0021411309 0.004339182 0.011402729 -0.0060724076
000300 41 1e 8c 3c 87 76 9f 3c 3c 6e cd 3b 42 34 11 bc
       0.01710427 0.019465698 0.0062692445 -0.008862557
000310 74 a2 3e bc 31 fc 00 bc fc 72 26 3c 8b 4a 24 3c
       -0.0116354115 -0.007872627 0.01015925 0.010027538
000320 e3 b9 6b bd 44 0f 6f bd b3 4a 13 bb 3a 9c 08 bd
       -0.057550322 -0.058364168 -0.0022474944 -0.033352114
000330 96 91 c9 bb 8e 09 17 bb ee 21 35 bc 94 f1 f2 3c
       -0.0061513884 -0.0023046467 -0.011055453 0.029656209
000340 5c 40 6c 3d 56 6f 86 bb a6 ab c9 bc 07 b8 74 bb
       0.057678565 -0.0041026277 -0.024617981 -0.0037341134
000350 ea ca 69 3c 60 2f 1b bc e5 e5 af 3b 69 56 89 3a
       0.01426957 -0.009471744 0.0053679817 0.0010478023
000360 75 f8 0e bd 6b 9a 68 bb e3 eb 47 3c 71 3c 67 3b
       -0.034904916 -0.003549243 0.012202236 0.0035283829
000370 8e fe bf 3b 97 90 05 bc 6e 22 5e bb 5b c4 77 3b
       0.0058592027 -0.008152149 -0.0033895033 0.0037806246
000380 12 f5 0c 3c e2 78 c3 bc b4 94 09 bd 81 ae 02 bc
       0.008603351 -0.023861352 -0.03358908 -0.007976175
000390 ec 5c 1d bb ea c8 34 3c 8e dd 0e bc 40 cc 90 bc
       -0.0024011685 0.01103423 -0.008719815 -0.017675519
0003a0 8b 36 2e 3c a1 c1 b1 bb 0c e2 84 bc ae dd b9 bb
       0.010633121 -0.0054246937 -0.016221069 -0.005672178
0003b0 2e 60 4f 3c d8 17 9d bb 8b 1c d7 3b af 02 05 3c
       0.012657208 -0.004794102 0.006564682 0.008118316
0003c0 6b 72 8f ba e0 4b a2 bb d2 c9 81 bc 56 a7 36 bd
       -0.0010944133 -0.0049528927 -0.015843306 -0.044593178
0003d0 3d 7b 10 3b 62 c1 da 3b 12 ff 6f bb 3d a2 07 bc
       0.0022046112 0.006675885 -0.003662054 -0.008278427
0003e0 79 3a 97 3b 50 2a 9c ba 35 6c 74 bc 75 15 b7 3a
       0.004615125 -0.0011914466 -0.014918377 0.0013968187
0003f0 7f 2f 51 3c 90 24 ea bb e5 c7 c9 3b 51 ab 1e 3b
       0.012767672 -0.007145472 0.0061578625 0.0024211

invertible_encoder.bijectors.0.net.2.bias f4 [18]
000000 81 35 b0 3b 59 b2 a6 3b 54 83 02 3c 56 5e a2 bc
       0.005377472 0.0050871787 0.007965881 -0.019820374
000010 be 27 8d 3b a1 f0 77 3b e7 21 dd 3b 81 cf cc 3b
       0.004307716 0.0037832635 0.0067484262 0.0062503223
000020 bb 2c 15 bb d2 df 75 bc c9 90 0e b9 03 44 fd bb
       -0.0022762257 -0.015006976 -0.00013596112 -0.007729055
000030 a4 fd 12 bc e3 7d 11 3b e1 9f a6 bb f1 d9 d7 3b
       -0.008971605 0.0022200278 -0.005084977 0.00658726
000040 a9 8d ae 3b f9 34 06 3c
       0.005326946 0.008191341

invertible_encoder.bijectors.1.net.0.weight f4 [256, 18]
000000 cd d3 60 3d 4d 8f 1d bf 65 30 0b 3d 5d 4e 8c be
       0.05488949 -0.61546785 0.0339817 -0.27403536
000010 70 74 b8 3e 09 39 d4 3c 8c 47 75 be c0 64 35 be
       0.36026335 0.025906103 -0.23953074 -0.17714214
000020 72 7d 9d bd 76 62 39 3e 10 72 92 3e f1 3f 5b 3e
       -0.076899424 0.18103966 0.28602648 0.2141111
000030 88 fd 9b 3d d3 fd d7 3d 91 d1 f3 bd 82 63 6a 3e
       0.076167166 0.1054646 -0.11905206 0.22889522
000040 27 3f 1a 3e 5d 60 05 3e 88 a4 8c 3f 83 13 44 3e
       0.15063153 0.13025041 1.0987711 0.19148068
000050 14 cb c7 bc 58 1e 2f 3e 3b c9 49 3e 6a 5f b0 3d
       -0.024388827 0.17101419 0.1970567 0.08611949
000060 dc bb 16 be ef 7a db 3e 62 f9 ca be 92 eb 19 3d
       -0.147201 0.42867228 -0.3964339 0.037578173
000070 a8 d3 89 be 5c 02 79 3d 04 3c ca 3e 79 b5 f1 3d
       -0.26919293 0.060793266 0.39498913 0.11802191
000080 5d dc 3e bf 75 27 c1 be 93 4c 8f 3f 14 a8 2d bf
       -0.74555 -0.37725416 1.1195244 -0.6783459
000090 3c a5 10 bf dc 8c 70 be c9 5a 79 bd bb fc cc be
       -0.5650213 -0.23491234 -0.060877595 -0.40036568
0000a0 9e b7 3a be 76 7b 2c 3f c8 fb 43 3f 22 c2 ca 3e
       -0.18234107 0.67375886 0.7655606 0.39601237
0000b0 11 d4 08 bd dd da 8c 3d d9 2d f8 be 1b a3 10 be
       -0.033405367 0.06877682 -0.4847248 -0.1412472
0000c0 04 89 e5 bd 00 70 47 bd af 5e 50 bf c2 2f 8a bd
       -0.11207774 -0.048690796 -0.81394476 -0.0674739
0000d0 8f 5b 7b bc 17 ec 3b 3f 6b 53 8a 3f 3e d6 30 3e
       -0.0153416535 0.7340712 1.0806707 0.17269227
0000e0 b5 7f f1 bd 68 82 9b bf a4 aa 83 3e 9e 9d 62 3d
       -0.11791936 -1.2149172 0.25716126 0.055326097
0000f0 12 78 b1 bb 78 7e 70 3f b8 79 f9 3e 6d 5e 95 3e
       -0.005415925 0.93942976 0.48725677 0.29173604
000100 64 2c 55 bf b0 ff 36 3e 37 50 e7 bd 5e 95 ec be
       -0.8327086 0.17870975 -0.11294597 -0.46207708
000110 e9 ed b7 be 12 b2 e5 be 3e 7b 56 3f 6c 0d 62 bd
       -0.359237 -0.4486242 0.837818 -0.05518858
000120 bf 00 c2 3f 24 00 d0 be fe 8e b8 be a0 7f 0a 3f
       1.5156478 -0.40625107 -0.36046594 0.5410099
000130 bd d6 9a 3d 96 81 54 3e 7c 4d e3 3e 66 c1 01 bf
       0.07560489 0.20752558 0.44395053 -0.5068573
000140 d4 bb a8 bd 13 b3 98 3e d2 15 0b b9 a2 8d 18 bf
       -0.0823895 0.29824123 -0.00013264202 -0.59591115
000150 ee 7a a3 be da 14 22 bd f3 e3 4f bc c8 1a 9b be
       -0.31929725 -0.039570667 -0.012688625 -0.3029387
000160 3c 8e 0e 3e 8c 3f 5c be 97 37 ca bf 8e db 80 bd
       0.13921446 -0.21508616 -1.5798215 -0.06291877
000170 ac 0d f9 3e ec a2 fc 3d c0 27 25 3e 53 d3 a0 3d
       0.48643243 0.123357624 0.16128445 0.07852807
000180 a8 e8 e7 3d 44 7c 18 be 65 57 9b be c7 d9 d7 3d
       0.113236725 -0.14891154 -0.30340114 0.105395846
000190 6f c8 0b 3e d0 1a ac 3d de 91 78 bd e8 e3 b5 3e
       0.13650678 0.084035516 -0.060685985 0.3552544
0001a0 b8 ef 72 bd 91 91 d1 3d 02 ec 45 bc 6c 02 88 3e
       -0.059310645 0.10232843 -0.012080194 0.26564348
0001b0 70 c2 32 3f fe 8e 1b 3f 9b 70 24 be 7d 6b cd 3d
       0.6982794 0.60765064 -0.1605858 0.100302674
0001c0 b1 da a3 3e fc 6f e5 3e 6c e1 6c 3e c5 fe 06 3f
       0.32002786 0.44812 0.23132867 0.527325
0001d0 0f a9 48 be a5 a1 8e bd 7c 0c f4 3c 06 dd 18 bf
       -0.1959574 -0.06964425 0.02979111 -0.59712255
0001e0 6f 7a 24 be 51 20 a2 be 7e 61 4a bd 7f a9 5f 3d
       -0.1606233 -0.3166528 -0.049409382 0.054605003
0001f0 b4 5e 0f 3f 17 e9 c8 be 5c 0d fa bf 7c db 1a be
       0.5600388 -0.39240333 -1.9535327 -0.15122789
000200 08 6e 9e 3c 61 bd ad 3e 79 0b 00 bf a2 4b 65 3f
       0.019339576 0.33933547 -0.50017506 0.8956853
000210 4e f3 5c 3e 18 8e 04 bc a5 a8 94 be 9c 48 3d bf
       0.21577188 -0.008090518 -0.29034916 -0.7393892
000220 92 e1 7f 3e 7d c4 f6 3e a0 a5 0b 3f c3 d3 7c be
       0.24988392 0.48196784 0.545496 -0.24690156
000230 37 4e 0b bf 1b e2 6e 3e 22 71 f6 be cf 18 5f 3c
       -0.5441622 0.2332844 -0.48133188 0.013616755
000240 20 f8 45 3d 09 2a 37 bd c6 99 ad 3d f7 a4 04 bf
       0.048332334 -0.044717822 0.084765956 -0.51814216
000250 98 77 39 bf 0c 60 15 3e 70 78 bc be e1 ce 90 3f
       -0.7244811 0.1458742 -0.36810637 1.1313134
000260 bb 8c c6 3c 98 7d 16 bf a7 81 b8 be 8c d2 4f 3e
       0.024237027 -0.5878539 -0.36036417 0.20295161
000270 e4 94 bf 3e 61 bd 0f 3f b9 74 35 3f 81 e5 04 3e
       0.37418282 0.56148344 0.7088123 0.12978174
000280 fd 94 b6 3f e4 3a 35 bf 5b 62 81 3f 57 da fe 3d
       1.4264218 -0.70792985 1.0108141 0.12443989
000290 c1 0d a8 be 18 2f 72 be b7 84 df bd aa 53 4d 3c
       -0.32822993 -0.23650777 -0.10913985 0.012532154
0002a0 30 b4 cb 3d f7 83 ff 3c ad 97 13 3f d2 dd ff 3e
       0.099464774 0.031190855 0.57653314 0.49973923
0002b0 62 2d bf bd 68 cc 8c be e7 5d 9e 3e d3 90 5f 3e
       -0.09334828 -0.274997 0.30931017 0.2183259
0002c0 25 bd 17 3d 22 e9 6c 3d 5e 96 27 3e dd 50 df bd
       0.037045617 0.05783952 0.16365954 -0.10904095
0002d0 41 51 47 bf 23 8b a4 be 38 5e 9a 3e aa b7 a0 be
       -0.7785836 -0.32137403 0.30150008 -0.31390125
0002e0 7e e1 a2 bd 39 89 5d 3d eb 16 8b bc f2 dd 84 3e
       -0.079531655 0.054085944 -0.016978702 0.2595058
0002f0 3d 98 dd 3d 77 f2 dd 3d db 50 3d 3e f4 cd 82 be
       0.10820053 0.10837262 0.18487875 -0.25547755
000300 c8 4d e2 bd 5b 60 db be aa e6 2d 3d b3 4a e2 bd
       -0.11049992 -0.4284695 0.042456307 -0.11049404
000310 d0 1a 38 3e 80 da e9 be 52 48 2a be 38 26 92 3e
       0.17978978 -0.45674515 -0.1662915 0.28544784
000320 d9 43 a2 3b 81 6c e5 3e 7c fa c6 3e d9 a4 1d bf
       0.0049519357 0.44809344 0.3886298 -0.6157966
000330 05 38 15 be b8 64 2c 3f f0 14 00 3f 44 7d 31 bf
       -0.14572151 0.67341185 0.5003195 -0.69331765
000340 86 29 a3 bd 78 db ad be e7 e7 41 3e 94 cd 7b be
       -0.07966904 -0.33956504 0.1893612 -0.2459014
000350 39 64 97 3d 6a 6c d1 be ee 5a bc 3f 92 57 51 bf
       0.07392163 -0.40903026 1.471525 -0.81774247
000360 73 e7 74 3e 22 2f 19 bf d6 12 c3 be 5a 7e a4 3e
       0.23916416 -0.59837544 -0.38100308 0.3212765
000370 30 be 49 bf a6 61 61 be 1a af 90 3e 07 b2 32 be
       -0.7880583 -0.22009906 0.28258592 -0.17450725
000380 92 5c 95 be ac 53 15 be f4 7b b7 be bf 3d f4 bd
       -0.29172188 -0.145827 -0.35836756 -0.1192584
000390 db d4 1a 3f 05 97 99 3e 74 10 61 3e cf c2 46 3d
       0.6048104 0.2999803 0.21978933 0.048525628
0003a0 55 b4 c0 3e 71 c8 9d be db 7c 51 3f 0f 23 b0 3e
       0.37637582 -0.30816987 0.8183114 0.34401748
0003b0 e8 ab 16 bd 5a 6d 3d bf 82 d7 7e 3d 89 40 1c bf
       -0.036785036 -0.7399498 0.062217243 -0.6103597
0003c0 2c 50 ef 3e 3a fe 1b 3b e3 fd 07 bf 6b 7c 18 3f
       0.46740854 0.0023802654 -0.53121775 0.59564847
0003d0 fc e5 95 bd 43 22 2e 3f be 96 82 3f 8b 30 3c bd
       -0.07319257 0.6802103 1.0202253 -0.04594473
0003e0 c0 45 a8 3e d1 b8 f0 be 61 f9 a3 3d 16 e8 22 bf
       0.32865715 -0.47016004 0.080065496 -0.63635385
0003f0 2c 91 65 bf d1 95 82 bf 89 19 2a be 86 a5 48 3e
       -0.8967464 -1.020197 -0.16611303 0.19594392

invertible_encoder.bijectors.1.net.0.bias f4 [256]
000000 c8 41 ac bc a8 27 34 bd 6c b3 6d bc bd d8 2c bc
       -0.02102746 -0.04398313 -0.01450811 -0.010549721
000010 f6 22 9b 3c 20 67 2e 3c f5 1b 6c bb 74 21 fe bb
       0.01893757 0.010644704 -0.0036027406 -0.0077554528
000020 66 5b 88 bc ae 60 25 ba 08 ea 06 3d f6 78 2e bd
       -0.016645145 -0.0006308657 0.032938033 -0.042595826
000030 65 b6 c3 37 66 46 94 bd fc 99 d1 3b f0 87 24 bd
       2.3330746e-05 -0.0723999 0.00639653 -0.040168703
000040 d5 03 52 3c 92 7c 8b bc 34 a0 c1 ba 04 70 6b bd
       0.012818296 -0.017027173 -0.0014772476 -0.057479873
000050 b5 2a 29 3b 76 2e 79 bd f1 3f 19 bc 7d bf 05 3c
       0.002581281 -0.060835324 -0.009353624 0.00816333
000060 33 f5 09 bd df b5 45 bd 27 93 df bc b5 05 08 3b
       -0.033681106 -0.04826915 -0.027291847 0.0020755355
000070 88 b4 0b bd 57 30 c0 bc f2 3f 8f bc 00 8d 73 bc
       -0.034107715 -0.02346055 -0.017486546 -0.01486516
000080 91 f2 67 3c 29 fc 8d bc 33 e9 d4 bc 6d f5 74 3b
       0.014156953 -0.017332153 -0.025990104 0.003737773
000090 46 0b 6a 3c 06 85 88 bc fd 25 0b bd 92 e8 85 bc
       0.014284914 -0.016664993 -0.033971775 -0.01634625
0000a0 96 f4 89 b9 a3 a9 f8 3b d4 30 7b 3b 79 90 bf bb
       -0.00026312907 0.0075885816 0.0038328664 -0.00584608
0000b0 de 4e cb bb 89 d9 97 bb 34 19 c5 bc 78 4c 5d bd
       -0.00620447 -0.0046340865 -0.02405987 -0.054028004
0000c0 69 2f d0 bc 4a 26 c0 3c a4 d6 c2 bc a2 ba 99 bb
       -0.025413232 0.023455758 -0.02378399 -0.004691438
0000d0 17 bf 04 bd 10 57 46 bd ae 50 18 bd 27 53 70 ba
       -0.0324088 -0.048422873 -0.037186317 -0.0009167664
0000e0 d9 4a 15 bc f7 77 d1 bc 85 b0 39 bd 95 a6 fa bc
       -0.009112083 -0.025569899 -0.045334358 -0.03059701
0000f0 29 b8 ea bb ef b0 f3 bd a7 ec e4 bc f4 f0 ca ba
       -0.007163067 -0.11898982 -0.027944876 -0.0015483187
000100 72 0f 86 bb 31 de 30 3c e8 3f e1 bc f2 ec 42 bd
       -0.0040911967 0.010795162 -0.027496293 -0.04758925
000110 c2 96 d7 bc 9d 46 a1 3b f8 6e c7 bc c1 c2 cf bc
       -0.026317004 0.004921748 -0.024344906 -0.02536142
000120 a7 0b a1 bc f0 a4 c8 bc 71 dd f3 bc b4 43 5f 3a
       -0.019658877 -0.02449271 -0.029768677 0.00085168635
000130 71 3a 1f bd 6d 30 97 bb 04 a4 eb bc 30 0a 70 bd
       -0.038874093 -0.004613927 -0.028764732 -0.058603466
000140 5d bb 74 bd 3a d1 1a 3c 1e dc a5 bc c7 94 ff bc
       -0.059748996 0.009449298 -0.020246562 -0.031198872
000150 ec a0 6d bb 87 2e 0c bd ce 51 9c bc cc 0d 35 3a
       -0.0036259247 -0.03422406 -0.019081976 0.0006906658
000160 35 82 88 bc 37 fa af bc 69 a9 16 bd e2 04 69 bb
       -0.01666365 -0.021481616 -0.036782656 -0.003555589
000170 77 91 e4 bc d0 d8 80 3c 06 3b 37 bd 44 57 50 bd
       -0.027901394 0.015728384 -0.044734024 -0.050864473
000180 32 90 73 bc 26 e5 cf bc 73 5c f7 bc c3 f5 0c bd
       -0.014865922 -0.025377821 -0.03019545 -0.034414064
000190 75 0d c0 3c ff 84 4c bb 33 bc 95 bc 08 e7 03 bd
       0.023443917 -0.0031207202 -0.018278217 -0.03220275
0001a0 2b 7d 0f bd 80 92 68 bd 01 a2 87 3b e0 b5 63 bd
       -0.03503148 -0.05678034 0.0041391854 -0.05559337
0001b0 33 4b b2 bc 26 bc 1a bd c0 fa b9 ba bd 4e 0e bd
       -0.021764373 -0.03777709 -0.0014189109 -0.03474306
0001c0 5e da 14 bc cd b7 12 bc 5f 5c da bc a3 0a 61 bd
       -0.009085266 -0.008954954 -0.026655374 -0.054941785
0001d0 0e a4 14 bd 73 60 bf bc 44 90 09 bc 8f c9 bc bb
       -0.036289267 -0.02336142 -0.008396212 -0.0057613323
0001e0 29 e6 c3 bc 5d 74 83 39 26 98 4b bd 2d 18 32 bc
       -0.02391346 0.00025072964 -0.049705647 -0.010870022
0001f0 af 51 21 bd 7e 0c 67 bd 2b cc 06 bd 91 e8 ff bc
       -0.03938454 -0.056408398 -0.032909553 -0.031238826
000200 fa 86 37 bd ff b7 86 ba f5 aa 05 bd 42 e0 85 bc
       -0.044806458 -0.0010278224 -0.03263374 -0.016342286
000210 02 c6 fd bc 29 84 25 38 5a 8a 31 3b 86 37 24 bc
       -0.030978207 3.946215e-05 0.002709052 -0.010023003
000220 f4 57 10 ba da 98 da bc 3f a3 0b 3a 52 77 ac bd
       -0.000550627 -0.026684213 0.0005326755 -0.08421196
000230 ac c1 2c bd 0d 91 34 bd 9c da 21 bd 44 7a 96 3d
       -0.042176887 -0.044083644 -0.039515123 0.07347539
000240 ac 5d c9 bc 4e 41 49 3c 61 8e 46 bd 88 19 03 bc
       -0.024580799 0.012283636 -0.048475627 -0.008001693
000250 1c fb 74 bb 9f fa 39 bc d3 ab 1d bd 01 4b 38 bd
       -0.0037381118 -0.011351257 -0.038493942 -0.044993404
000260 6b a5 e6 bb 47 6e 9d bb 81 37 8f bc e5 52 ea bc
       -0.0070387623 -0.004804406 -0.017482521 -0.02860398
000270 61 46 57 bd ba 61 12 bd 46 0f f8 bc 63 ee 6b bd
       -0.052557353 -0.03573773 -0.03028072 -0.05760039
000280 5e bd e5 bc 62 ab 14 bd 3a 81 d0 bc 89 eb cf bc
       -0.028044399 -0.036296256 -0.025452245 -0.025380867
000290 79 24 13 bd ba ec e6 bb 24 f7 3a bc e7 9e 91 bc
       -0.035923455 -0.007047263 -0.011411462 -0.017775966
0002a0 a4 af 25 3d e2 67 da bc fa 31 9b bd 36 d0 40 3c
       0.040450707 -0.026660863 -0.07577892 0.011768391
0002b0 4e aa 87 bc be 2e b6 bc f9 f6 e2 bc 83 47 08 3c
       -0.0165607 -0.022239085 -0.027705656 0.008317831
0002c0 ca fb 43 bb 8e 5f 10 bd 58 4b 9e bc ff 72 b2 3c
       -0.0029904717 -0.035247378 -0.019323036 0.02178335
0002d0 45 4f 12 bd 5d d8 cb bc 86 3a 59 bd 93 4c fd bc
       -0.03572013 -0.024883443 -0.053034328 -0.030920302
0002e0 01 7d 11 3c af 4b 0d 3c 7d 54 a5 bc a9 0c 72 3c
       0.008879901 0.008624001 -0.020181889 0.014773526
0002f0 75 e3 3f bd 8d 9a e4 bc a1 af 6f bd a4 fa 40 bc
       -0.04684778 -0.027905727 -0.058517102 -0.011778507
000300 46 a3 20 bd 71 66 ef 3c 44 bb 72 bc 44 b5 e4 bc
       -0.03921821 0.029223653 -0.014815155 -0.027918465
000310 7c e0 11 bd 14 3f 22 bc 64 0b 0e 3c b3 c2 ea bc
       -0.035614476 -0.009902734 0.008669708 -0.028657293
000320 9a fa ad bc 81 12 f8 bc 2f f5 b8 bc 12 9b 94 bd
       -0.02123766 -0.03028226 -0.02257785 -0.0725614
000330 7c 79 4c bb 16 9e 60 bc 28 4f 8b bc 7a df 67 bc
       -0.003120034 -0.013709566 -0.017005518 -0.014152402
000340 01 83 02 bd f2 1e b8 bb d4 80 14 bd 42 70 96 bc
       -0.031863216 -0.0056189233 -0.036255673 -0.018364076
000350 c7 95 89 bc 88 19 ec bb 0b ca 1b bb ec e5 3f bd
       -0.016795052 -0.007205192 -0.002377155 -0.04685013
000360 82 ba 94 bc 28 df 3b bd b0 16 a7 bc 4a c3 4d 3b
       -0.01815534 -0.045867115 -0.02039656 0.003139692
000370 58 75 0a bd 64 b2 73 3b 5e 6b 38 bd f4 9d 11 3d
       -0.033803314 0.0037185187 -0.04502427 0.035551026
000380 ea 02 e9 bc b5 63 70 bd 76 23 97 bc b2 a3 86 3b
       -0.028443772 -0.058688838 -0.018449526 0.0041088695
000390 d3 53 93 bc 7b 4e 0a bd 3e f6 3b 3c da 5b 87 bd
       -0.017984306 -0.03376625 0.011472283 -0.06609316
0003a0 47 aa 16 3c b4 f8 f4 bb 5c 5f b6 bc 24 97 72 bc
       0.009195871 -0.007475937 -0.022262268 -0.014806543
0003b0 bf 35 98 3b bf 3b b1 bc 8a 79 d9 bc e7 7b 69 b9
       0.004645079 -0.021634934 -0.026547212 -0.00022266769
0003c0 af ca 21 bd b4 f3 2a bd 7a b0 95 bc 87 02 0e bd
       -0.039499935 -0.04173632 -0.018272627 -0.03467038
0003d0 5d bb 2d bd 26 8a ea bc 99 96 8f 3b f4 e7 08 3c
       -0.04241501 -0.028630327 0.0043819663 0.008356083
0003e0 89 2c f1 bc a9 59 71 bc 0c ab 5d bd b2 3e d4 bc
       -0.029440181 -0.014730849 -0.0541182 -0.025908802
0003f0 88 26 c3 bc 66 c6 c2 bc 43 84 2b bd 73 20 ba bc
       -0.023822084 -0.023776244 -0.04187418 -0.022720551

invertible_encoder.bijectors.1.net.2.weight f4 [18, 256]
000000 f9 1d ad bc e9 92 33 bd d6 d2 3d 3d 8b 5b d6 bc
       -0.021132456 -0.043841276 0.046343647 -0.026166698
000010 47 29 e2 bd 8e 59 f6 bc a3 86 3a 3d 5d 9e 28 be
       -0.11043029 -0.030072 0.045538556 -0.16466661
000020 7b eb 44 bc 0f 6b 23 bd b9 1b bc 3c 55 71 af 3c
       -0.012019034 -0.03989702 0.022962438 0.021416346
000030 89 13 1a be 1c 4f a1 3d 1d 71 08 bd 72 be a0 bd
       -0.15046515 0.07876417 -0.033311 -0.078488246
000040 35 c8 0a 3b 8a ea a9 3c a7 c4 22 3e 91 01 1a bd
       0.0021176462 0.02074172 0.1589533 -0.03759915
000050 c6 a0 2f bd 53 d6 3f bd f5 04 ba 3d d9 5f 40 3c
       -0.042877935 -0.046835255 0.09082977 0.011741602
000060 05 64 8d 3b fb f4 58 bb 1a c5 01 3e f2 41 e1 ba
       0.004314902 -0.0033105004 0.12672845 -0.0017185791
000070 45 45 e7 bd 62 6d af 39 7c ab f4 bd e3 e5 a6 bc
       -0.11292509 0.00033460098 -0.119467705 -0.02037329
000080 f9 b6 1d bd c6 a0 5f 3c 3e f2 8a bd 02 a5 42 3c
       -0.038504574 0.013649171 -0.06784485 0.011880161
000090 6f 5c cf bd ff d7 01 3d 29 32 53 bd 32 6f 06 3e
       -0.10125052 0.03170013 -0.05156151 0.13128355
0000a0 3e b5 ee 3d 8b e7 90 bd 69 99 a1 bc 2f 41 d8 bd
       0.11655663 -0.07075413 -0.019726472 -0.10559308
0000b0 e2 7c 0d 3d fb f3 35 3d 66 77 92 3d 75 77 48 bd
       0.034542926 0.04442213 0.0715168 -0.048942048
0000c0 63 e6 95 3d bc a7 11 be 82 79 9e 3e cb 98 83 ba
       0.073193334 -0.14224142 0.30952078 -0.0010040043
0000d0 c1 b6 a7 3c e8 9e 58 bc 99 88 2b bd fa 04 12 3d
       0.020472886 -0.01322148 -0.041878317 0.035649277
0000e0 af 06 27 bd c4 01 e1 bc 07 92 27 3e 5e a6 e7 bc
       -0.04077786 -0.027466662 0.16364299 -0.028277572
0000f0 15 04 b3 3b 8f 35 48 be 5c 0c f5 3c 04 62 b6 3c
       0.005463133 -0.19551681 0.02991312 0.022263534
000100 7e 42 74 3c 94 9a 8d bb a2 65 dc bc 4c c6 21 3d
       0.014908431 -0.0043214057 -0.026903931 0.03949575
000110 24 17 bb bb 41 9e 96 bb 69 ab 61 bd 65 78 80 3c
       -0.0057095457 -0.004596502 -0.05509511 0.015682409
000120 d0 b0 80 3d 6d 65 33 3c 5f 54 f7 bc 13 50 c9 bd
       0.06283724 0.010949475 -0.030191598 -0.09829726
000130 58 2e fe ba 32 c8 dd 3b 00 4b 42 3d b4 a8 f3 3c
       -0.0019392474 0.00676825 0.047434807 0.02974353
000140 5c 2a 1d bc 6f dd 08 bc ff 23 23 bd ff b7 4a bd
       -0.009592619 -0.008353575 -0.03982925 -0.04949188
000150 47 1f 0d 3e b2 7e 6c 3d e5 2f 6d 3c 1b 76 0f 3d
       0.13781463 0.057738014 0.014476751 0.035024744
000160 af c4 79 bd 75 3f 30 bd 45 ed 55 be a1 d8 a5 bc
       -0.060978588 -0.043029267 -0.20891292 -0.020244898
000170 24 2b eb 3b 74 93 d7 bd c3 bc 57 bd 75 1c 0c 3e
       0.0071767736 -0.10526171 -0.05267025 0.1368273
000180 a0 47 1f 3d 53 90 bf 3d d1 de ea bc f1 2d 45 be
       0.038886666 0.093536995 -0.0286707 -0.19255807
000190 89 05 03 bd 14 db 02 3e e0 25 1e 3e cd 3a 4e bd
       -0.0319877 0.12778884 0.15444136 -0.050349046
0001a0 9f 70 00 3e 0a 9d c0 bd a4 bb d2 bc 47 65 8e 3d
       0.12542962 -0.09404953 -0.02572424 0.06952911
0001b0 d4 95 9f 3d ac fa c9 bc 1e 11 50 be c1 6d 9d 3d
       0.07792249 -0.024655662 -0.2031903 0.076869495
0001c0 65 ef 4f bb b2 eb dc bd 9d 17 a5 3c 39 60 c1 3c
       -0.0031728384 -0.10787143 0.020152861 0.023605453
0001d0 3a 5e 83 3d 51 6b ab bd 9e 67 2e bb 52 2f 81 3d
       0.06414457 -0.08370078 -0.0026612054 0.06307854
0001e0 dd 33 18 bc 09 64 29 bc fa 1d 8a 3d b3 df 79 3c
       -0.009289709 -0.010338792 0.06743999 0.015251088
0001f0 55 91 b5 bc 8a 55 38 be 6e bf 9e 3c 1b c0 4b bd
       -0.022164026 -0.1800138 0.01937839 -0.049743753
000200 45 ba d1 bc d3 15 6a 3d cc a8 10 3d 71 3f 4d bd
       -0.025601516 0.05714972 0.035317227 -0.05010933
000210 0f 2f ff bc 10 3a 43 bd 0c a8 9b bd 9f ed cb bc
       -0.031150369 -0.047662795 -0.07600412 -0.02489358
000220 81 3e 6b bd 6a 28 74 3d a8 68 68 3b 17 72 12 bd
       -0.057432655 0.059608854 0.003546277 -0.035753336
000230 ad ff 47 bd 66 a9 b0 3d af ed 16 3e 35 85 7e bd
       -0.048827816 0.0862606 0.14739107 -0.062138755
000240 a2 9d a6 3d 49 4b c7 bd 3e c0 e8 3d 91 74 9b 3c
       0.08135535 -0.097311564 0.11364792 0.018976482
000250 ef fa dc bc 2d d3 99 b7 51 a2 c4 3d 30 81 ce 3c
       -0.026975123 -1.8337358e-05 0.09601272 0.025208086
000260 04 02 03 bd 07 b7 8f bd 71 54 7f bd 24 3d 2a be
       -0.031984344 -0.070173316 -0.06233639 -0.16624886
000270 28 93 3d 3d a3 5c 73 bc 10 79 9e 3d 04 8e 8b bd
       0.046282917 -0.014853629 0.077379346 -0.06814197
000280 18 69 63 3c 2b be 4f bd c6 ec c6 3d 6e 50 9c bb
       0.013880037 -0.050718468 0.0971313 -0.00477033
000290 7f 2a 89 3c af fe 20 bd 0b c7 6d be 91 25 9b 3c
       0.016743897 -0.039305385 -0.2322046 0.018938811
0002a0 27 bc b4 3c 11 87 31 3c 85 5c f3 bc b6 4f da 3d
       0.022062374 0.010835425 -0.029707203 0.10659735
0002b0 d7 5f 18 3d ba f0 8a bd 83 1c 17 bd 9a 82 42 3b
       0.037200775 -0.06784196 -0.036892425 0.0029679895
0002c0 a0 7b 09 3d 76 d6 82 bd 00 97 ba 3d fa e1 8c 3b
       0.033565164 -0.063885614 0.09110832 0.0042993994
0002d0 52 59 b3 3d 7a 15 b3 3d dc 1a 7c bd 86 35 38 3d
       0.08757271 0.08744331 -0.061549053 0.04497292
0002e0 20 f2 09 be e4 4e 14 bc 7d e1 e2 bc 0e fc c4 3c
       -0.1347127 -0.009052012 -0.027695412 0.02404597
0002f0 73 84 a0 3c 58 55 f5 bc 61 c0 d8 bb 7a 8b 6d be
       0.019594407 -0.029947922 -0.00661473 -0.23197737
000300 62 eb 18 bd 29 00 8a 3b 16 5a e4 bd e9 52 0b bc
       -0.037333854 0.004211445 -0.11149995 -0.008503654
000310 55 51 90 3c 2a d0 47 bd 72 18 7d 3b e0 12 c3 bc
       0.017616907 -0.048782505 0.0038619307 -0.023812711
000320 f3 cb c0 3d 6a e8 a2 3c 18 b0 c1 3d ab 8b 2a bd
       0.094139 0.019886214 0.09457415 -0.041637104
000330 bc 3a ae bd 96 81 98 3b 92 d3 a8 3c 8f 41 cf bd
       -0.085072964 0.0046541197 0.020608697 -0.10119926
000340 34 a0 9a 3d 67 e6 0f be e6 9a 95 3c 9f 39 2f 3d
       0.075500876 -0.14052735 0.018262338 0.04277956
000350 67 2c 4a 3d 8c e1 63 bc 2f cf 8a 3e 3e a5 00 be
       0.04935875 -0.013908755 0.27111194 -0.12563035
000360 af 80 69 bd 9b 10 29 3d 62 f8 41 bd c5 69 4b bc
       -0.057007488 0.0412756 -0.047356017 -0.012415354
000370 f8 1d 91 3c ab 65 06 be 6e a0 4b 3d 45 00 da 3c
       0.017714486 -0.13124721 0.049713545 0.026611457
000380 65 32 02 3e 54 10 39 bc 18 aa 35 3d e5 c7 8b bd
       0.12714536 -0.011295397 0.044351667 -0.06825236
000390 79 fb 67 3e eb b6 03 be 8d 45 9a bd d4 26 b3 bc
       0.22654523 -0.12862746 -0.07532797 -0.0218691
0003a0 f3 5c da 3d b5 56 1a be 76 7d 9e bd 9f 41 25 bd
       0.1066226 -0.15072139 -0.077387735 -0.040345784
0003b0 33 04 8b bd a1 70 25 3e d5 3b b6 3d 0c 28 81 3d
       -0.0678791 0.16156246 0.08898131 0.063064665
0003c0 5a 28 0a 3c e7 59 e3 3d 79 d2 45 bc cf 08 96 b9
       0.008432472 0.11101132 -0.012074106 -0.00028616792
0003d0 bf 13 13 3c c3 80 86 3c 62 ac c7 3d 3f 59 3e 3e
       0.008976876 0.01641882 0.09749676 0.18588732
0003e0 5f 50 b3 3d a2 94 23 bc e9 3e 5d bd fc 2a 16 3e
       0.08755564 -0.009984167 -0.054015074 0.14664835
0003f0 9a a8 51 bd bf ac 2e bd c1 15 5b be de f1 a2 3c
       -0.05118618 -0.042645212 -0.21395017 0.019890722

invertible_encoder.bijectors.1.net.2.bias f4 [18]
000000 42 b3 15 bd 3c 7d 59 bd c3 da 4d bd 75 c7 7c be
       -0.036547907 -0.05309795 -0.050257456 -0.24685462
000010 25 ef be bd 5d 9d 5c be 05 ed 8a be 17 c9 95 be
       -0.09322957 -0.21544404 -0.27133957 -0.29254982
000020 40 15 64 be 43 d8 d5 bd af bc 53 3a 90 1c 90 3b
       -0.22273731 -0.10441639 0.0008077127 0.004397936
000030 2a 9d cf bc 3d d9 2c 3b aa 96 f5 3b 91 aa 8e bb
       -0.025343496 0.0026374601 0.007494767 -0.004353829
000040 69 f9 b8 3b 11 20 82 bb
       0.0056449664 -0.003971108
